models/gan_model.pth (torch, 585800 bytes, 8 tensors)

generator.0.weight f4 [1, 1, 2, 2]
-0.3108983 -0.4172184 0.57840824 -0.0014447419
00000000: 102e 9fbe a69d d5be 9012 143f 7e5d bdba

generator.3.weight f4 [1, 1, 2, 2]
0.37525687 -0.03920767 -0.041523956 0.39349493
00000000: ab21 c03e 3998 20bd 0615 2abd 2b78 c93e

generator.7.weight f4 [784, 64]
0.029577358 -0.059387278 -0.043929256 -0.065005675 -0.0074918047 -0.017559074 0.06857895 0.008562182
-0.0010425386 0.09804022 -0.015165301 -0.09532218 -0.044192713 -0.12836856 -0.14349775 0.052535247
-0.1507323 0.10641992 -0.044917956 0.06741024 -0.06724485 0.05672078 0.061280396 0.07412329
-0.1599196 -0.08848646 -0.030208426 -0.033792578 -0.022531476 -0.13966826 0.040001974 -0.12728223
0.06014141 -0.057256766 0.101264216 0.04644334 -0.033884987 0.06870591 -0.06822955 -0.18397711
0.017096644 -0.059105225 0.02379532 -0.0058763004 -0.07568758 0.15841344 0.11065824 -0.08343301
0.22223662 -0.1691375 -0.065588534 0.043845948 0.06333648 0.06279301 0.0129335215 -0.016800696
-0.15276489 0.13522983 -0.08673479 -0.08708247 0.059242696 -0.045636546 -0.05728367 -0.05358404
-0.13185328 0.06811051 -0.007852843 0.11132937 0.11223204 -0.120986834 -0.07001293 -0.032345705
-0.06748415 -0.06405612 -0.03952478 -0.09983697 0.07702849 0.16565 0.06336654 0.031010425
-0.019516012 -0.07223126 0.05980699 -0.01756066 -0.031879507 0.091034696 -0.029221753 0.024121515
-0.089873575 -0.18747956 0.04011318 0.11333326 0.0028584138 -0.14289197 0.09549839 0.1586728
-0.07039659 -0.05216858 -0.006977224 -0.10806987 0.09021642 0.0446623 -0.09578678 -0.13043341
0.09698298 0.03313189 -0.09399666 -0.13413884 -0.102813795 -0.16006319 -0.017428758 -0.13723141
-0.09429593 -0.04233195 0.088472985 -0.19099604 0.09579149 0.05746553 4.7077523e-05 -0.09007431
-0.05768451 -0.0032197062 -0.030637337 -0.032969594 -0.022889024 0.032248992 -0.11660126 0.057924155
0.013298324 0.029226176 0.05778132 -0.019117093 -0.014689376 -0.01902301 -0.012062029 0.10504497
-0.066898584 0.041414432 -0.06330091 0.032586653 0.010359648 0.012829223 -0.06937431 0.058908336
-0.02795653 0.0091845235 -0.0802824 -0.0378129 -0.077514954 0.109915294 0.063239664 -0.05074187
-0.07987854 -0.06120927 -0.085571736 0.0050255028 0.07315822 -0.06744479 0.023344588 -0.06350845
-0.056998342 0.1809828 0.028698312 0.027298162 -0.1952444 0.033314444 0.01169163 -0.20191239
0.050545603 -0.056642868 -0.008206174 0.010421603 0.017606042 -0.09670396 0.095277645 -0.017348334
-0.033954225 -0.008493499 0.017548608 -0.07267127 -0.01990483 -0.053927224 -0.027042834 -0.066501655
-0.12415636 -0.1856217 -0.122347035 -0.043817293 -0.10303615 0.009615016 -0.048608232 -0.026969226
-0.08003596 -0.16043343 0.09813624 -0.0696586 0.002698376 -0.11367106 -0.07996679 0.06268204
-0.023517665 -0.20118862 -0.003156894 -0.15544364 0.039777704 0.04233097 0.05023381 0.070393436
-0.12326502 -0.029365595 0.07033204 0.06425608 0.008656044 -0.034900937 -0.112376824 0.07174424
-0.15191288 0.011975025 0.08281222 -0.0653205 0.047181375 -0.056633115 -0.035215504 -0.104876615
-0.089037865 -0.13245021 -0.10229133 -0.022661438 0.05364743 0.08350998 -0.08413346 0.09496165
-0.01625733 -0.083673544 -0.102656916 -0.020031426 -0.08757491 0.032573078 -0.07901444 -0.007649417
0.16929594 -0.014196189 -0.008851009 -0.14431722 -0.10856152 -0.05412547 -0.09101944 -0.033586558
-0.110605344 0.022055976 0.1370804 0.036304493 -0.031060735 -0.124354444 -0.038880605 -0.09360362
00000000: 374c f23c 1340 73bd 2aef 33bd b221 85bd
00000010: d07d f5bb 0cd8 8fbc 1f73 8c3d 6548 0c3c
00000020: caa5 88ba 50c9 c83d e277 78bc 4638 c3bd
00000030: 6b03 35bd 0c73 03be 13f1 12be 332f 573d
00000040: 9159 1abe b0f2 d93d e4fb 37bd 610e 8a3d
00000050: abb7 89bd 0c54 683d 2701 7b3d f4cd 973d
00000060: f7c1 23be 6438 b5bd a977 f7bc 166a 0abd
00000070: ee93 b8bc 3205 0fbe 1cd9 233d 4656 02be
00000080: d756 763d 1286 6abd 9d63 cf3d 5f3b 3e3d
00000090: fcca 0abd afb5 8c3d efbb 8bbd 7f64 3cbe
000000a0: 430e 8c3c 5218 72bd 67ee c23c fb8d c0bb
000000b0: 1702 9bbd 2237 223e caa0 e23d edde aabd
000000c0: ff91 633e 6132 2dbe 4853 86bd cf97 333d
000000d0: 8eb6 813d 9f99 803d 1fe7 533c 9da1 89bc
000000e0: 666e 1cbe b079 0a3e 02a2 b1bd 4b58 b2bd
000000f0: 78a8 723d 63ed 3abd 48a2 6abd f07a 5bbd
00000100: 8c04 07be 867d 8b3d 36a9 00bc a700 e43d
00000110: e9d9 e53d f2c7 f7bd f062 8fbd ee7c 04bd
00000120: 2135 8abd db2f 83bd bce4 21bd 5377 ccbd
00000130: 1dc1 9d3d 27a0 293e 51c6 813d 9309 fe3c
00000140: 0be0 9fbc fced 93bd 2df8 743d 60db 8fbc
00000150: 1694 02bd 6670 ba3d 7562 efbc 7c9a c53c
00000160: a30f b8bd a4fa 3fbe b84d 243d 451b e83d
00000170: 3a54 3b3b 4652 12be a994 c33d 1f7b 223e
00000180: 162c 90bd b9ae 55bd 32a1 e4bb bc53 ddbd
00000190: 63c3 b83d d1ef 363d dc2b c4bd 5690 05be
000001a0: 039f c63d 4eb5 073d 5281 c0bd b15b 09be
000001b0: 0a90 d2bd 9be7 23be c1c6 8ebc 6486 0cbe
000001c0: 391e c1bd 4464 2dbd 5331 b53d 7794 43be
000001d0: 542e c43d fa60 6b3d 1b75 4538 e178 b8bd
000001e0: 9846 6cbd b501 53bb 27fb fabc 200b 07bd
000001f0: c381 bbbc 8517 043d a4cc eebd e141 6d3d
00000200: 37e1 593c bc6b ef3c 1bac 6c3d 739b 9cbc
00000210: b5ab 70bc 25d6 9bbc d19f 45bc d121 d73d
00000220: 2002 89bd 2ea2 293d e8a3 81bd 9579 053d
00000230: 83bb 293c a931 523c 1e14 8ebd de49 713d
00000240: 1805 e5bc af7a 163c 196b a4bd b3e1 1abd
00000250: 29c0 9ebd 451b e13d cc83 813d b5d6 4fbd
00000260: 5c97 a3bd 92b6 7abd 3c40 afbd f9ac a43b
00000270: fad3 953d 7e20 8abd 263d bf3c b810 82bd
00000280: 1877 69bd 8e53 393e b918 eb3c 65a0 df3c
00000290: 26ee 47be ba74 083d 408e 3f3c 1fc2 4ebe
000002a0: e808 4f3d 5a02 68bd 3073 06bc 5fbf 2a3c
000002b0: 8c3a 903c ba0c c6bd ed20 c33d 181e 8ebc
000002c0: 9613 0bbd 5128 0bbc 19c2 8f3c add4 94bd
000002d0: 740f a3bc cbe2 5cbd ef88 ddbc 0532 88bd
000002e0: b145 febd 9d13 3ebe 1591 fabd c379 33bd
000002f0: 9e04 d3bd 4d88 1d3c 6d19 47bd 91ee dcbc
00000300: e5e9 a3bd a948 24be a7fb c83d 2ba9 8ebd
00000310: 3dd7 303b 5fcc e8bd a1c5 a3bd 715f 803d
00000320: 1ea8 c0bc 6404 4ebe e4e3 4ebb 9e2c 1fbe
00000330: f2ed 223d 3d63 2d3d f8c1 4d3d 6f2a 903d
00000340: 5f72 fcbd 1e90 f0bc 3f0a 903d b198 833d
00000350: 14d2 0d3c 49f4 0ebd d225 e6bd a5ee 923d
00000360: 0d8f 1bbe e532 443c 7499 a93d c1c6 85bd
00000370: 4241 413d 20f8 67bd 223e 10bd 8dc9 d6bd
00000380: 7c59 b6bd 07a1 07be 1e7e d1bd 7ba4 b9bc
00000390: 68bd 5b3d 4807 ab3d 2a4e acbd 417b c23d
000003a0: 182e 85bc 095d abbd ca3d d2bd f218 a4bc
000003b0: 795a b3bd 596b 053d 53d2 a1bd f6a7 fabb
000003c0: ea5b 2d3e 2297 68bc d303 11bc e5c7 13be
000003d0: 8155 debd abb2 5dbd 6668 babd 0f92 09bd
000003e0: 0e85 e2bd bcae b43c ce5e 0c3e 05b4 143d
000003f0: 1573 febc 8bad febd 4541 1fbd 41b3 bfbd

generator.7.bias f4 [784]
-0.07502941 -0.108456984 0.05729151 -0.048969183 0.0013113836 0.060180087 -0.07104685 -0.019347584
0.063514754 -0.12962815 -0.0769732 -0.055001825 -0.032207374 -0.05799408 0.07740776 0.07261441
-0.07683777 -0.05674604 -0.116744146 -0.026749866 -0.12257451 0.09974037 0.03164246 -0.00783007
-0.12135789 -0.10008018 -0.16059548 0.046294417 -0.07185806 -0.07183111 0.037801944 -0.06823328
-0.1557049 -0.09242234 -0.15382184 -0.08531681 -0.114562355 -0.15352778 0.019158034 -0.005318665
0.07520277 -0.067196965 -0.11043945 -0.021973465 -0.04097441 0.021594454 -0.098324664 0.06497223
-0.13043015 -0.020163096 -0.1518372 0.0125610195 0.012182809 -0.13426788 -0.0141591355 0.0652288
0.089546524 -0.13467178 0.058220163 0.055924274 -0.02357761 -0.11087746 0.06294248 -0.088051796
-0.14245005 -0.15962437 -0.09352261 0.079405345 -0.059378613 -0.005182583 0.026928741 -0.052216705
0.0652511 -0.09730852 -0.15085877 0.02170209 -0.12193343 0.00094286975 -0.07119989 -0.057946917
0.030477626 -0.095773935 0.07591902 0.08830078 -0.10258075 -0.05641748 0.058037367 0.001479131
-0.10072089 -0.023243796 0.024487171 -0.00483151 -0.08686652 -0.035996206 -0.1313067 -0.13267803
0.06735313 -0.09396393 -0.048453722 0.06721033 -0.03585568 -0.15107793 -0.16193521 -0.12999687
-0.10415708 0.041814674 -0.029759236 0.0036787333 -0.035739996 -0.019315692 -0.07016711 -0.019163411
0.010890799 -0.038302872 0.061543692 -0.06778673 -0.12826374 -0.11531572 -0.035111904 0.038982287
-0.041356575 -0.057061195 -0.009684157 0.0070560114 -0.10024086 -0.04397796 -0.01229822 -0.07677223
-0.054937825 0.07340631 -0.060262915 -0.0029799542 -0.07694683 -0.11522585 0.08040702 -0.0828254
0.059036795 0.051014785 -0.09642722 -0.072201826 0.035548527 0.0046114586 0.04856793 0.04906531
0.02546308 -0.11128697 -0.15369539 -0.116107434 -0.13536613 -0.13458775 -0.035785224 -0.1455714
-0.081371695 -0.029084917 -0.09465017 -0.013698952 -0.020930432 0.031045195 0.011849269 0.07533224
-0.15445158 -0.12883967 -0.045129817 0.0072711906 -0.10443761 0.0023159615 -0.11971055 -0.16549258
-0.069923386 -0.0679674 -0.037305843 -0.0077937786 -0.12753357 -0.025965525 0.009084366 0.0714429
0.067665555 0.08096713 0.05081874 -0.020826282 0.09414421 0.031914096 0.05038663 0.0593562
0.08372741 0.078975014 0.022402933 0.0067353523 -0.015148984 -0.08778001 0.010592503 -0.053966522
-0.006759691 -0.13313003 -0.15501672 -0.118526556 -0.027632784 -0.07909215 0.04000237 0.022622418
-0.12805246 -0.034434848 -0.09041759 0.026198592 -0.07794186 0.06843677 0.056177594 0.017123062
-0.062767215 -0.128342 0.042204715 -0.09166154 0.06416947 0.07646986 0.020830708 0.0723844
-0.13786684 0.024054602 -0.10131801 -0.020711096 -0.06142122 0.068909906 -0.046474244 0.070024095
-0.1313759 -0.13629131 -0.11575113 0.0006056168 -0.038067326 -0.0018519646 -0.06709385 -0.10496174
-0.109182976 -0.1280021 -0.11357749 -0.0010858002 -0.068120115 -0.018920626 0.061527155 0.01971308
-0.04717719 -0.042639095 0.01118701 -0.0893734 -0.12806228 0.05519171 -0.08751079 -0.06353853
-0.018567247 0.00031637435 -0.017311616 0.041007183 0.016061027 0.05806831 0.08141201 -0.01163627
00000000: 05a9 99bd b21e debd 81aa 6a3d e993 48bd
00000010: bbe2 ab3a 657f 763d 0381 91bd d37e 9ebc
00000020: 0614 823d 3ebd 04be 20a4 9dbd 9849 61bd
00000030: e1eb 03bd 338b 6dbd f687 9e3d ddb6 943d
00000040: 1f5d 9dbd 896e 68bd 8e17 efbd 8922 dbbc
00000050: 5808 fbbd ae44 cc3d 869b 013d b249 00bc
00000060: 7c8a f8bd d6f6 ccbd 2473 24be 379f 3d3d
00000070: 522a 93bd 301c 93bd 36d6 1a3d e4bd 8bbd
00000080: 1b71 1fbe ec47 bdbd 7983 1dbe 94ba aebd
00000090: ab9f eabd 6336 1dbe 4ff1 9c3c 3248 aebb
000000a0: e903 9a3d 909e 89bd 142e e2bd b201 b4bc
000000b0: c8d4 27bd dae6 b03c 715e c9bd 2910 853d
000000c0: 7b8f 05be 142d a5bc 367b 1bbe bccc 4d3c
000000d0: 689a 473c 857d 09be b8fb 67bc ad96 853d
000000e0: 2b64 b73d 66e7 09be 4478 6e3d da10 653d
000000f0: d525 c1bc b913 e3bd fde7 803d 8054 b4bd
00000100: 6dde 11be 9274 23be c888 bfbd 459f a23d
00000110: fd36 73bd a8d2 a9bb aa99 dc3c 2fe1 55bd
00000120: 5ea2 853d b049 c7bd b97a 1abe 95c8 b13c
00000130: 3cb8 f9bd eb2a 773a 3fd1 91bd bf59 6dbd
00000140: 37ac f93c 2025 c4bd 6e7b 9b3d 0ad7 b43d
00000150: db15 d2bd 0416 67bd 97b8 6d3d 67df c13a
00000160: c146 cebd c669 bebc 5299 c83c a551 9ebb
00000170: 13e7 b1bd c270 13bd 4375 06be c0dc 07be
00000180: 70f0 893d 2970 c0bd 6977 46bd 92a5 893d
00000190: 68dd 12bd 2cb4 1abe 58d2 25be e61d 05be
000001a0: 4f50 d5bd dd45 2b3d a4c9 f3bc e716 713b
000001b0: 1a64 12bd f13b 9ebc c6b3 8fbd 96fc 9cbc
000001c0: 526f 323c 79e3 1cbd 3d15 7c3d c5d3 8abd
000001d0: 9257 03be a62a ecbd 80d1 0fbd e4ab 1f3d
000001e0: 8365 29bd 00b9 69bd 4caa 1ebc 1d36 e73b
000001f0: 144b cdbd 3c22 34bd 797e 49bc c23a 9dbd
00000200: 7c06 61bd 0c56 963d 3fd6 76bd 564b 43bb
00000210: 4d96 9dbd 88fb ebbd 70ac a43d 5da0 a9bd
00000220: 91d0 713d e1f4 503d a27b c5bd 8dde 93bd
00000230: 559b 113d b81b 973b 2aef 463d b5f8 483d
00000240: f397 d03c 6cea e3bd 5362 1dbe bcc9 edbd
00000250: 6b9d 0abe 5fd1 09be 8793 12bd ab10 15be
00000260: 34a6 a6bd 7e43 eebc f3d7 c1bd 9271 60bc
00000270: 4c76 abbc 7e52 fe3c 7023 423c ca47 9a3d
00000280: 8e28 1ebe 8cee 03be 0bda 38bd 2b43 ee3b
00000290: 63e3 d5bd 63c7 173b ce2a f5bd e376 29be
000002a0: fe33 8fbd 7e32 8bbd 03ce 18bd f462 ffbb
000002b0: 2998 02be a7b5 d4bc 98d6 143c a850 923d
000002c0: 3d94 8a3d 18d2 a53d 5027 503d e19b aabc
000002d0: aece c03d 5bb8 023d 3662 4e3d 7d1f 733d
000002e0: 4779 ab3d a7bd a13d 5b86 b73c 3bb4 dc3b
000002f0: 7233 78bc 02c6 b3bd 2d8c 2d3c 000c 5dbd
00000300: 6680 ddbb 3d53 08be b4bc 1ebe 0dbe f2bd
00000310: 265e e2bc 11fb a1bd 86d9 233d a652 b93c
00000320: 2f20 03be 8e0b 0dbd dc2c b9bd 6e9e d63c
00000330: fb9f 9fbd 9428 8c3d 7a1a 663d aa45 8c3c
00000340: 198c 80bd 166c 03be dade 2c3d 0cb9 bbbd
00000350: 486b 833d 3b9c 9c3d 29a5 aa3c 463e 943d
00000360: f72c 0dbe 280e c53c d17f cfbd 51aa a9bc
00000370: d194 7bbd a320 8d3d c75b 3ebd cb68 8f3d
00000380: 6787 06be f38f 0bbe ee0e edbd 41c2 1e3a
00000390: 7cec 1bbd 9fbd f2ba 8068 89bd 2ef6 d6bd
000003a0: 539b dfbd fc12 03be 519b e8bd 6951 8eba
000003b0: 8f82 8bbd 6eff 9abc e603 7c3d 537d a13c
000003c0: df3c 41bd 55a6 2ebd b949 373c 6709 b7bd
000003d0: c222 03be b410 623d db38 b3bd 7d20 82bd
000003e0: 571a 98bc 0cdf a539 17d1 8dbc 26f7 273d
000003f0: 6a92 833c 09d9 6d3d 57bb a63d 0ea6 3ebc

discriminator.0.weight f4 [1, 1, 2, 2]
-0.16958065 -0.02406292 -0.63512355 -0.670915
00000000: 8da6 2dbe 9a1f c5bc 7597 22bf 16c1 2bbf

discriminator.2.weight f4 [128, 729]
-0.047259938 -0.044637907 0.012817607 0.018009217 -0.002019429 0.0121635385 0.014811558 -0.009219443
0.0071467306 0.0050495756 -0.0021072417 0.04336932 -0.021829316 -0.0096334815 0.050107796 0.06674142
0.025997525 0.0037483876 0.023335958 -0.017753448 -0.035036955 0.0148674175 -0.019010343 0.014994806
-0.037706565 0.004101891 -0.035520982 -0.03906544 0.023502475 -0.03772093 -0.04995158 -0.03630398
0.028129281 0.0019546999 -0.008274867 0.022022532 0.03710205 0.012375564 0.028575268 0.03193001
-0.0036525412 -0.016977964 -0.027179684 -0.023767117 -0.015085127 0.010291977 0.00052329537 0.008344221
0.00032107756 -0.02481092 -0.013320086 -0.008509748 -0.054158323 -0.028979277 0.000824681 0.050648242
0.0157135 -0.022356499 -0.011924258 -0.00022502398 0.015598494 -0.046331286 -0.038243644 -0.013261717
0.018059984 0.008143154 -0.04595862 0.027623275 0.00043117406 -0.010417999 0.0016260449 -0.012510507
0.03281754 -0.03337213 -0.017749552 -0.0055000517 -0.030477678 -0.04675216 0.023285441 -0.04631633
-0.008116091 -0.029544959 -0.030332131 -0.005906089 0.0004369714 0.006589388 -0.01445294 -0.011159813
-0.0047926786 -0.0067507015 0.008191251 0.006262774 -0.00028912348 -0.05168618 -0.00821979 -0.018834481
-0.022219358 0.0032449097 -0.06222135 -0.02923583 0.013996392 -0.016028587 -0.023758696 0.02705111
-0.0083010895 -0.028319487 -0.0256154 0.026187407 0.00301503 0.019759715 0.040178534 -0.05200454
-0.009977761 -0.052814305 0.027199756 0.03438897 -0.010979913 0.03451945 -0.01734379 0.034625962
-0.006188375 0.043159354 0.021471405 0.013151967 0.014478599 0.01910981 0.04997048 0.012072004
0.010760151 0.021323517 -0.02814597 0.009803764 -0.023111127 0.026122808 -0.026604295 0.0071014157
-0.0043434794 -0.04143343 0.008473306 0.014006263 0.03756911 -0.054385282 -0.011884748 0.032150377
0.04288322 0.016872417 0.023767374 0.07753939 0.06231792 0.03280582 0.04947687 0.026378144
0.029162994 0.0456268 -0.02286432 0.058201987 -0.026353104 0.03610773 0.042715166 -0.029432194
0.01242813 0.02282961 -0.0188142 -0.0074480437 0.001994175 0.006990838 -0.012878669 -0.014548024
-0.005854592 -0.024654856 0.0032965944 6.953574e-05 0.028854001 0.0130825 0.015211369 0.060772218
0.01886699 -0.013402189 0.019776896 0.01127832 0.016767325 0.047757823 0.034148514 0.046519287
-0.016312854 0.022201147 0.036961313 0.044842146 -0.0101042725 -0.00052137487 -0.018508816 0.036083944
-0.031597286 -0.022701599 0.011445582 -0.019530602 -0.03468524 -0.03152683 -0.005529207 -0.011497187
0.05759391 0.025001787 -0.03677162 0.0024629135 0.062002566 -0.03292805 0.029832723 0.0031146812
-0.008255393 0.062543765 0.020813363 0.003864139 -0.01620537 -0.050394855 -3.0042791e-05 -0.0014136812
0.038032446 0.04561655 0.016891794 -0.001426762 -0.0031969307 0.01848487 -0.03054144 -0.02491853
0.040711116 -0.00012445883 -0.035391785 0.020201728 -0.009776835 -0.012787536 0.014325741 -0.033296585
0.01619379 0.008254911 0.009295778 0.014225455 0.0076853754 0.016415164 0.012401379 -0.014510054
0.010648775 0.058632504 -0.019387623 0.015136118 0.010884396 -0.021821689 0.017793918 -0.012951812
-0.017994862 -0.0054842127 -0.049480613 0.010073687 -0.08121731 -0.04826814 -0.0043308535 -0.0072266
00000000: a393 41bd 3dd6 36bd f100 523c 1188 933c
00000010: 6658 04bb 9449 473c 2dac 723c 260d 17bc
00000020: 1f2f ea3b e976 a53b a619 0abb 07a4 313d
00000030: 65d3 b2bc c0d5 1dbc d53d 4d3d baaf 883d
00000040: c3f8 d43c 82a7 753b 0d2b bf3c ae6f 91bc
00000050: e982 0fbd 7896 733c 94bb 9bbc c6ac 753c
00000060: 3372 1abd 2869 863b 737e 11bd 1503 20bd
00000070: 4388 c03c 4381 1abd 079a 4cbd 7bb3 14bd
00000080: 616f e63c 6c1a 003b 4f93 07bc 9968 b43c
00000090: 52f8 173d e1c2 4a3c ae16 ea3c 0bc9 023d
000000a0: 795f 6fbb 5f15 8bbc eea7 debc 42b3 c2bc
000000b0: 9c27 77bc ae9f 283c c22d 093a 33b6 083c
000000c0: 4d56 a839 4540 cbbc 7d3c 5abc 786c 0bbc
000000d0: 1ed5 5dbd f365 edbc 682f 583a 8874 4f3d
000000e0: 99b9 803c fa24 b7bc f75d 43bc 6af4 6bb9
000000f0: d390 7f3c e0c5 3dbd 5ea5 1cbd ac47 59bc
00000100: 88f2 933c dd6a 053c 1b3f 3cbd 354a e23c
00000110: 340f e239 41b0 2abc 0321 d53a dff8 4cbc
00000120: af6b 063d 37b1 08bd 8267 91bc c739 b4bb
00000130: 53ac f9bc 317f 3fbd 1cc1 be3c 31b6 3dbd
00000140: 5af9 04bc 4508 f2bc 177b f8bc de87 c1bb
00000150: 4f19 e539 cbeb d73b 06cc 6cbc a6d7 36bc
00000160: e70b 9dbb fd34 ddbb 9934 063c f537 cd3b
00000170: 7f95 97b9 e3b4 53bd 4cac 06bc c54a 9abc
00000180: 5f05 b6bc 8da8 543b d0db 7ebd fb7f efbc
00000190: 1f51 653c 624e 83bc 99a1 c2bc 4a9a dd3c
000001a0: 4b01 08bc 45fe e7bc 63d7 d1bc f986 d63c
000001b0: cf97 453b 20df a13c 3f92 243d b602 55bd
000001c0: c379 23bc d053 58bd 06d2 de3c 73db 0c3d
000001d0: 18e5 33bc 4464 0d3d 9014 8ebc f4d3 0d3d
000001e0: dac7 cabb ddc7 303d cde4 af3c 597b 573c
000001f0: a537 6d3c 2d8c 9c3c d9ad 4c3d a8c9 453c
00000200: 584b 303c a8ae ae3c 6192 e6bc f79f 203c
00000210: 8c53 bdbc 80ff d53c 40f1 d9bc feb2 e83b
00000220: bf53 8ebb 1ab6 29bd 9fd3 0a3c 867a 653c
00000230: 11e2 193d 1ac3 5ebd 3fb8 42bc 1db0 033d
00000240: 51a6 2f3d 0638 8a3c ccb3 c23c f9cc 9e3d
00000250: 1341 7f3d 655f 063d 42a8 4a3d fa16 d83c
00000260: 3be7 ee3c 2be3 3a3d f44d bbbc 3565 6e3d
00000270: 77e2 d7bc b3e5 133d 19f6 2e3d c91b f1bc
00000280: 5b9f 4b3c 2a05 bb3c 3d20 9abc b80e f4bb
00000290: b4b0 023b 6613 e53b 0e01 53bc d65a 6ebc
000002a0: e1d7 bfbb fbf8 c9bc ad0b 583b b7d3 9138
000002b0: 3a5f ec3c fb57 563c 1b39 793c 4aec 783d
000002c0: f28e 9a3c db94 5bbc 2803 a23c b4c8 383c
000002d0: a15b 893c b59d 433d 50df 0b3d 028b 3e3d
000002e0: 89a2 85bc 2edf b53c bf64 173d 66ac 373d
000002f0: 648c 25bc e0ac 08ba cd9f 97bc c2cc 133d
00000300: 286c 01bd b4f8 b9bc 4086 3b3c a4fe 9fbc
00000310: 1c12 0ebd 4722 01bd 5a2e b5bb b35e 3cbc
00000320: 97e7 6b3d 8cd0 cc3c d79d 16bd d568 213b
00000330: 67f6 7d3d 90df 06bd c163 f43c ae1f 4c3b
00000340: a141 07bc f216 803d c980 aa3c 7f3d 7d3b
00000350: 20c1 84bc d66a 4ebd 6704 fcb7 454b b9ba
00000360: e9c7 1b3d 6bd8 3a3d a960 8a3c 3002 bbba
00000370: 9983 51bb 956d 973c 0b32 fabc f221 ccbc
00000380: b3c0 263d 2a81 02b9 faf6 10bd 187e a53c
00000390: 052f 20bc d082 51bc 83b6 6a3c 0062 08bd
000003a0: d7a8 843c 9b3f 073c 524d 183c e211 693c
000003b0: 9ad5 fb3b 1879 863c 272f 4b3c 94bb 6dbc
000003c0: 3378 2e3c a328 703d cbd2 9ebc 7bfd 773c
000003d0: 7754 323c 66c3 b2bc 8dc4 913c d633 54bc
000003e0: f669 93bc e9b4 b3bb 2fac 4abd 1b0c 253c
000003f0: 4355 a6bd d0b4 45bd d5e9 8dbb 1dcd ecbb

discriminator.2.bias f4 [128]
0.38054314 0.3668219 -0.29312503 -0.32922232 0.4689262 -0.2355156 -0.27095568 0.4705584
-0.39381492 0.3433772 -0.19352697 0.41741294 -0.38810378 0.41874936 -0.35372165 0.44785997
0.45847616 -0.30678415 0.56524026 -0.32797027 -0.36243972 0.41506 -0.25279817 -0.20322974
-0.2574252 0.47171262 -0.21965493 -0.3176886 0.47609463 -0.22320719 0.30800486 -0.32066506
-0.3652242 0.33366305 0.46615756 0.3653642 -0.33921105 0.5029384 0.28343517 -0.27402034
0.09013538 0.44396082 -0.21724923 -0.3727991 0.33264837 -0.2667751 -0.38543266 0.46961072
0.23253663 -0.19422135 -0.26403984 -0.33090392 0.311391 -0.27174383 0.42101455 0.40228108
0.4985433 -0.28030258 -0.20120673 -0.34883755 -0.28549343 0.5503445 0.30150586 -0.18975782
0.42528027 0.45658064 0.43762898 0.47610703 0.42830735 -0.28315175 -0.21617198 -0.31470358
-0.38121763 0.39472732 0.41446975 -0.3702241 -0.25039047 0.38533702 -0.2875795 0.35246757
0.48581237 0.44866884 -0.28861153 -0.40461826 -0.30189905 0.3196738 0.50872093 -0.37500522
-0.31806764 0.40300345 0.50484055 -0.37812844 0.4516462 -0.25376135 0.4539274 0.46817946
-0.36779502 -0.25243714 -0.34271967 0.3281533 -0.20393312 0.50389826 -0.22261935 0.42129079
0.4460957 -0.28052264 0.418353 0.3156179 0.47999913 -0.1707731 0.45607954 -0.31167996
-0.36247176 -0.36766312 -0.27980843 0.46709234 0.35785007 0.45370716 0.49476743 0.49038118
0.33348686 -0.2647417 -0.36445573 -0.40243787 -0.30177784 -0.25397944 0.03927259 0.04547552
00000000: 8dd6 c23e 14d0 bb3e 7c14 96be d48f a8be
00000010: 1817 f03e 002b 71be b4ba 8abe 08ed f03e
00000020: 1ca2 c9be 23cf af3e ef2b 46be 26b7 d53e
00000030: 8ab5 c6be 5166 d63e 011b b5be e74d e53e
00000040: 63bd ea3e d012 9dbe 96b3 103f b8eb a7be
00000050: b391 b9be bf82 d43e c36e 81be 751b 50be
00000060: 3ccd 83be 5184 f13e 39ed 60be 15a8 a2be
00000070: adc2 f33e 6d90 64be d0b2 9d3e 362e a4be
00000080: abfe babe e2d5 aa3e 34ac ee3e 0411 bb3e
00000090: 12ad adbe 92c0 003f 6a1e 913e 654c 8cbe
000000a0: e698 b83d d54e e33e 9576 5ebe 86df bebe
000000b0: e350 aa3e bf96 88be 6e57 c5be d170 f03e
000000c0: 151e 6e3e f6e1 46be 3b30 87be 3d6c a9be
000000d0: a46e 9f3e 0222 8bbe 388f d73e c9f7 cd3e
000000e0: 1141 ff3e d283 8fbe 2309 4ebe d69a b2be
000000f0: 322c 92be 61e3 0c3f fa5e 9a3e e04f 42be
00000100: 56be d93e f0c4 e93e e810 e03e 4dc4 f33e
00000110: 1a4b db3e 44f9 90be 305c 5dbe d420 a1be
00000120: f52e c3be b319 ca3e 6135 d43e 038e bdbe
00000130: 2e33 80be e54a c53e 9f3d 93be a176 b43e
00000140: 66bc f83e ecb7 e53e e4c4 93be 202a cfbe
00000150: 8392 9abe 49ac a33e 893b 023f af00 c0be
00000160: c3d9 a2be 7856 ce3e 3b3d 013f 0d9a c1be
00000170: 2c3e e73e 02ed 81be 2c69 e83e 38b5 ef3e
00000180: a14f bcbe 713f 81be f478 afbe b603 a83e
00000190: d8d3 50be 7aff 003f 54f6 63be 6db3 d73e
000001a0: a866 e43e aaa0 8fbe 5d32 d63e ab98 a13e
000001b0: 72c2 f53e 25df 2ebe 4283 e93e 8494 9fbe
000001c0: e695 b9be 573e bcbe 0d43 8fbe ba26 ef3e
000001d0: 2038 b73e 4e4c e83e 2852 fd3e 3e13 fb3e
000001e0: cabe aa3e 398c 87be f199 babe 560c cebe
000001f0: a082 9abe 9809 82be 4cdc 203d 8a44 3a3d

discriminator.5.weight f4 [1, 128]
-0.3514124 -0.29614505 0.2990422 0.36954662 -0.32337242 0.31043336 0.2977876 -0.29399633
0.21162735 -0.3948964 0.32333648 -0.29690447 0.24328725 -0.27892587 0.3383897 -0.26618516
-0.31239912 0.30167285 -0.32294014 0.34307602 0.31222463 -0.3458877 0.31602865 0.37161982
0.3194793 -0.3074811 0.17059718 0.33471322 -0.28727636 0.34635752 -0.3306131 0.3148233
0.2519441 -0.33997998 -0.24286948 -0.36480725 0.3391845 -0.23163685 -0.3084596 0.25482032
-0.110006146 -0.26656085 0.27481687 0.2127687 -0.36998257 0.13000228 0.30185503 -0.27948385
-0.08174432 0.20207553 0.34813297 0.31444615 -0.26164424 0.32060593 -0.24972744 -0.29164886
-0.30545065 0.2655325 0.22186999 0.2876724 0.27681687 -0.27135175 -0.47539955 0.29277685
-0.3210271 -0.22883688 -0.28824374 -0.2660427 -0.2831448 0.28268132 0.3342167 0.32948974
0.34329313 -0.31523263 -0.25042316 0.2726475 0.3477425 -0.2611888 0.28135642 -0.33813655
-0.25571567 -0.20768267 0.31775865 0.2363053 0.3037847 -0.38913083 -0.23418996 0.3002691
0.29399747 -0.3425952 -0.265994 0.28746933 -0.2803072 0.30356908 -0.22110543 -0.26810214
0.27394798 0.3260796 0.24360776 -0.47743317 0.3595601 -0.29895285 0.35412684 -0.22365163
-0.24623102 0.26382998 -0.28304958 -0.18901558 -0.28403676 0.3446531 -0.24204181 0.330726
0.04867844 0.29509306 0.28725228 -0.23993655 -0.28197357 -0.28206646 -0.23479836 -0.22719857
-0.30137414 0.28047383 0.30519396 0.22834651 0.238541 0.2765749 -0.11321696 -0.0940966
00000000: 53ec b3be 53a0 97be 0f1c 993e 3735 bd3e
00000010: 1291 a5be 1ff1 9e3e 9e77 983e b086 96be
00000020: d7b4 583e dc2f cabe 5c8c a53e dd03 98be
00000030: 4b20 793e 5fcf 8ebe 6a41 ad3e 6c49 88be
00000040: c7f2 9fbe dd74 9a3e 6958 a5be a9a7 af3e
00000050: e8db 9f3e 3118 b1be 82ce a13e f444 be3e
00000060: ca92 a33e 2a6e 9dbe 07b1 2e3e 885f ab3e
00000070: e315 93be c655 b13e 1f46 a9be 8530 a13e
00000080: d1fe 803e db11 aebe c7b2 78be 04c8 babe
00000090: 97a9 ad3e 3632 6dbe 6bee 9dbe cf77 823e
000000a0: e74a e1bd aa7a 88be ccb4 8c3e 0ae0 593e
000000b0: 5b6e bdbe 511f 053e be8c 9a3e 8218 8fbe
000000c0: 9169 a7bd e3ec 4e3e 7c3e b23e 16ff a03e
000000d0: 3cf6 85be 7626 a43e 8db8 7fbe 0053 95be
000000e0: 0764 9cbe e0f3 873e e331 633e cc49 933e
000000f0: f1ba 8d3e 9eee 8abe 9267 f3be d9e6 953e
00000100: aa5d a4be 3754 6abe af94 93be c036 88be
00000110: 5bf8 90be 9bbb 903e 741e ab3e e1b2 a83e
00000120: 1ec4 af3e 2c66 a1be 7737 80be 7498 8b3e
00000130: 4e0b b23e 8aba 85be f30d 903e 3c20 adbe
00000140: 2aed 82be c4aa 54be 43b1 a23e 04fa 713e
00000150: ab89 9b3e 283c c7be 7ecf 6fbe dfbc 993e
00000160: d686 963e a368 afbe 5e30 88be 2e2f 933e
00000170: 6d84 8fbe 686d 9b3e 7669 62be af44 89be
00000180: e942 8c3e e8f3 a63e 5074 793e 1f72 f4be
00000190: 4318 b83e 5910 99be 1d50 b53e ef04 65be
000001a0: fc23 7cbe b914 873e e0eb 90be 4d8d 41be
000001b0: 446d 91be 5f76 b03e cfd9 77be eb54 a93e
000001c0: 0b63 473d 7016 973e bb12 933e edb1 75be
000001d0: d75e 90be 046b 90be fb6e 70be bea6 68be
000001e0: b64d 9abe 449a 8f3e 6242 9c3e abd3 693e
000001f0: 1844 743e 3a9b 8d3e 4bde e7bd b8b5 c0bd
