models/gan_model.pth (torch, 585800 bytes, 8 tensors)

generator.0.weight f4 [1, 1, 2, 2]
0	0x3ebcbb39	0.3686159
1	0x3da7a339	0.08185429
2	0xbe7c4e2c	-0.24639195
3	0x3ed94514	0.42435515

generator.3.weight f4 [1, 1, 2, 2]
0	0x3f10dd8f	0.5658807
1	0x3dc557e2	0.09635903
2	0xbe17cf05	-0.14825065
3	0x3ef25cca	0.47336417

generator.7.weight f4 [784, 64]
0	0xbd336193	-0.043794226
1	0x3bd96105	0.00663388
2	0x3c9762c5	0.018479714
3	0x3ce75ed5	0.028243462
4	0xbd85e29c	-0.06537363
5	0xbd92dee4	-0.07171419
6	0xbdc74a20	-0.09730935
7	0xbcd6eb6e	-0.026235308
8	0xbcfd700c	-0.030937217
9	0x3d202068	0.039093405
10	0xbd6ebebb	-0.058287363
11	0x3ce54370	0.027986258
12	0xbc141b0b	-0.009039651
13	0xbd3b9961	-0.04580057
14	0xbdd2cea5	-0.102933206
15	0xbcb78470	-0.022402018
16	0x3d165f86	0.036712192
17	0xbe0c951d	-0.13728757
18	0xbd283379	-0.041064713
19	0xbd23e446	-0.04001262
20	0x3e011ac6	0.1260787
21	0x3cbe45ec	0.0232267
22	0xbccf92e9	-0.025338607
23	0x3cd4b82b	0.025966724
24	0xbe3c142e	-0.18367073
25	0x3d61d47a	0.055134274
26	0x3d89ce03	0.06728747
27	0x3cb85f5a	0.022506405
28	0xbdbd279d	-0.09236071
29	0xbcb8362f	-0.022486774
30	0xbd8019a5	-0.06254891
31	0x3cc84e6a	0.024451453
32	0x3ccc5e67	0.024947358
33	0x3c9ef724	0.019404955
34	0x3cc66a0f	0.024220495
35	0xbd971c87	-0.07378488
36	0xbdc45625	-0.09586743
37	0x3d17a60c	0.03702359
38	0x3dc58dd0	0.09646189
39	0xbd3fa1d9	-0.04678521
40	0xbe117370	-0.14204192
41	0x3d98cacf	0.07460558
42	0x3d4c97e7	0.049949553
43	0xbd2573c5	-0.04039361
44	0xbd27dd0c	-0.04098229
45	0xbd90f7db	-0.07078525
46	0xbe1e00ab	-0.15429942
47	0xbd800c9e	-0.062524065
48	0xbe17cf0d	-0.14825077
49	0xbd8e07df	-0.06935095
50	0x3d1e3ef4	0.038634256
51	0x3bd65e38	0.0065419935
52	0xbcf4c5c0	-0.02987945
53	0x3d67971b	0.05654059
54	0xbd2672a0	-0.04063666
55	0x3d30cc9e	0.04316389
56	0xbda1dcff	-0.0790348
57	0xbd79d037	-0.060989585
58	0xbd3f028e	-0.046633296
59	0xbd34ea60	-0.04416883
60	0xbced5647	-0.028971804
61	0xbd3834f9	-0.044972394
62	0x3d736528	0.059422642
63	0xbdbe2d76	-0.09286015
64	0xbe013dab	-0.1262118
65	0xbe0c49bb	-0.13700001
66	0x3d4b2bca	0.049602307
67	0xbd7a479b	-0.061103445
68	0xbdc77217	-0.09738558
69	0xbd40ba2b	-0.047052544
70	0xbdb46d46	-0.08809905
71	0xbc8268de	-0.015919145
72	0x3d6a8a4d	0.0572608
73	0xbdaab112	-0.08334555
74	0x3cc39e17	0.023879094
75	0xbdb66b68	-0.08907205
76	0xbcc5f776	-0.02416585
77	0xbd854d68	-0.06508905
78	0xbe2df580	-0.16988182
79	0xbde4eeba	-0.11178346
80	0xbd2a7cd5	-0.041622955
81	0xbca843b0	-0.020540088
82	0xbddc8fd6	-0.10769622
83	0xbd2790ae	-0.04090946
84	0xbbc8d139	-0.006128457
85	0xbdbd773c	-0.09251258
86	0xbe1a3010	-0.15057397
87	0xbd7029ca	-0.058633603
88	0x3d2888d8	0.04114613
89	0xbcd65e8c	-0.02616813
90	0x3d2834ff	0.041066166
91	0xbd7045fe	-0.0586605
92	0xbda70f6f	-0.081572406
93	0xbd6d9075	-0.057999093
94	0xbe1d51bf	-0.15363215
95	0xbc9774b1	-0.01848826
96	0xbdcb0852	-0.09913696
97	0xbcff6a96	-0.031178754
98	0xbd19e668	-0.03757325
99	0x3d2db365	0.042407412
100	0xbd0cc417	-0.034366693
101	0xbd4eb39f	-0.05046427
102	0x3d8802a4	0.06641129
103	0xbc8e70a2	-0.017387692
104	0xbc039319	-0.008030676
105	0x3c691622	0.014226468
106	0xbdf33ada	-0.118764594
107	0xbddeba89	-0.108754225
108	0xb8854ee0	-6.356626e-05
109	0x3c1d04df	0.009583681
110	0xbbf915a7	-0.007601458
111	0xbda1eb74	-0.07906237
112	0xbd900a22	-0.07033183
113	0x3cc0c89e	0.023533162
114	0xbd3d069a	-0.046148874
115	0x3d15afa7	0.03654447
116	0xbe17da57	-0.14829384
117	0xbe006653	-0.12539034
118	0x3d62a69c	0.055334672
119	0xbdc9c8fb	-0.09852787
120	0x3dfd7179	0.12375159
121	0xbd233c78	-0.03985259
122	0xbdb1c7e7	-0.086807065
123	0xbd9e35e4	-0.077251226
124	0xbbf9d332	-0.0076240534
125	0xbd8af507	-0.067850165
126	0xbe117add	-0.14207025
127	0xbd1a845a	-0.037723877
128	0x3d02c1df	0.03192317
129	0xbd9a9541	-0.07547999
130	0xbc391305	-0.0112960385
131	0xbdb9b010	-0.090667844
132	0xbd505d7b	-0.0508704
133	0xbe13d4f0	-0.14436698
134	0xbdc46885	-0.09590248
135	0xbdc05e64	-0.093930036
136	0xbd6bb920	-0.057549596
137	0xbbe755c9	-0.007059787
138	0x3cda382b	0.026638111
139	0xbd4fd8ce	-0.05074387
140	0xbdf4bef8	-0.11950487
141	0x3d85b578	0.06528753
142	0x3d970c70	0.07375419
143	0xbd74053a	-0.059575297
144	0xbcc863f1	-0.024461718
145	0xbd433ec7	-0.04766729
146	0x3d55c158	0.05218634
147	0xbd9d911f	-0.07693695
148	0xbda53a4b	-0.08067759
149	0xbd084d30	-0.033276737
150	0xbd912b3a	-0.07088323
151	0x3cc261f3	0.023728346
152	0xbd36d7c7	-0.044639375
153	0xbe052b89	-0.13004889
154	0xbd1a3cb9	-0.037655566
155	0x3d2677f1	0.04064173
156	0xbdc18764	-0.09449652
157	0xbd9587b9	-0.07301278
158	0xbda79d84	-0.081843406
159	0x3d1ed58c	0.038777873
160	0x3d36423f	0.04449677
161	0x3cc45fc7	0.023971451
162	0xbd3aa1f1	-0.045564596
163	0x3c0f7960	0.008756965
164	0xbc8cf05c	-0.017204456
165	0x3d3e11f2	0.046403833
166	0xbdab9b04	-0.08379176
167	0xbdc3a1e5	-0.09552363
168	0x3be8b3ba	0.007101503
169	0xbd9c5941	-0.07634211
170	0xbcacdd30	-0.021101564
171	0xbe2f81a4	-0.17139298
172	0xbce68423	-0.02813918
173	0xbe0182be	-0.1264753
174	0xbc4c3f5f	-0.012466281
175	0x3c88a05d	0.01667803
176	0xbd188322	-0.037234433
177	0xbc8b3c7b	-0.016996613
178	0x3d036c51	0.03208572
179	0x3d770ba9	0.060313854
180	0xbdaa65e1	-0.08320213
181	0xbd30618e	-0.043061785
182	0x3d728313	0.059207033
183	0xbc20a37d	-0.009804604
184	0xbe2ded90	-0.16985154
185	0x3d835645	0.06412939
186	0xbcd2b3e8	-0.025720552
187	0xbd80e241	-0.062931545
188	0xbde4d9a5	-0.11174325
189	0xbdf7b7ba	-0.1209559
190	0x3d7acc85	0.0612302
191	0xbc3a5c6b	-0.011374573
192	0xbcdad9f3	-0.026715254
193	0x3cb26754	0.021777786
194	0xbd3afe33	-0.04565258
195	0xbd0db475	-0.034595925
196	0xbd8a5c83	-0.067559265
197	0x3d5269ce	0.051370434
198	0xbe4c8a6b	-0.19974677
199	0x3b951fd9	0.0045509157
200	0xbc9b36ad	-0.01894697
201	0xbdc73cea	-0.09728415
202	0xbbd41a73	-0.0064728796
203	0xbd32c104	-0.043641105
204	0xbced6442	-0.02897847
205	0x3c37bb82	0.011214139
206	0xbd82f23d	-0.063938595
207	0xbd0f713c	-0.035020098
208	0x3c78920b	0.015171538
209	0x3c1a2a66	0.009409523
210	0xbd87ecc2	-0.06636955
211	0xbc8032ad	-0.015649164
212	0xbdc28467	-0.0949791
213	0xbdbbf870	-0.09178245
214	0xbc961c31	-0.01832399
215	0xbc8935f6	-0.016749363
216	0x3d196b13	0.03745563
217	0xbddfb209	-0.109226294
218	0xbd4acb7e	-0.04951047
219	0xbde3de3d	-0.11126373
220	0xbcb6646b	-0.02226468
221	0x3db5290d	0.088457204
222	0xbdee0699	-0.11622352
223	0xbdc9f454	-0.09861055
224	0xbd26c271	-0.040712778
225	0xbcbe4809	-0.023227708
226	0xbdb03ac0	-0.08604956
227	0xbd44b842	-0.048027284
228	0xbdc4a783	-0.09602263
229	0x3d990be1	0.07472969
230	0x3d74ed87	0.059796836
231	0xbcef98c5	-0.02924765
232	0xbe4e8837	-0.2016915
233	0xbd82e4f2	-0.06391324
234	0xbdbb99b8	-0.09160179
235	0x3d183947	0.037164
236	0xbd3f53ef	-0.046710905
237	0x3d8e3123	0.06942966
238	0xbddbed28	-0.10738593
239	0xbde82ff9	-0.11337275
240	0xbc47d2df	-0.012196272
241	0xbda41faf	-0.08013856
242	0xbe25eb4b	-0.16203038
243	0x3d03c177	0.032166924
244	0xbc89b35c	-0.016809158
245	0xbde2455b	-0.11048385
246	0xbdcdaa5a	-0.100422576
247	0xbcb41977	-0.021984799
248	0x3cd20ec7	0.025641812
249	0xbc75b79f	-0.014997392
250	0x3d142ed9	0.03617749
251	0xbdd74bc1	-0.10512496
252	0x3ca6282b	0.020282825
253	0xbbd7e152	-0.0065881396
254	0x3cf82847	0.030292643
255	0xbdbcafd7	-0.09213226

generator.7.bias f4 [784]
0	0xbe221878	-0.15829647
1	0xbd91692f	-0.0710014
2	0x3b22204f	0.0024738496
3	0xbd7e33fa	-0.062061287
4	0xbe253f2d	-0.16137381
5	0xbd5ed6df	-0.054404136
6	0x3cf3d191	0.029763015
7	0xbc9c332d	-0.019067371
8	0xbe104cd7	-0.14091812
9	0x3d7619da	0.060083248
10	0x3cda9e40	0.026686788
11	0xbc4bb60b	-0.012433539
12	0xbd80ddf8	-0.06292337
13	0xbbe57fa7	-0.0070037427
14	0xbd52a1ae	-0.05142372
15	0xbd2a95af	-0.041646656
16	0xbdade5f1	-0.084911235
17	0xbe220b9d	-0.15824743
18	0xbdddf1aa	-0.108371094
19	0xbd86cea3	-0.065823816
20	0xbdecf550	-0.11570227
21	0xbd1a5e73	-0.03768773
22	0xbe1f5e6e	-0.15563366
23	0xbb9ab168	-0.0047208555
24	0xbda3780d	-0.07981882
25	0xbe1d88a5	-0.15384157
26	0xbd6fcca7	-0.05854478
27	0x3b217222	0.002463468
28	0xbe14fbd0	-0.14549184
29	0xbe0e29f9	-0.13883199
30	0x3ce26a1c	0.027638488
31	0xbdd711c0	-0.105014324
32	0xbd44887c	-0.047981724
33	0x3d844fb1	0.064605124
34	0xbde10799	-0.10987777
35	0xbe08fcdc	-0.13377708
36	0xbc800377	-0.015626652
37	0xbdeb98fa	-0.11503787
38	0xbd7d582c	-0.061851665
39	0xbe0a9e3c	-0.13536924
40	0xbddcf3ff	-0.10788726
41	0xbdde2a1e	-0.10847877
42	0xbe084125	-0.133061
43	0xbb37cbf6	-0.0028045154
44	0x3ccde2d0	0.025132567
45	0xbe0b95d5	-0.13631375
46	0xbe2dcc6b	-0.1697251
47	0xbe0cc4c8	-0.13746941
48	0xbd58920a	-0.05287365
49	0xbe1b359e	-0.15157172
50	0x3d74a454	0.059727028
51	0xbd981b82	-0.07427122
52	0xbe40b04b	-0.1881725
53	0xbd154a53	-0.036447834
54	0xbde35486	-0.11100106
55	0xbd205823	-0.039146554
56	0xbc89e442	-0.016832475
57	0xbd0835bf	-0.03325438
58	0x3c86dc28	0.0164624
59	0xbdf83a03	-0.1212044
60	0x3d67ed40	0.056622744
61	0x3c84ebb2	0.01622567
62	0xbc9b6651	-0.018969687
63	0xbd336a92	-0.043802805
64	0x3c4c1b7a	0.012457723
65	0x3c60ec06	0.013728147
66	0xbdaf795c	-0.08568069
67	0xbde94416	-0.113899395
68	0x3d3c6a5a	0.045999862
69	0xbc356965	-0.011072491
70	0xbc8b6dd5	-0.017020145
71	0xbbff8cf1	-0.007798784
72	0xbe17f9f3	-0.14841442
73	0xbd6dea4d	-0.058084775
74	0x3b93ca1f	0.0045101787
75	0x3cb74ce1	0.022375526
76	0xbdb98c4b	-0.09059962
77	0x3b1e21af	0.0024128964
78	0xbdb3904c	-0.08767757
79	0xbdd1b9fb	-0.10240551
80	0xbc74adb9	-0.014933997
81	0xba587bc6	-0.000825819
82	0x3d8753bb	0.06607767
83	0x3c9d90a4	0.01923401
84	0xbd8919ff	-0.066944115
85	0xbe1481a2	-0.14502576
86	0xbe11481c	-0.14187664
87	0xbb60b6c0	-0.0034288615
88	0x3c73a07d	0.014869806
89	0xbe3226eb	-0.17397659
90	0xbcb04567	-0.021517469
91	0xbe1e5cb4	-0.15465051
92	0xbde3f7ae	-0.111312255
93	0x3cf2af9a	0.029624749
94	0xbe08afed	-0.1334836
95	0x3cf975f0	0.030451745
96	0xbe0f474a	-0.13992038
97	0xba1e2dc4	-0.0006034041
98	0xbc87c965	-0.016575525
99	0xbc09ac79	-0.008402937
100	0xbe033cba	-0.12816134
101	0xbe12d731	-0.14339902
102	0xbd7119db	-0.05886255
103	0xbe3758eb	-0.17905013
104	0xbe089aae	-0.13340256
105	0x3c74a4d1	0.014931873
106	0x3cf3527e	0.029702421
107	0xbe015959	-0.1263174
108	0xbc46ab9d	-0.012125877
109	0xbd893aa0	-0.06700635
110	0xbd985594	-0.07438198
111	0xbd891787	-0.066939406
112	0xbb5cb593	-0.0033677563
113	0x3c271cb5	0.010199715
114	0x3d4ce70f	0.050025042
115	0x3c32ba2c	0.010908645
116	0xbc063258	-0.008190714
117	0x3d6bc5c1	0.05756164
118	0xbdd126d6	-0.102124855
119	0xbe074cc2	-0.13212875
120	0xbde172dc	-0.11008236
121	0xbd98e084	-0.07464698
122	0xbe00ca79	-0.12577237
123	0xbc915455	-0.017740408
124	0xbd60afa5	-0.054855008
125	0xbd8b1700	-0.06791496
126	0x3ce456a8	0.027873352
127	0xbdf51044	-0.11965993
128	0xbdd9cad5	-0.1063439
129	0xbe2554f2	-0.16145685
130	0xbe0f900d	-0.14019795
131	0xbc3bfc82	-0.011473777
132	0xbcbf4989	-0.023350494
133	0x3cc4d78a	0.024028558
134	0xbcf481fe	-0.029847141
135	0xbdec268e	-0.11530791
136	0xbb999a6b	-0.0046875975
137	0xbdadec1c	-0.084923
138	0xbd9652d4	-0.07340017
139	0xbe3ffff6	-0.18749985
140	0x3da84d6f	0.08217894
141	0xbce6b8f2	-0.02816436
142	0xbdc4c58a	-0.0960799
143	0xbc7ad288	-0.015308984
144	0xbde2a313	-0.1106626
145	0xbde33de1	-0.11095787
146	0xbdda03ed	-0.1064528
147	0xbdc8dc90	-0.09807694
148	0x3d9978d9	0.07493753
149	0xbd91b2ea	-0.07114203
150	0x3d3c694c	0.045998856
151	0xbc512c0c	-0.012766849
152	0xbdca6100	-0.098817825
153	0xbd6d4d5d	-0.057935107
154	0xbd01c3d7	-0.031680908
155	0xbb0c01d5	-0.0021363397
156	0x3d6c430e	0.057681136
157	0x378af3cc	1.6564409e-05
158	0xbdfaef3e	-0.12252663
159	0xbcfd7832	-0.030941103
160	0x3b725052	0.0036974144
161	0xbd84308f	-0.06454574
162	0xbc396dd7	-0.011317692
163	0xbd581651	-0.052755658
164	0xbd9dafcb	-0.076995455
165	0xbdcf3293	-0.10117068
166	0xbdaec858	-0.08534306
167	0xbd80c1c3	-0.06286957
168	0x3d22b717	0.03972539
169	0xba62ada1	-0.00086470885
170	0xbcaee0bc	-0.021347396
171	0xbde445cc	-0.11146125
172	0xbdde185a	-0.108444884
173	0xbdab7b6d	-0.08373151
174	0x3d06429d	0.03277837
175	0xbdde9c8d	-0.108697034
176	0xbba6c831	-0.0050897826
177	0xbd55deaf	-0.05221432
178	0xbbc93d5e	-0.0061413487
179	0x3da396ba	0.07987733
180	0x3ddfb5c6	0.109233424
181	0xbc7128a3	-0.014719161
182	0x3d8f014e	0.06982671
183	0x3c5216ae	0.01282279
184	0x3d311e2c	0.043241665
185	0x3d826736	0.06367342
186	0xbd54120c	-0.051775023
187	0x3d0ea18a	0.034822024
188	0x3d4b1977	0.049584832
189	0xbd30a821	-0.04312909
190	0x3c97e922	0.018543784
191	0xbd4c07ee	-0.04981225
192	0x3c1f6176	0.009727826
193	0xbcf5187b	-0.0299189
194	0x3dc1d956	0.09465282
195	0xbcf73aa7	-0.030179335
196	0xbd547c68	-0.051876456
197	0xbe54ff19	-0.20800437
198	0xbcc4ad9d	-0.024008567
199	0xbd30c7de	-0.04315936
200	0xbdea51f4	-0.114414126
201	0x3cb249c8	0.021763697
202	0xbd9be398	-0.076117694
203	0xbd8fe70d	-0.07026491
204	0x3d5dc094	0.054138735
205	0xbd5caafa	-0.053873993
206	0xbd1f23d1	-0.038852517
207	0x3c02bb7b	0.007979269
208	0xbc383b6f	-0.011244639
209	0x3de7c94e	0.11317693
210	0x3db27779	0.08714194
211	0x3d307803	0.043083202
212	0xbcc2495f	-0.023716627
213	0xbcd75e86	-0.02629019
214	0x3d5dbba8	0.05413404
215	0xbd9f62ee	-0.07782541
216	0x3cdd4a55	0.027012983
217	0xbdcfbc83	-0.10143378
218	0x3d4f3300	0.050585747
219	0x3d2b4f37	0.041823592
220	0xbadf626c	-0.0017042882
221	0xbd167439	-0.036731932
222	0xbdf5cafc	-0.12001607
223	0xbdcb0d52	-0.0991465
224	0x3cf439a0	0.029812634
225	0x3bcb8699	0.0062111137
226	0x3c27a425	0.010232006
227	0xbe0a252b	-0.13490741
228	0x3d1a35db	0.037649017
229	0xbdb75133	-0.089510344
230	0xbd60933f	-0.054827925
231	0x3d002512	0.031285353
232	0x3cd000af	0.025390951
233	0x3d5535e7	0.05205336
234	0x3dd8d87f	0.10588168
235	0xbd1b899c	-0.03797303
236	0xbd88cb9e	-0.06679462
237	0x3d56ef45	0.05247428
238	0xbc3475ba	-0.011014396
239	0xbdf50914	-0.11964622
240	0xbd3b7557	-0.0457662
241	0xbdd04c58	-0.101708114
242	0xbd5b4e9d	-0.05354177
243	0xbcef4e08	-0.029212013
244	0x3d40ae06	0.04704096
245	0x3dabb2a8	0.08383685
246	0xbd80dcf3	-0.06292143
247	0x3d83ba74	0.064320475
248	0x3d88e7dc	0.06684849
249	0xbcc2d8c2	-0.023784999
250	0xbce69400	-0.028146744
251	0x3d11362c	0.035452053
252	0xba54b417	-0.00081139937
253	0xbbd5baf6	-0.0065225316
254	0xbd687b03	-0.056757938
255	0x3c6324bd	0.01386374

discriminator.0.weight f4 [1, 1, 2, 2]
0	0x3f03eb49	0.5153089
1	0x3f16a0fa	0.5883938
2	0xbe47d453	-0.19514589
3	0x3f29dc75	0.66352016

discriminator.2.weight f4 [128, 729]
0	0x3cee7176	0.029106837
1	0xbd66649a	-0.056248285
2	0xbce25f92	-0.027633462
3	0x3d37b8ac	0.04485385
4	0x3d515bab	0.051112812
5	0xbd1f61a1	-0.038911466
6	0x3bd9705f	0.00663571
7	0xbba95cfa	-0.0051685544
8	0xbd08e2b4	-0.033419326
9	0x3c367114	0.011135358
10	0x3d009b1a	0.031397916
11	0x3ce01f0c	0.027358554
12	0xbd373a97	-0.04473361
13	0x3c8b74ee	0.01702353
14	0x3d6e98c3	0.058251154
15	0xbd2a3ce7	-0.041561987
16	0x3a86f318	0.0010295836
17	0x3d011323	0.03151239
18	0x3cc30e98	0.02381067
19	0xbcf28027	-0.029602123
20	0xbc9c3337	-0.01906739
21	0x3d47b134	0.04875298
22	0xbcb34843	-0.021885043
23	0x3c68ef95	0.014217277
24	0xbd7420be	-0.059601538
25	0x3d5d72e3	0.054064643
26	0x3d43e59a	0.047826387
27	0xbc09bdad	-0.008407039
28	0x3d9b7da8	0.075923264
29	0x3d35b29a	0.04435978
30	0x3cd1a409	0.025590913
31	0xbd2249e8	-0.039621264
32	0x3d6e46e1	0.058173064
33	0xbcbb8ede	-0.022895273
34	0xbd080fc9	-0.03321818
35	0xbc63783e	-0.013883648
36	0xbd699e49	-0.057035718
37	0xbd4ea739	-0.050452445
38	0x3d28bfdb	0.041198593
39	0xbc0eabff	-0.008707999
40	0xbc78edaf	-0.015193387
41	0xbc9f941a	-0.0194798
42	0x3c9e5833	0.019329166
43	0xbd9761f1	-0.07391728
44	0x3d1f6c3b	0.038921576
45	0xbcaaf43c	-0.020868413
46	0xbc0e4fed	-0.008686048
47	0x3c68675c	0.014184799
48	0x3ce948b8	0.028477058
49	0x3d5289af	0.051400837
50	0x39f891f9	0.00047411004
51	0xbb6733be	-0.0035278643
52	0xbd62a24c	-0.05533056
53	0x3d9fbbe0	0.07799506
54	0xbd1c13b4	-0.038104728
55	0xbd04887e	-0.03235673
56	0x3b7b5d84	0.00383553
57	0x3a8ec024	0.0010891003
58	0x3c322de6	0.010875201
59	0xbbef330e	-0.0072997874
60	0xbc96a3a3	-0.018388575
61	0xbd0655f4	-0.032796815
62	0x3d80061d	0.06251166
63	0xbd62a083	-0.055328857
64	0xbc627c93	-0.013823646
65	0xbd4416f1	-0.04787344
66	0xbc53769e	-0.0129066985
67	0x3d222a78	0.039591283
68	0xbd98d81d	-0.07463095
69	0x3d181e77	0.03713843
70	0x3cfaa685	0.03059698
71	0x3c4a504a	0.012348244
72	0x3b7a4a8f	0.0038191413
73	0xbd3e6529	-0.046483193
74	0x3d21b8b7	0.0394828
75	0x3cea3597	0.028590007
76	0xbb929202	-0.004472972
77	0xbd2e33d7	-0.042529907
78	0xbbe90bb4	-0.007111991
79	0xbc91f43d	-0.017816657
80	0xbb3b36ac	-0.0028566523
81	0xbcfbe30d	-0.030747915
82	0x3b8382e8	0.004013408
83	0xbcfec8d3	-0.03110162
84	0xbdc349a6	-0.09535532
85	0x3d5fd38e	0.054645114
86	0xbcd25e81	-0.025679829
87	0x3c110a80	0.008852601
88	0xbb86b53e	-0.004110961
89	0xbd8214dc	-0.06351635
90	0x3934e933	0.00017253011
91	0x3b8ee58c	0.00436086
92	0xbbee4b04	-0.007272126
93	0xbbf0cf34	-0.0073489193
94	0xbcdc214c	-0.026871346
95	0xba6eee91	-0.00091145287
96	0xbc7671f6	-0.015041819
97	0x3c3146c1	0.010820092
98	0x3d4492eb	0.047991674
99	0x3cdfa21b	0.027298978
100	0xbcd41526	-0.02588899
101	0xbbfd3dd3	-0.0077283173
102	0xbc0829bd	-0.008310732
103	0x3ca1fbc3	0.01977337
104	0x3c2ef644	0.0106788315
105	0x3cd2e5cf	0.025744347
106	0x3d1c893a	0.038216807
107	0x3d337e05	0.043821353
108	0xbb5461eb	-0.0032406996
109	0x3c3b2fe5	0.011424993
110	0x3d4f0b45	0.050547857
111	0xbd3886e6	-0.045050524
112	0x3cb139ae	0.02163395
113	0x3c7fa249	0.015602657
114	0x3be62b16	0.007024179
115	0x3c1ce269	0.009575465
116	0xbc0f087d	-0.008730051
117	0x3ce1d7ab	0.027568659
118	0x3baa9ed3	0.0052069216
119	0x3da9ac9e	0.08284877
120	0xba9b1749	-0.0011832501
121	0x3bc71817	0.00607587
122	0x3c503385	0.012707596
123	0x3d0d979a	0.034568407
124	0xbca78e89	-0.020453708
125	0xbcf7a3b1	-0.030229421
126	0xbc8702a0	-0.016480744
127	0x3cf69c05	0.030103693
128	0xbb60fce3	-0.003433042
129	0x3cbbf8d9	0.022945808
130	0x3c5bad65	0.01340804
131	0xbc3997ba	-0.011327678
132	0xbca0fe2e	-0.019652452
133	0x3c84d52c	0.01621493
134	0xbd26b3ef	-0.04069894
135	0x3c2b6548	0.010461159
136	0x3c1ae319	0.009453558
137	0x3d827b90	0.06371224
138	0x3928af1d	0.00016086963
139	0x3cea8b2b	0.028630814
140	0xba09715e	-0.0005243028
141	0xbd309a99	-0.043116186
142	0x3d949fa8	0.072570145
143	0xbc1c1368	-0.009526111
144	0x3b84c792	0.004052111
145	0xbd27d1ba	-0.040971495
146	0xbd24d762	-0.040244468
147	0xbcb302d4	-0.021851934
148	0xbbfb5d07	-0.007671002
149	0xbd168225	-0.03674521
150	0xbd8beb10	-0.06831944
151	0x3d1a1148	0.037614137
152	0xbcd94107	-0.026520265
153	0x3c549d1f	0.012976914
154	0x3c16984b	0.009191583
155	0x3c888798	0.016666219
156	0x3cfea423	0.031084126
157	0xbbee2cec	-0.0072685387
158	0x3c8b5d61	0.0170123
159	0xbd2cebd4	-0.04221709
160	0x3cc02e0c	0.023459457
161	0xbd2f2d6f	-0.04276794
162	0x3d495cb4	0.049160674
163	0x3c089c49	0.008338043
164	0xbd1f1c11	-0.038845126
165	0x3c52bcae	0.012862368
166	0x3cff25ce	0.031145956
167	0xbcd3b740	-0.025844216
168	0xbcc12a03	-0.023579603
169	0x3c0b7359	0.008511388
170	0xbd400dbf	-0.04688811
171	0x3d451752	0.048117943
172	0xbc1ab38c	-0.009442221
173	0xbab342d0	-0.0013676528
174	0xbc9c3695	-0.019068995
175	0x3d09fb91	0.033687178
176	0xbd2a9b11	-0.04165179
177	0x3d9d4801	0.07679749
178	0xbcaddc1a	-0.021223117
179	0xbcc78f23	-0.024360245
180	0x3d41f388	0.04735139
181	0xbcbf4071	-0.023346158
182	0x3c092ebe	0.008372961
183	0xbc646a97	-0.013941429
184	0x3c9ed0aa	0.019386608
185	0xbcefcf66	-0.0292737
186	0x3d61d1ea	0.05513183
187	0xbba17223	-0.0049269362
188	0xbd1210c3	-0.035660516
189	0x3c1baf12	0.009502189
190	0x3cabf633	0.02099142
191	0x3cb094d6	0.021555346
192	0xbd7f1b8d	-0.062282134
193	0x3d0fab95	0.035075743
194	0xbcac921e	-0.021065768
195	0xbb7716a5	-0.0037702706
196	0x3c3786ea	0.0112016
197	0x3cc1d933	0.023663139
198	0xbcea97c8	-0.028636828
199	0xbc9643d9	-0.0183429
200	0x3b245cee	0.0025079804
201	0x3d516103	0.05111791
202	0xbcce0a80	-0.025151491
203	0x3c922476	0.017839652
204	0xbb51ede9	-0.0032032675
205	0xbcfc8b06	-0.03082801
206	0x3d62d173	0.055375528
207	0xbcb0710d	-0.021538282
208	0xbd121d34	-0.03567238
209	0xbb81e649	-0.0039642197
210	0x3c13987f	0.009008526
211	0xbd383dd6	-0.044980846
212	0x3d6ce364	0.057834044
213	0xbc262f4f	-0.010143115
214	0x3c11ecfb	0.008906598
215	0xbb6c1981	-0.0036025944
216	0xbd5bb7ae	-0.053641967
217	0x3d41dd45	0.04733016
218	0xbd2c1f7e	-0.04202222
219	0x3d66ef91	0.056380812
220	0xbd38b681	-0.045095924
221	0x3c50ea14	0.012751121
222	0x3d0b8027	0.034057762
223	0xbd251d30	-0.04031104
224	0x3b95d6bd	0.004572718
225	0x3c2df57e	0.010617612
226	0x3c828155	0.015930811
227	0xbd1db21a	-0.03849993
228	0xbca3a060	-0.019973934
229	0xbd25d940	-0.04049039
230	0x3b5911bc	0.0033122143
231	0x3d412589	0.047154937
232	0x3d423c0a	0.04742054
233	0xbc1a242d	-0.009408039
234	0x3b65952a	0.0035031536
235	0x3cf2b2e5	0.02962632
236	0x3d0f48aa	0.034981407
237	0xbcf3436b	-0.029695233
238	0x3d324519	0.043522928
239	0x3cb631ab	0.02224048
240	0xbd12da68	-0.03585282
241	0x3d011256	0.031511627
242	0xbac836ad	-0.0015275084
243	0x3ca0dc0a	0.019636173
244	0x3c87cfbe	0.016578551
245	0x3d08f40e	0.033435874
246	0xbd370dd7	-0.044690933
247	0xbbf873ed	-0.007582179
248	0x3994eb79	0.000284042
249	0xbd27f15b	-0.04100166
250	0xbad5d29e	-0.0016313379
251	0x3c97f976	0.01855157
252	0xbd060565	-0.03271999
253	0x3cb08e59	0.021552252
254	0xbcb3681a	-0.021900225
255	0xbbf67ba1	-0.007522062

discriminator.2.bias f4 [128]
0	0x3efd72c5	0.49501625
1	0x3ec7190d	0.388863
2	0xbeb65c9d	-0.35617533
3	0xbeb70a51	-0.35750058
4	0x3f0c7588	0.5486684
5	0x3eb886b9	0.36040285
6	0x3ef37e67	0.47557375
7	0xbee25ee2	-0.44213015
8	0x3ede3eb6	0.4340722
9	0xbe52e6e5	-0.20595892
10	0xbe60bfb7	-0.21948133
11	0x3eff776c	0.498958
12	0xbe1d1588	-0.15340245
13	0xbeab4141	-0.33448222
14	0xbeb08ca9	-0.34482315
15	0xbea0dc26	-0.3141796
16	0xbea11e93	-0.3146864
17	0x3f066b42	0.5250741
18	0xbe820259	-0.25392416
19	0xbec1e34f	-0.37868735
20	0x3f11cf79	0.56957203
21	0x3f014152	0.50490296
22	0xbe9f1f2a	-0.31078464
23	0xbe5c5643	-0.21517281
24	0x3ef50336	0.47854012
25	0xbea4b8a1	-0.3217211
26	0x3ea9a292	0.33131844
27	0xbe575828	-0.21029723
28	0x3f066c32	0.5250884
29	0x3f0a408c	0.5400474
30	0x3eb7791f	0.35834596
31	0x3ea8ad63	0.32944784
32	0xbe9014f1	-0.28140977
33	0x3ee74c2d	0.45175305
34	0xbe8e2a53	-0.27766666
35	0x3ee48ff4	0.44641078
36	0x3eac4c70	0.33652067
37	0x3ecd6fa9	0.40124252
38	0xbea4a8aa	-0.3215993
39	0x3ee01d46	0.43772334
40	0xbeb51ca0	-0.35373402
41	0xbeafd05c	-0.34338653
42	0x3f0314be	0.51203525
43	0x3f076494	0.52887845
44	0xbe9cfece	-0.3066315
45	0x3ec6bf22	0.38817698
46	0x3f0c66b8	0.54844236
47	0xbe835b3d	-0.25655547
48	0x3f00e26b	0.50345486
49	0x3ee16afd	0.44026938
50	0x3eb80f94	0.35949385
51	0x3ec49055	0.38391367
52	0x3ef1ca70	0.4722476
53	0x3ef16191	0.4714475
54	0xbea3166c	-0.31853044
55	0x3ed1b2d9	0.40956762
56	0xbe96835c	-0.29397094
57	0x3ed3295b	0.4124249
58	0xbecd2d56	-0.4007365
59	0xbe9aed66	-0.30259246
60	0x3ec2a32d	0.38015118
61	0x3ef64332	0.4809814
62	0xbe5342df	-0.20630978
63	0x3ef34742	0.47515303
64	0xbe93652f	-0.28788134
65	0xbe9c0796	-0.30474538
66	0xbe8d0be7	-0.27548143
67	0x3eed1cf7	0.4631116
68	0x3f02fdc9	0.51168495
69	0xbedafe36	-0.42772073
70	0xbe5633d8	-0.20918214
71	0x3ebf272c	0.37334573
72	0xbe8c1a9a	-0.27364045
73	0x3ed9cc93	0.4253889
74	0xbe6856a1	-0.22689296
75	0xbea07ae3	-0.31343755
76	0xbecc744e	-0.39932483
77	0xbe8e0802	-0.27740484
78	0xbe4d7779	-0.20065106
79	0x3edcf304	0.43154156
80	0xbeab2b30	-0.33431387
81	0xbe9f8df8	-0.31163
82	0x3ee59489	0.44839886
83	0xbe4d3594	-0.2003997
84	0x3edeb73e	0.43499178
85	0xbe9139b3	-0.28364334
86	0xbe9d0524	-0.30667984
87	0xbea1b3a8	-0.3158238
88	0x3ee5b863	0.44867238
89	0x3f0d35fe	0.5516051
90	0x3ed74569	0.42045143
91	0xbeb9224d	-0.36158982
92	0x3ecb8f3d	0.3975772
93	0x3ef35315	0.47524324
94	0x3ee98be8	0.45614552
95	0x3eba9fea	0.3645013
96	0x3ee65ebb	0.4499415
97	0xbda9b980	-0.082873344
98	0xbe93e3b9	-0.28884676
99	0x3eb34311	0.35012105
100	0x3eed742f	0.46377704
101	0xbebd0723	-0.36919507
102	0xbeaefd3f	-0.34177586
103	0x3f00aa7d	0.50260144
104	0x3ebf2796	0.3733489
105	0x3ed934eb	0.42423186
106	0xbe885734	-0.2662903
107	0x3ece44d9	0.40286902
108	0xbe9d25c8	-0.30692887
109	0xbe826c89	-0.2547343
110	0xbe8b9038	-0.27258468
111	0x3eb80b67	0.359462
112	0x3ebae951	0.3650613
113	0xbe7ff2c8	-0.24994957
114	0xbe99ee54	-0.30064642
115	0xbea77f7d	-0.32714453
116	0x3ed77c95	0.42087236
117	0xbe582730	-0.21108699
118	0xbec3b58f	-0.38224456
119	0x3eee2679	0.46513727
120	0x3ea21d5e	0.3166303
121	0xbe965333	-0.2936035
122	0x3eb45685	0.3522226
123	0x3efd581b	0.49481282
124	0x3efc66d5	0.49297205
125	0xbed849f7	-0.4224393
126	0x3eec2a8a	0.46126205
127	0xbeacf279	-0.33778742

discriminator.5.weight f4 [1, 128]
0	0xbe67f769	-0.22652973
1	0xbec30ec4	-0.38097203
2	0x3e85dead	0.2614645
3	0x3e5941fe	0.2121658
4	0xbe81ef0f	-0.253777
5	0xbeb5b535	-0.35489812
6	0xbe6b8933	-0.23001556
7	0x3e8b64f1	0.2722545
8	0xbe6a5075	-0.22882254
9	0x3ead3567	0.33829805
10	0x3e85b513	0.2611471
11	0xbe7d074d	-0.24709816
12	0x3eb5e098	0.35522914
13	0x3ea9e1c5	0.3318006
14	0x3e76624a	0.24060932
15	0x3ea6743f	0.32510564
16	0x3ea6ef5b	0.3260449
17	0xbe70dfd1	-0.23522879
18	0x3e88d156	0.2672221
19	0x3e907c99	0.2822006
20	0xbe87f912	-0.26557213
21	0xbeaf727b	-0.3426703
22	0x3e28d30f	0.16486762
23	0x3e85324b	0.26014933
24	0xbe9759f0	-0.29560804
25	0x3e679589	0.22615637
26	0xbecdb955	-0.4018046
27	0x3dd14af8	0.10219377
28	0xbe68c76e	-0.22732326
29	0xbe91a5d4	-0.2844683
30	0xbe7c063e	-0.24611756
31	0xbebe6f89	-0.3719447
32	0x3ea465b6	0.3210885
33	0xbeae6d52	-0.3406778
34	0x3e9f2dfc	0.3108977
35	0xbe83c821	-0.25738624
36	0xbea2f76c	-0.31829393
37	0xbea45823	-0.32098493
38	0x3e8d2074	0.27563822
39	0xbea05cd6	-0.31320828
40	0x3e589975	0.21152289
41	0x3e647ddf	0.22313641
42	0xbe892fbd	-0.26794234
43	0xbe930cf2	-0.28720814
44	0x3e9a8163	0.3017684
45	0xbe9679db	-0.29389843
46	0xbe7eda3f	-0.24887942
47	0x3e804898	0.25055385
48	0xbe6f78bd	-0.23385902
49	0xbe85afd9	-0.26110724
50	0xbeb45088	-0.3521769
51	0xbeb729ee	-0.35774177
52	0xbe918e69	-0.28428963
53	0xbe9c314c	-0.3050636
54	0x3e6b31fc	0.22968286
55	0xbe908d40	-0.28232765
56	0x3e96040a	0.29299957
57	0xbe5f7164	-0.21820599
58	0x3e7e6234	0.24842149
59	0x3eaecbc2	0.3413983
60	0xbe8efabf	-0.2792568
61	0xbe803594	-0.25040877
62	0x3e9fb025	0.31189075
63	0xbe87801e	-0.26464933
64	0x3e7ed2c1	0.24885084
65	0x3e90355f	0.2816572
66	0x3e94bfbb	0.2905253
67	0xbea64933	-0.32477722
68	0xbea3e576	-0.32011002
69	0x3e76e002	0.2410889
70	0x3e67ae4b	0.22625081
71	0xbebeab7c	-0.37240207
72	0x3e88c2fc	0.2671126
73	0xbe7ecfd1	-0.24883963
74	0x3ec87641	0.3915272
75	0x3e7d7934	0.24753267
76	0x3e70008e	0.23437712
77	0x3e9ef677	0.31047413
78	0x3e652a5f	0.22379445
79	0xbe87470e	-0.26421398
80	0x3e7a49a7	0.24442159
81	0x3e99da50	0.30049372
82	0xbe873fca	-0.26415855
83	0x3e80525f	0.25062844
84	0xbe996b40	-0.29964638
85	0x3e8c619f	0.2741823
86	0x3ea7c8ab	0.32770285
87	0x3e988b99	0.29794005
88	0xbe760c21	-0.24028064
89	0xbe7cf9a5	-0.24704607
90	0xbe8b8217	-0.27247688
91	0x3e702841	0.23452856
92	0xbe969419	-0.29409865
93	0xbe9f8866	-0.3115875
94	0xbe8a37d5	-0.2699572
95	0xbe8fd80c	-0.28094518
96	0xbe846d0b	-0.25864443
97	0x3e0ff7a7	0.14059316
98	0x3eae25c6	0.34013194
99	0xbed66e3e	-0.41880983
100	0xbea382b9	-0.3193567
101	0x3e8579b0	0.26069403
102	0x3e98e161	0.2985945
103	0xbe62f62c	-0.2216422
104	0xbea306db	-0.31841168
105	0xbe89186b	-0.26776442
106	0x3eb3a2c6	0.35085124
107	0xbea35a46	-0.3190481
108	0x3e93b03d	0.28845397
109	0x3e8e7ca5	0.2782947
110	0x3e9b9c92	0.3039289
111	0xbec4bbd1	-0.38424543
112	0xbea2a5ba	-0.31767064
113	0x3e92844a	0.28616554
114	0x3eaf781e	0.3427133
115	0x3e7cbcd8	0.24681413
116	0xbe8ff3ac	-0.28115594
117	0x3e9880aa	0.29785663
118	0x3e5d9dec	0.21642274
119	0xbe924e72	-0.28575474
120	0xbeafe4a2	-0.3435412
121	0x3e748bee	0.23881504
122	0xbef42b83	-0.47689447
123	0xbe669dd8	-0.2252115
124	0xbe5c5430	-0.2151649
125	0x3e740aab	0.23832195
126	0xbea29c6b	-0.31759962
127	0x3e825f59	0.2546337
