models/gan_model.pth (torch, 585800 bytes, 8 tensors)

generator.0.weight f4 [1, 1, 2, 2]
0	0x3eb8bb2e	0.36080307
1	0xbea3629c	-0.3191117
2	0x3eaf954c	0.34293592
3	0xbeae575c	-0.34051025

generator.3.weight f4 [1, 1, 2, 2]
0	0x3d0c68b4	0.03427954
1	0x3ebb9b10	0.3664174
2	0x3c5ece20	0.013598949
3	0x3ee46494	0.44607985

generator.7.weight f4 [784, 64]
0	0x3d1f69ac	0.038919136
1	0x3c243ef2	0.010024773
2	0x3d65af76	0.056075536
3	0xbc60529d	-0.013691572
4	0x3d110c8a	0.03541235
5	0x3cd403a7	0.025880648
6	0xbcf26be5	-0.029592464
7	0xbe1e1ce3	-0.15440707
8	0xbd950f28	-0.072782815
9	0xbd6b1204	-0.057390228
10	0xbd7335e4	-0.059377566
11	0xbe20cebb	-0.15703861
12	0x3d7a5d85	0.061124343
13	0x3c43a1d3	0.011940437
14	0x3c91c64a	0.017794747
15	0xbc1d3647	-0.00959546
16	0xbd97a43d	-0.07404373
17	0xbd3dfc8e	-0.046383433
18	0x3cec16df	0.0288195
19	0xbd001f2e	-0.031279735
20	0xbda49d77	-0.080378465
21	0xbd8474fa	-0.06467624
22	0xbbfefab4	-0.007781351
23	0xbd00e2cd	-0.031466294
24	0x3cc4f135	0.024040798
25	0x3df08b99	0.11745376
26	0xbc88ad95	-0.016684333
27	0xbb2600f2	-0.0025330153
28	0xbd9898ab	-0.07450994
29	0xbdaf004b	-0.08544978
30	0x3d8334b8	0.0640654
31	0xbdd9a615	-0.10627381
32	0x3d79377e	0.060843937
33	0xbcc2bb45	-0.023770938
34	0x3caf6cab	0.021414122
35	0xbdcd5ee0	-0.100278616
36	0x3d52ac8f	0.051434096
37	0xbdd41516	-0.10355584
38	0xbd2f51ce	-0.042802624
39	0xbd66c063	-0.056335818
40	0xbdd5fc65	-0.10448531
41	0xbd28aa9e	-0.04117834
42	0x3dd62480	0.104561806
43	0x3d2a66e3	0.041602027
44	0x3db67a15	0.08910004
45	0x3d17f33f	0.037097212
46	0xbd551bf5	-0.052028615
47	0xbd7ca179	-0.06167743
48	0xbd056b9e	-0.032573335
49	0x3d1e3f42	0.038634546
50	0xbb5fb8a5	-0.0034137156
51	0x3d0eb844	0.0348437
52	0x3de19c33	0.11016121
53	0x3d08cebe	0.03340029
54	0xbd37cf1e	-0.044875257
55	0xbd304e08	-0.043043166
56	0xbd30a98e	-0.04313045
57	0xbd9337fe	-0.07188414
58	0x3d7d655a	0.061864235
59	0xbca48626	-0.020083498
60	0xbd774b48	-0.06037453
61	0xbdfdb4e4	-0.12388018
62	0x3cf148f5	0.029453734
63	0xbd8ad679	-0.06779189
64	0xbce47c5d	-0.027891332
65	0xbdde3aa8	-0.108510315
66	0xbcc8398e	-0.024441507
67	0xbe247aef	-0.1606252
68	0xbcdca234	-0.026932813
69	0xbd792cce	-0.060833745
70	0xbdf9865a	-0.12183829
71	0xbdea33b1	-0.114356406
72	0xbc95265d	-0.01820677
73	0x3dbcbe8f	0.09216034
74	0x3d1bc19b	0.038026433
75	0x3d54a3b6	0.05191394
76	0xbcbb9e0f	-0.022902517
77	0xbd519122	-0.0511638
78	0x3cc994c8	0.024607077
79	0x3cf0944f	0.029367594
80	0xbdb91a2a	-0.090381935
81	0x3c675009	0.014118203
82	0xbd0ae92d	-0.03391378
83	0xbd8d57eb	-0.06901535
84	0x3dbb9a77	0.09160321
85	0x3d4c704a	0.049911775
86	0x3cda0196	0.026612084
87	0xbc91d171	-0.017800065
88	0x3d10cc2c	0.035350963
89	0x3c93e984	0.018055685
90	0xbd1397d8	-0.03603348
91	0x3b94a94d	0.004536784
92	0xbdb94435	-0.090462126
93	0x3bc670a0	0.0060559064
94	0xbdce39e4	-0.100696355
95	0xbd4f1e36	-0.05056592
96	0x3cdeceac	0.027198158
97	0xbe01323b	-0.12616818
98	0x3d36ecf1	0.04465956
99	0xbc752b26	-0.014963901
100	0x3d92d601	0.07169724
101	0xbdde9b22	-0.10869433
102	0x3d554a62	0.05207289
103	0xbdeb89a7	-0.115008645
104	0xbcb30711	-0.021853955
105	0x3d031a2c	0.03200738
106	0x3dd37228	0.10324508
107	0xbd2d389a	-0.042290308
108	0xbc1b261d	-0.009469536
109	0x3d4a433b	0.049380522
110	0x3d65fa9e	0.05614721
111	0xbca51d2f	-0.020155517
112	0xbdc633b9	-0.09677834
113	0xbe17f63a	-0.14840022
114	0x3c6cb5c2	0.014447631
115	0xbdaf9338	-0.085730016
116	0xbdca4928	-0.09877235
117	0xbdf5fc4c	-0.120110124
118	0xbde994ad	-0.11405311
119	0xbd88d420	-0.06681085
120	0x3da78888	0.08180338
121	0xbd6ec23e	-0.058290713
122	0xbdbbc364	-0.09168127
123	0x3a502a6e	0.0007940893
124	0xbce7363b	-0.028224101
125	0x3d695cac	0.056973144
126	0x3ce99960	0.028515518
127	0xbcd9b8f1	-0.026577445
128	0xbc7fc77e	-0.0156115275
129	0x3d60da95	0.054895956
130	0x3e0fc6e2	0.14040712
131	0xbdc7b68a	-0.097516134
132	0xbc83dc72	-0.016096327
133	0x3d34d4fc	0.04414843
134	0xbd7e7b37	-0.062129226
135	0xbd2212f8	-0.03956887
136	0x3d9a002a	0.075195625
137	0xbd22accd	-0.039715577
138	0xbd7d122b	-0.061784904
139	0xbd6bd61d	-0.05757724
140	0x3d063be3	0.032771956
141	0xbcd3bd24	-0.025847025
142	0xba8502df	-0.001014795
143	0x3cd98679	0.02655338
144	0xbdc4d57a	-0.0961103
145	0xbcf28339	-0.029603587
146	0x3ba51885	0.0050383233
147	0xbdaee5f2	-0.08539952
148	0xbdf091b8	-0.11746544
149	0xbe40736d	-0.18794031
150	0x3c346e00	0.011012554
151	0xbd2b875a	-0.04187713
152	0xbd2ae00e	-0.04171758
153	0xbc272607	-0.0102019375
154	0x3cb78ed7	0.022406979
155	0xbd36f38b	-0.044665854
156	0x3d1425f5	0.03616901
157	0x3d14adad	0.036298443
158	0x3d44945b	0.047993045
159	0xbd5f9d10	-0.054593146
160	0xbddeb0c4	-0.10873559
161	0x3cb58f1d	0.022162968
162	0x3d421030	0.04737872
163	0x3dddd0a4	0.10830811
164	0xbcb87739	-0.022517787
165	0xbd828fcd	-0.06375084
166	0xbdec314e	-0.115328416
167	0x3caea0c1	0.021316888
168	0xbd533cb3	-0.05157156
169	0x3b090302	0.0020906334
170	0xbdb57875	-0.08860866
171	0xbd801584	-0.06254104
172	0xbaf32fe9	-0.0018553707
173	0xbc5769cc	-0.013147783
174	0xbd85a58e	-0.06525718
175	0xbd673653	-0.056448292
176	0x3d0e46d1	0.034735505
177	0xbcd69692	-0.026194844
178	0x3d2cd6dd	0.042197097
179	0xbe03b781	-0.1286297
180	0xbd879863	-0.06620862
181	0x3cbc68f1	0.022999259
182	0xbd60971a	-0.0548316
183	0xbdbf10cd	-0.09329376
184	0xbd40f4a9	-0.047108326
185	0x3d8b4684	0.06800559
186	0xbce81fac	-0.028335415
187	0xbd88d8bb	-0.06681963
188	0x3d07cd72	0.033154912
189	0xbe28c1f6	-0.1648024
190	0xbdace304	-0.08441737
191	0xbda6af37	-0.08138888
192	0x3cc89b55	0.02448813
193	0x3de75255	0.112950005
194	0x3cbab738	0.022792444
195	0x39143867	0.00014135391
196	0x3d0467b7	0.032325473
197	0x3d760feb	0.060073774
198	0xbd07bdf2	-0.03314013
199	0x3d7571a3	0.059922826
200	0x3c39bea8	0.01133696
201	0x3d028139	0.031861518
202	0x3c8c5280	0.017129183
203	0xbdda58d2	-0.106614724
204	0x3d3a45cc	0.04547672
205	0xbdb0fbe4	-0.08641794
206	0xbc851ff0	-0.01625058
207	0xbe127aa9	-0.14304604
208	0x3d38d546	0.04512527
209	0xbcd71aa1	-0.026257815
210	0x3cfeb41e	0.031091746
211	0x3d82fdea	0.063960865
212	0xbcd0667c	-0.025439493
213	0xbd5f6a13	-0.05454452
214	0x3cbbb15c	0.02291172
215	0x3d0d037c	0.03442715
216	0xbd3a6808	-0.04550937
217	0xbd803d62	-0.06261708
218	0xbcdf3c44	-0.027250417
219	0x3ce9ea62	0.028554145
220	0x3deba13e	0.11505364
221	0x3dc8f9ca	0.098132685
222	0xbe0bab38	-0.13639534
223	0xbd8304a1	-0.06397367
224	0xbd43e96b	-0.047830027
225	0xbd097b8e	-0.033565097
226	0x3cb89f52	0.022536907
227	0xbc33fc34	-0.010985423
228	0xbda1cdb5	-0.07900564
229	0xbe3c07a3	-0.18362288
230	0xbe0e6f9c	-0.13909763
231	0xbd73a253	-0.059480976
232	0x3d1ee4e0	0.03879249
233	0x3d47bf01	0.04876614
234	0x3c565c51	0.013083533
235	0xbdae7159	-0.08517713
236	0xbd0bde17	-0.03414735
237	0xbd5f9089	-0.0545812
238	0x3c490ae2	0.012270661
239	0xbd37ca03	-0.044870388
240	0xbda16aac	-0.07881674
241	0xbe0623df	-0.13099621
242	0x3d9b0476	0.0756921
243	0x3cb9503d	0.022621268
244	0x3d3dc827	0.04633346
245	0xbc91b13a	-0.017784704
246	0xbe2489b8	-0.1606816
247	0xbcb9d7ee	-0.022685971
248	0xbcd73759	-0.026271509
249	0xbc9a3a26	-0.018826555
250	0xbcbf4c79	-0.023351895
251	0xbdc6236e	-0.096747264
252	0xbd885772	-0.06657304
253	0xbda81902	-0.08207895
254	0xbd5637d2	-0.05229933
255	0xbdf3e710	-0.11909306

generator.7.bias f4 [784]
0	0x3c93690d	0.017994428
1	0xbd9d8d2e	-0.076929435
2	0x3cf9545c	0.030435733
3	0xbc1028f0	-0.008798823
4	0x3bcf3746	0.006323728
5	0x3b0f16be	0.0021833624
6	0xbd868268	-0.06567842
7	0x3c4b7b7f	0.0124195805
8	0xbdd8fb42	-0.105947986
9	0x3db9d9f6	0.09074776
10	0x3dd76aaa	0.105183914
11	0xbcbe6c20	-0.023244917
12	0x3d2abef7	0.041686025
13	0x3d21c4c6	0.0394943
14	0xbd7da96a	-0.061929144
15	0xbe0a3d2a	-0.13499895
16	0x3d1b9196	0.03798064
17	0x3cedf879	0.029049145
18	0x3c7c09cc	0.015383195
19	0x3b5a9856	0.003335496
20	0xbd8c2399	-0.06842727
21	0xbe21856b	-0.15773551
22	0xbdf26ee6	-0.118375584
23	0xbd895ecd	-0.06707535
24	0xbdea49ab	-0.11439832
25	0x3d9dd705	0.07707027
26	0x3d879e9e	0.06622051
27	0x3ce41f54	0.02784697
28	0x3db9f1c2	0.09079315
29	0xbdaf0233	-0.08545341
30	0xbda8ac35	-0.08235971
31	0xbdf8bf31	-0.12145842
32	0xbcf84ff5	-0.030311564
33	0x3cab1310	0.020883113
34	0xbdab4f7e	-0.08364771
35	0xbd46d86f	-0.04854625
36	0x3cb22fd9	0.021751331
37	0xbc95e52c	-0.018297754
38	0xbe09db84	-0.13462645
39	0xbdebf75c	-0.115217894
40	0xbdf879ff	-0.12132644
41	0xbdb6bed2	-0.08923115
42	0xbd888d57	-0.066675834
43	0xbc681314	-0.014164705
44	0xbdf756ec	-0.12077126
45	0x3cc001f0	0.023438424
46	0x3d98b7ed	0.07456956
47	0xbc1e03b7	-0.00964444
48	0x3cdcc175	0.026947716
49	0x3d0ee675	0.03488775
50	0x3d6dd76d	0.058066774
51	0x3d4bdd66	0.04977169
52	0x3d90c030	0.07067907
53	0xbe330c3c	-0.17485136
54	0xbdaed1df	-0.085361235
55	0xbe0d1243	-0.13776498
56	0xbdaee68d	-0.08540068
57	0x3cf24fdd	0.029579097
58	0x3d21ea14	0.039529875
59	0x3cfe7f40	0.031066537
60	0x3cd62ab3	0.026143407
61	0xbd9f19ac	-0.077685684
62	0xbde39c5e	-0.11113809
63	0xbd86bb21	-0.06578661
64	0x3d19fd6b	0.037595194
65	0xbd06b0f1	-0.03288359
66	0xbe2c5728	-0.16830122
67	0xbd1640e8	-0.036682993
68	0xbe0ceda4	-0.13762528
69	0xbe1ad448	-0.15120041
70	0xbdc5fec2	-0.09667732
71	0xbd1affd7	-0.037841644
72	0xbdd162b7	-0.102239065
73	0xbd0df40b	-0.034656566
74	0x3ce2fa92	0.027707372
75	0x3cd04dec	0.025427781
76	0x3cd8bd63	0.026457494
77	0x3d74b9e2	0.059747584
78	0x3c2eeb62	0.010676237
79	0xbd629fc4	-0.055328146
80	0xbde7ed4a	-0.11324556
81	0x3cbfd61e	0.023417529
82	0xbd910fa5	-0.07083062
83	0xbb1a7520	-0.0023568347
84	0xbd267ff4	-0.04064937
85	0xbd1ff9e4	-0.039056674
86	0xbdfdb93a	-0.12388845
87	0xbdc16e62	-0.09444882
88	0x3c897f4d	0.016784335
89	0xbdda55c4	-0.1066089
90	0xbe163b8f	-0.14671157
91	0xbc9c042e	-0.019044962
92	0x3d4781a7	0.04870763
93	0xbda3474c	-0.07972583
94	0x3bac6c5d	0.0052619413
95	0xbd74ed67	-0.059796717
96	0xbe0bb2dc	-0.13642448
97	0xbdedfc33	-0.11620369
98	0x3bdb8fac	0.0067004766
99	0xbdf7e60e	-0.12104426
100	0x3b6accbb	0.0035827595
101	0xbdb51b7f	-0.08843135
102	0x3baf2886	0.005345407
103	0xbdafaa82	-0.08577444
104	0xbdd30b5e	-0.103049025
105	0x3ca33594	0.019923009
106	0xbd19fc11	-0.037593905
107	0xbd8dd552	-0.06925453
108	0xbc974177	-0.018463833
109	0xbe05eeb9	-0.13079347
110	0xbe04e8ce	-0.12979433
111	0xbe2c3091	-0.16815402
112	0x3b6e327e	0.0036346014
113	0xbe0e2d9e	-0.13884589
114	0xbdcb0ba0	-0.09914327
115	0x3d575202	0.052568443
116	0xbdbc8841	-0.09205676
117	0x3bd416d5	0.0064724484
118	0xbc84731b	-0.016168168
119	0xbdbd86e7	-0.09254246
120	0xbe1cedb8	-0.15325058
121	0xbd5cbf0a	-0.053893127
122	0xbd90cda7	-0.07070475
123	0x3bca5234	0.00617435
124	0xbdf4b42c	-0.119484276
125	0x3d435127	0.047684815
126	0x3d6b6ae4	0.057474986
127	0xbdbd8fc1	-0.092559345
128	0xbd6b961a	-0.057516195
129	0xbe0d6f1d	-0.13811918
130	0xbc4a55f6	-0.012349596
131	0xbdf3c94d	-0.119036295
132	0x3ca727b1	0.020404669
133	0x3d31b7f1	0.04338831
134	0x3b952129	0.004551072
135	0xbd3405ef	-0.04395097
136	0xbd13a840	-0.036049128
137	0xbd31f349	-0.043444905
138	0xbd362297	-0.04446658
139	0xbe0c5496	-0.13704142
140	0xbe1541eb	-0.14575927
141	0xbdfce79b	-0.12348863
142	0xbe0db24e	-0.13837549
143	0x3d437cff	0.047726627
144	0xbdfb6a2c	-0.1227611
145	0x3c8f94ee	0.01752707
146	0xbb7a8029	-0.0038223362
147	0xbd4f3754	-0.050589874
148	0xbdf69656	-0.12040393
149	0xbd9d2651	-0.07673324
150	0xbd9a6fdc	-0.07540867
151	0x3d0488fb	0.032357197
152	0xbda99ba1	-0.08281637
153	0x3d6848e4	0.05671014
154	0x3d242e6f	0.040083345
155	0x3de1bd6d	0.11022458
156	0x3d51241c	0.051059827
157	0x3dd1e15a	0.102480605
158	0x3d9eee06	0.07760243
159	0x3d825c2d	0.063652374
160	0x3d99b469	0.07505114
161	0xbde7730c	-0.1130124
162	0xbdab5604	-0.083660156
163	0xbcfce5e4	-0.03087134
164	0xbe2104b7	-0.15724455
165	0x3d086008	0.033294708
166	0xbe04bac6	-0.12961873
167	0xbdf79664	-0.120892316
168	0xbbe278cc	-0.0069113728
169	0x3c7a6f68	0.01528535
170	0x3d2844de	0.041081302
171	0xbd95d2a8	-0.0731557
172	0xbdcef152	-0.10104622
173	0x3b43df77	0.0029887834
174	0xbd5976c4	-0.05309178
175	0xbd5bd0f1	-0.05366606
176	0xbd961ea6	-0.073300645
177	0xbdba3d29	-0.090936966
178	0x3dcb3f30	0.099241614
179	0x3d9f4597	0.07776945
180	0x3cb349a8	0.021885708
181	0x3dbb14a0	0.09134793
182	0xbd3be7b1	-0.045875255
183	0xbdf10440	-0.11768389
184	0xbdec0443	-0.1152425
185	0x3dc106e9	0.09425146
186	0xbdcc4c75	-0.099755205
187	0x3d13290c	0.035927817
188	0x3ccaac1b	0.02474027
189	0x3ce497cb	0.027904412
190	0x3c4431d2	0.011974769
191	0xbe2a7702	-0.1664696
192	0x3c4d49a5	0.012529765
193	0xbcb0c223	-0.021576947
194	0xbd462f9e	-0.048385255
195	0xbe349bfc	-0.17637628
196	0xbc64a20a	-0.013954649
197	0x3d6f03a8	0.058353096
198	0xbc5c5ec0	-0.013450325
199	0x39b90d9b	0.00035296087
200	0xbd6b10d5	-0.0573891
201	0xbcb0dff1	-0.021591159
202	0xbd7c1925	-0.061547417
203	0x3d4bb02d	0.04972856
204	0xbdacc790	-0.08436501
205	0xbc7df811	-0.015501038
206	0xbdc4fb88	-0.09618288
207	0xbda7256d	-0.08161435
208	0x3cde095c	0.027104072
209	0xbdd1b0f7	-0.102388315
210	0xbd2baab8	-0.041910857
211	0xbdb9acc9	-0.09066159
212	0x3cdd3db3	0.02700696
213	0x3d0c62dd	0.03427397
214	0xbd685710	-0.056723654
215	0x3cae7f1e	0.021300849
216	0x3d2317f0	0.03981775
217	0xbe089ef7	-0.1334189
218	0xbe270d1f	-0.16313599
219	0xbdaa55ec	-0.083171695
220	0x3cc61f71	0.024184914
221	0x3d861219	0.065464206
222	0xbd43fda2	-0.047849305
223	0xbe387051	-0.18011595
224	0x3ad6fcf3	0.0016402289
225	0xbd196705	-0.037451763
226	0xbe063a23	-0.13108115
227	0x3d1d8ef5	0.038466413
228	0xbcfe451a	-0.03103881
229	0x3bd5402a	0.006507893
230	0xbe01d41d	-0.12678571
231	0x3d1ee019	0.038787935
232	0xbe0f1e99	-0.13976516
233	0xbcfcea7c	-0.03087353
234	0xbdaf9f78	-0.08575338
235	0xbd1ef3ef	-0.038806852
236	0xbda8bd18	-0.08239192
237	0xbdff9420	-0.124794245
238	0x3d8f97e5	0.070113935
239	0xbcb80c04	-0.022466667
240	0x3d851429	0.06497986
241	0xbd2adf70	-0.041716993
242	0x3d013b91	0.031550948
243	0x3d0191d8	0.031633228
244	0xbb3d989c	-0.0028930074
245	0xbda85acb	-0.082204424
246	0xbdb26b75	-0.08711902
247	0x3d557505	0.05211355
248	0x3c05440a	0.008133898
249	0x3d2c29e9	0.042032156
250	0xbe22924d	-0.15876122
251	0xbd9b45ca	-0.075816706
252	0xbc956faa	-0.018241722
253	0xbbf068cd	-0.007336712
254	0xbd46d54b	-0.048543256
255	0xbde7ace7	-0.113122754

discriminator.0.weight f4 [1, 1, 2, 2]
0	0xbef4b2db	-0.47792706
1	0x3e81b947	0.25336668
2	0x3c5c20f5	0.013435592
3	0x3f21e61a	0.6324173

discriminator.2.weight f4 [128, 729]
0	0x3e08a067	0.13342439
1	0x3cc1b362	0.023645107
2	0x3cff200e	0.031143215
3	0xbd114d6d	-0.03547423
4	0x3e0feebc	0.14055914
5	0xbddbd707	-0.107343726
6	0xbdd3ba45	-0.103382625
7	0xbd9c324c	-0.07626781
8	0xbd61a3d3	-0.055087876
9	0xbe17cdfc	-0.1482467
10	0x3da34ff2	0.07974233
11	0xbdb8b368	-0.09018594
12	0x3d3f0b1b	0.04664145
13	0x3cd1ee58	0.025626346
14	0x3d56d084	0.05244495
15	0x3d9217c4	0.07133439
16	0x3d583a95	0.052790243
17	0xbb8c66e8	-0.0042847283
18	0x3c625b87	0.013815767
19	0x3dba2a48	0.09090096
20	0xbd5ac869	-0.053413782
21	0x3ca94d4e	0.020666745
22	0x3d667684	0.05626537
23	0xbd0843fa	-0.033267953
24	0xbce5246d	-0.02797147
25	0xbaba9768	-0.0014235796
26	0x3d1beb9d	0.038066495
27	0xbe4e0422	-0.20118764
28	0x3d5a9a44	0.053369775
29	0x3d83defe	0.06439017
30	0xbc48894c	-0.012239765
31	0x3d2ec6de	0.042670123
32	0xbde42e4f	-0.11141645
33	0x3e00c643	0.12575631
34	0x3d7a3023	0.061081063
35	0x3df90c9a	0.12160607
36	0x3d63a26f	0.05557483
37	0x3ddd3ada	0.10802241
38	0xbd973541	-0.07383204
39	0x3dae5c93	0.08513751
40	0xbc1c4adb	-0.009539331
41	0x3d14b799	0.036307905
42	0x3d8289e4	0.06373957
43	0x3d4c1e00	0.049833298
44	0xbd29c2a0	-0.041445374
45	0x3d9ca26e	0.076481685
46	0xbc312ad8	-0.010813437
47	0xbdf4bb20	-0.11949754
48	0x3c74837c	0.014923926
49	0x3cec3ddd	0.028838092
50	0xbc20acd5	-0.009806831
51	0xbc952ced	-0.018209899
52	0x3d9e40b4	0.07727185
53	0xbe050dac	-0.12993497
54	0xbd83c73d	-0.06434486
55	0x3dcac3d9	0.09900636
56	0x3da20e26	0.07912855
57	0xbdbb7f3a	-0.09155126
58	0xbda55d1c	-0.080744
59	0xbcb813ed	-0.022470439
60	0x3d402cf8	0.046917886
61	0x3b665ef8	0.003515182
62	0xbd37a50a	-0.044835128
63	0xbb75b8f2	-0.003749427
64	0xbd4b30e6	-0.04960718
65	0x3d45e1d9	0.04831109
66	0x3d512264	0.051058188
67	0xbd3c3d79	-0.045957062
68	0x3d1f91c2	0.038957365
69	0xbdd9539a	-0.10611649
70	0x3ca29cbd	0.01985013
71	0xbd816c7e	-0.06319521
72	0xbd9d18df	-0.076707594
73	0x3d8c5650	0.068524
74	0xbc9c3633	-0.019068813
75	0x3d3f6e4d	0.04673605
76	0xbce1321f	-0.02748972
77	0xbd902d07	-0.07039838
78	0x3e0b2ab8	0.13590515
79	0x3db18141	0.08667231
80	0xbdf9b5fe	-0.121929154
81	0xbb72eaf2	-0.0037066308
82	0x3db57abe	0.08861302
83	0x3c1673dc	0.009182896
84	0x3de345e9	0.11097319
85	0xbd9496c6	-0.0725532
86	0xbdb31262	-0.087437406
87	0x3d8ff394	0.07028881
88	0x3d299f98	0.041411966
89	0xbc3faee6	-0.011699414
90	0x3bb95dbb	0.0056569255
91	0xbc20f4e2	-0.00982401
92	0x3bd25148	0.006418381
93	0x3d89d0f9	0.067293115
94	0xbc6a24bd	-0.014290986
95	0x3db26e55	0.087124504
96	0x3cbfb5c0	0.023402095
97	0x3d2250cd	0.03962784
98	0xbd02dd82	-0.031949528
99	0x3cb2baec	0.021817647
100	0xbd92b8ab	-0.07164129
101	0xbd267aaf	-0.040644344
102	0x3a487db2	0.00076481246
103	0x3d658810	0.056037962
104	0x3d8868b8	0.066605985
105	0x3d6ebd5f	0.058286067
106	0xbd7623f5	-0.060092885
107	0xbc1f1536	-0.009709647
108	0xbdb26316	-0.087103054
109	0x3dd4fd74	0.10399905
110	0xbd209169	-0.039201174
111	0x3d9ef8e9	0.077623196
112	0xbd13bbae	-0.036067657
113	0x3d0bf9f1	0.03417391
114	0x3c899824	0.01679618
115	0xbd912f61	-0.07089115
116	0x3c7ec5a3	0.01555005
117	0x3d6faed7	0.05851635
118	0xbbbf04a0	-0.0058294088
119	0xbb92230a	-0.0044597434
120	0x3d056660	0.032568336
121	0x3d097db6	0.033567153
122	0x3d473441	0.048633818
123	0x3baf6489	0.005352561
124	0x3c9bf73d	0.01903879
125	0x3ce71a89	0.028210895
126	0x3d89f781	0.06736661
127	0xbcf7c638	-0.030245885
128	0x3d5aabf4	0.053386644
129	0x3b1ba121	0.0023747163
130	0xb88123af	-6.157846e-05
131	0xbd542321	-0.051791314
132	0xbd9e0516	-0.07715814
133	0x3d379599	0.0448204
134	0xbc5a5aa7	-0.013327277
135	0xbb985a34	-0.004649425
136	0x3de666f3	0.11250105
137	0xbd93887c	-0.07203767
138	0xbd17bbaf	-0.037044223
139	0x3cf28e0e	0.029608753
140	0x3d6d313e	0.05790829
141	0x3cfad141	0.030617358
142	0xbbd1814c	-0.006393587
143	0xbc12ad3b	-0.008952434
144	0xbd59cbb8	-0.053172797
145	0xbcef63cb	-0.02922239
146	0xbaeb12ff	-0.0017934738
147	0x3d8005ba	0.06251092
148	0x3d53c999	0.05170593
149	0xbbd9249c	-0.0066266786
150	0xbd85ee21	-0.0653956
151	0x3c974fe1	0.018470706
152	0xbd11e7ab	-0.035621326
153	0xbd2caaa8	-0.042154938
154	0x3cbf9215	0.023385087
155	0xbc9fd77c	-0.01951193
156	0x3ca388dd	0.019962722
157	0xbd80382f	-0.06260716
158	0x3dc7820b	0.097416006
159	0xbdb3d297	-0.08780401
160	0xbd7deff1	-0.061996404
161	0xbceee8c2	-0.029163722
162	0x3cbf1a40	0.023327947
163	0x3cb65549	0.022257464
164	0x3e201da9	0.15636314
165	0xbd3aed59	-0.04563651
166	0x3d75f6fb	0.060049992
167	0xbc1409af	-0.009035512
168	0xbcbf756f	-0.023371426
169	0xbc6070cd	-0.013698769
170	0xbd8d9369	-0.06912882
171	0xbcd96abb	-0.02654015
172	0x3d704ff5	0.058670003
173	0x3c2fc382	0.010727765
174	0x3dc7cbc0	0.09755659
175	0x3c60ff84	0.013732795
176	0x3cb070b7	0.021538122
177	0xbd4884ae	-0.04895466
178	0xbbacada2	-0.005269722
179	0xbd628873	-0.05530591
180	0xbccef9f4	-0.025265671
181	0x3c74c22c	0.014938872
182	0xbdba48f9	-0.0909595
183	0xbd29b770	-0.041434705
184	0xbcc2f1f6	-0.023797017
185	0x3d80822e	0.0627483
186	0xbd97b6b3	-0.07407894
187	0x3ba03c4d	0.004890001
188	0x3ca0f651	0.019648703
189	0xbde24b5b	-0.11049529
190	0x3d27e2a8	0.04098764
191	0x3cb62f3a	0.022239316
192	0x3c7cb64d	0.015424323
193	0x3dad66da	0.08466883
194	0xb9a1ac1f	-0.00030836553
195	0xbb976c47	-0.004621062
196	0x3bf8697f	0.0075809355
197	0xbce64229	-0.02810772
198	0x3ca57f7b	0.020202389
199	0x3b0e22c5	0.0021688205
200	0xbc08b483	-0.008343819
201	0x3c81f774	0.015865065
202	0x3bf8498f	0.0075771282
203	0xbb9aaed8	-0.00472055
204	0xbd098d74	-0.033582166
205	0xbcfcb94d	-0.030850077
206	0xbc9a6fd7	-0.018852158
207	0xbd1ad508	-0.03780082
208	0xbb419d06	-0.0029543056
209	0x3d19a22a	0.037508167
210	0xbcb45e13	-0.022017514
211	0xbc3a60b0	-0.011375591
212	0xbcaa76cb	-0.020808598
213	0xbd6a3296	-0.05717715
214	0xbd497579	-0.049184296
215	0xbc6730fc	-0.0141108
216	0xbc8d388b	-0.017238876
217	0x3d1066f8	0.03525445
218	0xbd68ec59	-0.056866024
219	0x3c955654	0.018229641
220	0x3c9877df	0.018611846
221	0xbd09f864	-0.03368415
222	0xbcd6718a	-0.026177187
223	0x3b9c753e	0.0047747185
224	0xbcf2aee9	-0.02962442
225	0x3bb21920	0.005435124
226	0xbbe8f656	-0.0071094437
227	0x3d0b9c45	0.034084577
228	0x3d46386d	0.048393656
229	0xbb15a616	-0.002283459
230	0xbd89204a	-0.06695612
231	0xbcb7c7b0	-0.022434086
232	0xbd560b89	-0.052257095
233	0xbcf2de69	-0.029647069
234	0xbc996b62	-0.018727962
235	0x3c6db3c4	0.0145081915
236	0x3cb31a87	0.021863235
237	0xbc4f423a	-0.012650067
238	0xbc6ef7b9	-0.014585429
239	0x3d5c46db	0.05377851
240	0x3cd753a7	0.026285006
241	0xbd310847	-0.043220785
242	0x3d2067e6	0.039161585
243	0x3dcf51be	0.10123013
244	0xbd0f1418	-0.034931272
245	0x3d4e9921	0.050439004
246	0xbc6062c0	-0.013695419
247	0x3ccfa826	0.025348734
248	0x3d344e08	0.04401973
249	0xbbcdcc69	-0.006280471
250	0xbbd8cfd8	-0.006616574
251	0x3c36eb01	0.011164428
252	0xbb9b598a	-0.0047408985
253	0x3c8a6d61	0.016897859
254	0x3d28a1df	0.041169997
255	0x3d4d6b1a	0.050150968

discriminator.2.bias f4 [128]
0	0xbc2efbda	-0.010680163
1	0xbdc319dd	-0.095264174
2	0xbaea053d	-0.0017854344
3	0x3bd30be7	0.006440628
4	0xbe14379a	-0.14474335
5	0x3ca5b171	0.020226212
6	0xbe023aab	-0.12717693
7	0x3d55a6cd	0.052161027
8	0x3d66d780	0.05635786
9	0xbb4c0c66	-0.003113532
10	0xbdc62c37	-0.09676402
11	0xbe1a96e1	-0.15096618
12	0xbcc8d4e7	-0.024515582
13	0x3d5d7215	0.054063875
14	0x3ce50f92	0.027961526
15	0xbd826079	-0.06366057
16	0x3d171e48	0.036894113
17	0x3da732cd	0.08163986
18	0xbde2a02f	-0.11065709
19	0xbca2558e	-0.019816186
20	0xbd88c33e	-0.066778645
21	0xbd6ced39	-0.05784342
22	0x3d6ab114	0.05729778
23	0xbd3fd620	-0.046835065
24	0xbb7944a5	-0.00380353
25	0x3db9dcb2	0.090752974
26	0xbe13225c	-0.14368576
27	0xbb244703	-0.002506674
28	0xbd835451	-0.064125665
29	0xbe531bef	-0.20616125
30	0x3b9623bd	0.004581897
31	0xbc517781	-0.01278484
32	0x3d018e41	0.031629805
33	0xbe0e1f8f	-0.13879226
34	0x3ce2faa4	0.027707405
35	0x3d320743	0.043463957
36	0xbda75704	-0.08170894
37	0xbc4e0d0b	-0.012576352
38	0x3cbe3cd4	0.023222364
39	0xbbc77ef0	-0.00608813
40	0x3c444126	0.011978423
41	0x3bb09466	0.005388784
42	0xbc803563	-0.015650457
43	0xbe1814df	-0.14851712
44	0xbd9f8b35	-0.077902235
45	0xbd7255b6	-0.05916377
46	0xbcbd59a0	-0.023114026
47	0xbe1798c6	-0.14804372
48	0xbdded86d	-0.10881124
49	0xbdd3689f	-0.10322689
50	0xbd860306	-0.065435454
51	0x3be741aa	0.0070573883
52	0x3d1a3904	0.03765203
53	0xbd816ebb	-0.06319948
54	0xbd9b51cc	-0.07583961
55	0xbdb1cadd	-0.08681271
56	0xbd922a9b	-0.071370326
57	0xbd648a59	-0.055796
58	0xbd1faedf	-0.03898513
59	0x3dc8ed6a	0.09810908
60	0xbcb8b292	-0.022546086
61	0xbcadf681	-0.021235706
62	0xbd1a39b4	-0.037652686
63	0xbdd305d3	-0.10303845
64	0x3c73b19c	0.014873888
65	0xbdd0f887	-0.10203653
66	0xbdb18ecf	-0.08669817
67	0xbcf0ab47	-0.029378546
68	0x3def69da	0.116901115
69	0x3dc45ec9	0.09588391
70	0xbc33b8dd	-0.010969368
71	0xbd8c0846	-0.068375155
72	0x3da8de46	0.0824552
73	0xbd3a9f7c	-0.045562252
74	0x3c8c77dc	0.017146997
75	0xbde97dc0	-0.11400938
76	0x3ce2b927	0.027676178
77	0xbe2fc4b9	-0.17164887
78	0xbc5bc91d	-0.013414648
79	0x3d0f2555	0.034947712
80	0xbc80d387	-0.015725864
81	0xbba20f79	-0.004945692
82	0xbda3b7a1	-0.07994009
83	0x3d1a4bc6	0.03766992
84	0x3dae74bb	0.08518358
85	0xbc60d17b	-0.013721819
86	0xbc701cb3	-0.01465528
87	0xbcead3da	-0.028665472
88	0xbd8e192a	-0.069383934
89	0xbe3435c1	-0.1759863
90	0xbde06361	-0.10956455
91	0xbcce3021	-0.025169434
92	0xbcd664a7	-0.026171042
93	0xbd0f37f2	-0.034965463
94	0x3d8624ee	0.065500125
95	0x3aff7051	0.0019488429
96	0x3d56113b	0.052262526
97	0x3da8c1c3	0.08240082
98	0xbb8ca7be	-0.0042924574
99	0x3c77a8bc	0.015115913
100	0xbd9b7c74	-0.07592097
101	0x3d0b88f9	0.034066174
102	0x3beb27a3	0.007176356
103	0x3ba68611	0.0050819
104	0x3cc60dc3	0.024176484
105	0xbc865b40	-0.016400933
106	0x3c558ad9	0.013033592
107	0x3da4a2f7	0.080388956
108	0x3b7747b8	0.0037731957
109	0x3b2d6dfe	0.0026463266
110	0x3b87627d	0.0041316138
111	0x3cd62ddc	0.026144914
112	0xbc8e9d80	-0.017409086
113	0xbd4c256f	-0.049840387
114	0x3ccad0aa	0.024757702
115	0xbd64149c	-0.055683717
116	0x3d05bfe4	0.032653704
117	0x3d868263	0.06567838
118	0xbd2500fe	-0.04028415
119	0x3c013b89	0.007887729
120	0xbdba1e8c	-0.090878576
121	0xbce2ae8b	-0.02767112
122	0xbcbfe213	-0.02342323
123	0x3ca9646a	0.020677764
124	0xbd1db5d4	-0.038503483
125	0xbd57a20a	-0.052644767
126	0x3dcc330c	0.09970674
127	0xbcf58d5c	-0.029974632

discriminator.5.weight f4 [1, 128]
0	0xbe47558f	-0.19466232
1	0x3ee138ab	0.43988547
2	0xbe8858ca	-0.2663024
3	0xbc048171	-0.008087502
4	0x3e859e70	0.2609744
5	0xbe8ed32c	-0.27895486
6	0x3ecca3b7	0.39968655
7	0xbc9a9e4d	-0.018874312
8	0x3ee2a3fc	0.44265735
9	0xbea18149	-0.3154395
10	0x3f067d2a	0.52534735
11	0x3f100646	0.5625957
12	0x3edd6333	0.43239745
13	0xbe3fc246	-0.18726453
14	0xbe618ff9	-0.22027577
15	0x3eddf5e5	0.43351665
16	0x3edc45d8	0.43022037
17	0xbe706e16	-0.23479494
18	0x3ece6f8e	0.40319484
19	0x3ee47635	0.44621435
20	0x3ef0811a	0.46973497
21	0x3ee6e3ed	0.4509577
22	0xbc9ea51a	-0.019365836
23	0x3e98a2b5	0.29811636
24	0x3ea7b81c	0.32757652
25	0x3eed1eb6	0.46312493
26	0x3e6b3599	0.22969665
27	0x3ecd5d0f	0.4011006
28	0x3e04e9ee	0.12979862
29	0x3ed3a75b	0.4133862
30	0xbe8185cd	-0.25297394
31	0xbd06b6f4	-0.03288932
32	0xbe3bd631	-0.18343426
33	0x3e664ff7	0.22491442
34	0x3ef9e051	0.48803952
35	0xbe87a198	-0.26490474
36	0x3ed4d419	0.41568068
37	0xbe73bb71	-0.23801972
38	0x3ede16c6	0.4337675
39	0xbe8e327c	-0.27772892
40	0x3ec877d3	0.3915392
41	0xbd9ed45a	-0.077553466
42	0xbe3f89ca	-0.18704906
43	0x3eca71aa	0.39539844
44	0x3e38f6a6	0.18062839
45	0x3eb546ec	0.35405672
46	0x3ea3a88e	0.31964535
47	0x3e6c2bdf	0.2306361
48	0x3eca8401	0.39553836
49	0x3ede45b4	0.43412554
50	0x3ed45749	0.41472843
51	0xbde939b8	-0.11387962
52	0xbeb9b211	-0.36268666
53	0x3eba9b5c	0.36446655
54	0x3ef6517a	0.48109037
55	0x3ecdad13	0.40171108
56	0x3ebfa485	0.37430206
57	0xbdce1c66	-0.1006401
58	0x3ea73b1d	0.32662287
59	0xbd51b071	-0.05119366
60	0x3ebe6fec	0.37194765
61	0x3ebe2f35	0.3714539
62	0x3f0fb846	0.56140554
63	0x3edb14af	0.42789218
64	0xbe833a6e	-0.25630516
65	0xbe01e049	-0.12683214
66	0x3ec4ae79	0.38414362
67	0xbda4ba87	-0.0804339
68	0x3ea67b8d	0.32516137
69	0x3f062782	0.52404034
70	0xbd1925de	-0.03738963
71	0x3ed2adb7	0.4114816
72	0x3f13b9bd	0.5770529
73	0x3ec8bfa1	0.392087
74	0x3eb331a6	0.34998816
75	0x3f0442bf	0.51664346
76	0x3ed234c5	0.41055885
77	0x3e856e4b	0.2606071
78	0xbe8a56ee	-0.27019447
79	0xbe84b9e9	-0.25923088
80	0xbe01a3ff	-0.12660216
81	0xbe6032fb	-0.21894448
82	0x3ec37c03	0.3818055
83	0x3ef0838a	0.46975356
84	0xbe9b1b19	-0.3029411
85	0xbe9f8677	-0.31157276
86	0xbe7fd394	-0.24983054
87	0xbc97cd49	-0.018530505
88	0x3f047f1c	0.51756454
89	0x3e7fe905	0.24991234
90	0x3ed150d9	0.40881994
91	0xbe6d66e8	-0.23183787
92	0xbe5349c6	-0.20633611
93	0xbea582fa	-0.3232649
94	0x3f02d8b0	0.5111189
95	0xbe625887	-0.22104083
96	0xbd68443a	-0.05670569
97	0x3ec53bf0	0.3852229
98	0x3f024a81	0.50894934
99	0xbd4f5c95	-0.050625402
100	0x3effa176	0.49927872
101	0x3eeb9960	0.46015453
102	0xbe16aa14	-0.14713317
103	0x3ee74abd	0.45174208
104	0xbe61bfce	-0.22045824
105	0x3ed39127	0.4132168
106	0x3f1010da	0.56275713
107	0x3ebef821	0.37298682
108	0xbcb38bd0	-0.021917254
109	0xbe62ba6f	-0.22141431
110	0x3ef1176c	0.47088182
111	0xbe0d0838	-0.13772666
112	0x3f0245b5	0.50887614
113	0x3e4fd9d4	0.20297939
114	0xbd684593	-0.056706976
115	0xbd330022	-0.0437013
116	0xbcee6f98	-0.029105946
117	0xbe7b9135	-0.24567111
118	0xbe5b20d3	-0.2139924
119	0xbe6ee6d9	-0.23330249
120	0x3eb3fb55	0.3515269
121	0x3ed58e56	0.41710156
122	0xbd49f84e	-0.049309067
123	0xbd1842c8	-0.037173063
124	0xbe948853	-0.29010257
125	0x3ec88528	0.3916409
126	0x3f06acf9	0.52607685
127	0x3eecd580	0.46256638
