models/gan_model.pth (torch, 862232 bytes, 7 tensors)

generator.0.weight f4 [128, 100]
0	0x3d24bb24	0.040217534
1	0x3ca9d37c	0.020730726
2	0xbe5bae3d	-0.21453185
3	0x3de8166b	0.11332401
4	0x3e2b8252	0.16748932
5	0x3d85be19	0.06530399
6	0x3e7a4a4d	0.24442406
7	0x3daafb97	0.08348768
8	0xbcec37d4	-0.028835215
9	0x3d7baa86	0.06144192
10	0xbda0b6aa	-0.078473404
11	0x3e2988e4	0.16556126
12	0x3e96f58a	0.29484206
13	0x3e04b82c	0.12960881
14	0xbe1f9b73	-0.15586643
15	0x3d2fac7c	0.042889103
16	0xbd8cba87	-0.06871515
17	0xbe698e39	-0.2280816
18	0x3e64558d	0.2229826
19	0x3e6cb35e	0.23115298
20	0xbd4a693c	-0.049416766
21	0xbd39319c	-0.045213327
22	0xbe2d211b	-0.1690716
23	0x3e3fda57	0.18735634
24	0xbd20b28c	-0.039232776
25	0xbcde8460	-0.02716273
26	0x3d30633b	0.043063384
27	0x3cd6e938	0.026234254
28	0x3dc60945	0.09669737
29	0x3e57b135	0.21063693
30	0xbd81a56e	-0.06330381
31	0x3e2a0aa9	0.16605629
32	0x3e16e5ef	0.1473615
33	0x3e06315b	0.13104765
34	0xbdbf88d3	-0.09352269
35	0xbe018515	-0.12648423
36	0xbe765951	-0.24057509
37	0x3e214f57	0.15752922
38	0xbe49b52e	-0.19698021
39	0xbe784b33	-0.24247436
40	0xbe4d4679	-0.20046414
41	0xbdf17ef8	-0.117917955
42	0xbea5bdee	-0.32371467
43	0x3ea487bb	0.32134804
44	0xbd5ca09d	-0.05386411
45	0x3e0a474f	0.13503765
46	0xbe064840	-0.13113499
47	0xbea30e75	-0.31846967
48	0x3e117b16	0.1420711
49	0xbdfa31d8	-0.12216538
50	0xbd97a95f	-0.07405352
51	0x3d609ecc	0.05483894
52	0x3d9431aa	0.07236035
53	0x3e04dceb	0.12974899
54	0x3c00f584	0.0078710355
55	0xbe7fbf2b	-0.24975269
56	0xbe6ce375	-0.23133643
57	0xbe7288bc	-0.23684973
58	0x3dc411bd	0.09573696
59	0xbe03d4e8	-0.12874186
60	0xbd086bc0	-0.033305883
61	0xbda20ad6	-0.07912223
62	0x3e54aa8f	0.20768188
63	0x3cc09dfc	0.023512833
64	0xbe81760a	-0.2528537
65	0x3db53fe0	0.08850074
66	0xbd6fbb7b	-0.058528405
67	0x3e1fcf8e	0.1560652
68	0xbe589812	-0.2115176
69	0x3e0c1fa6	0.13683948
70	0xbe2d4656	-0.16921362
71	0x3e2a694a	0.16641727
72	0x3e87741e	0.26455778
73	0xbe254429	-0.16139282
74	0xbe139c2b	-0.14415042
75	0x3cdc231d	0.026872212
76	0x3cef621a	0.029221583
77	0xbcf612a1	-0.03003818
78	0xbc26dde7	-0.010184742
79	0x3e4f7214	0.20258361
80	0xbdce248d	-0.10065565
81	0x3e8763b3	0.26443252
82	0xbdb0a607	-0.08625417
83	0x3d459c3f	0.04824471
84	0xbd1d16b9	-0.03835175
85	0x3dc9a389	0.09845645
86	0x3e0dbb5c	0.13841003
87	0xbd244783	-0.04010726
88	0x3d1bebc5	0.038066644
89	0xbe551a45	-0.20810802
90	0xbdfe5acf	-0.12419664
91	0xbd0714d6	-0.032978855
92	0x3d3930b8	0.045212477
93	0xbdcd4232	-0.100223914
94	0x3e2dcc01	0.16972353
95	0x3e174a58	0.14774454
96	0x3e8dd8a0	0.27704334
97	0xbaaf00e3	-0.0013351705
98	0xbe50c667	-0.20388184
99	0xbd65ef09	-0.056136165
100	0xbd0cd76d	-0.034385134
101	0x3c8df614	0.017329253
102	0xbd318475	-0.04333921
103	0x3e53486a	0.20633093
104	0xbd883574	-0.066508204
105	0xbe0bc5dd	-0.13649698
106	0xbdd44300	-0.10364342
107	0x3e0840d7	0.13305984
108	0xbcc72c71	-0.024313184
109	0x3d7436ee	0.059622698
110	0x3c834370	0.016023368
111	0x3e008bfb	0.12553398
112	0x3cbc028c	0.022950433
113	0x3e05476e	0.1301553
114	0x3bae3ad1	0.00531707
115	0x3d4d13ca	0.0500677
116	0x3cc43b50	0.023954064
117	0xbde1f657	-0.11033314
118	0x3e339138	0.17535865
119	0x3dbe883c	0.093033284
120	0xbe095720	-0.13412142
121	0x3dc03a9f	0.09386181
122	0xbd9632f3	-0.073339365
123	0xbdba1e46	-0.090878054
124	0x3b24f088	0.0025167782
125	0xbb7dbc1d	-0.003871686
126	0x3d8c91dd	0.06863759
127	0xbe0b2c5e	-0.13591143
128	0x3ca17fee	0.019714322
129	0xbd8b0adb	-0.0678918
130	0xbd296723	-0.041358124
131	0x3e00744e	0.12544367
132	0x3dd3b265	0.103367604
133	0x3dde4201	0.10852433
134	0xbe0cec3b	-0.1376199
135	0x3ceefcf3	0.02917335
136	0x3e56aa30	0.20963359
137	0x3c30cc8b	0.010790954
138	0x3d44c5c4	0.048040166
139	0xbdac9075	-0.084259905
140	0x3cbe022c	0.023194395
141	0x3d1f04ef	0.038823064
142	0xbd860a91	-0.06544984
143	0x3e2c447f	0.16823004
144	0x3d93e155	0.07220713
145	0x3dac6cab	0.08419164
146	0x3dd7ca95	0.10536686
147	0xbe87e228	-0.2653973
148	0xbd35c863	-0.044380557
149	0x3d6f63b7	0.058444705
150	0x3e137eed	0.14403887
151	0x3bea8559	0.0071570096
152	0x3e1677ac	0.14694089
153	0x3e02066e	0.12697765
154	0x3cf32a2c	0.029683195
155	0xbd98134a	-0.07425554
156	0xbd8b039c	-0.06787798
157	0xbca28e12	-0.019843135
158	0x3d8f10e6	0.06985645
159	0xbdc3f2b7	-0.095677786
160	0x3dea5567	0.114420705
161	0x3e05697a	0.13028517
162	0x3d9d1eab	0.07671865
163	0x3d2bbfb4	0.04193087
164	0x3de2d0bd	0.1107497
165	0xbcaaa735	-0.020831684
166	0x3d67bb9f	0.056575414
167	0x3d2402a6	0.04004159
168	0x3dcde342	0.100531116
169	0x3badcfa6	0.0053042946
170	0x3d549ea4	0.051909104
171	0xbd044dee	-0.032300882
172	0xbd0a89d8	-0.033822864
173	0x3c017730	0.007901952
174	0x3cd359a8	0.025799587
175	0x3c864ef7	0.016395075
176	0xbc0fc27f	-0.008774399
177	0xbcc1f760	-0.023677528
178	0x3e289e8c	0.16466731
179	0x3cc5ad54	0.0241305
180	0xbdaa0ae6	-0.0830286
181	0xbd73e19a	-0.059541322
182	0x3df1e889	0.11811931
183	0x3ccc29c5	0.024922261
184	0x3d896e84	0.06710532
185	0x3e5f4a02	0.21805575
186	0xbc8fc1eb	-0.017548522
187	0x3d9ba512	0.07599844
188	0x3d9ff473	0.07810297
189	0xbdce66e2	-0.10078217
190	0x3d1f4e15	0.038892824
191	0xbc1f5d58	-0.009726845
192	0xbd49863a	-0.049200274
193	0x3d6055ba	0.054769255
194	0xbc636dbc	-0.013881143
195	0xbd86048e	-0.065438375
196	0x3d3f7dd4	0.04675086
197	0x3cd4a834	0.025959112
198	0x3ca86726	0.020556998
199	0x3dd5c1ca	0.10437353
200	0x3b8d223c	0.0043070596
201	0xbaafa5a5	-0.0013400806
202	0xbe1a9ac0	-0.15098095
203	0xbd016788	-0.031592876
204	0xbde93a44	-0.113880664
205	0x3dc4f490	0.09616959
206	0xbdd534c6	-0.10410456
207	0x3dffbbf0	0.12487018
208	0xbd44d531	-0.048054878
209	0xbd0ddea2	-0.034636147
210	0xbb236c01	-0.0024936202
211	0xbe002077	-0.12512384
212	0xbe1da0a7	-0.15393315
213	0xbd7af32a	-0.061267056
214	0x3d990edc	0.07473537
215	0xbdb82cf7	-0.08992951
216	0xbd51602d	-0.05111711
217	0x3d292320	0.041293263
218	0xbe545f37	-0.20739447
219	0x3de74e14	0.11294189
220	0xbd8748ef	-0.06605708
221	0x3daae091	0.08343614
222	0x3d11f164	0.0356306
223	0x3c6ff3a9	0.014645495
224	0xbce73688	-0.028224245
225	0x3b0421f3	0.0020161837
226	0xbe00cb1f	-0.12577485
227	0x3dee3775	0.11631671
228	0x3e24915a	0.16071072
229	0x3d192c59	0.03739581
230	0x3d044361	0.03229082
231	0xbdd8832f	-0.10571896
232	0xbe037943	-0.12839226
233	0x3e1c0f9e	0.15240332
234	0x3d480a40	0.0488379
235	0xbde0a610	-0.10969174
236	0xbb88654c	-0.004162466
237	0x3d0ee105	0.034882564
238	0xbd04d7ad	-0.032432247
239	0xbe0bffcd	-0.13671799
240	0x3cfad17b	0.030617466
241	0xb86d3cd5	-5.6561857e-05
242	0xbc284760	-0.010270923
243	0x3d93336b	0.071875416
244	0xbdd6ff43	-0.10497906
245	0x3d1cb05e	0.038254134
246	0xbe282819	-0.16421546
247	0x3c1d9bd1	0.009619669
248	0xbe38f07e	-0.1806049
249	0x3e15fb4a	0.1464664
250	0x3e169811	0.14706446
251	0x3d840965	0.06447104
252	0xbd606d84	-0.054791942
253	0xba9aa5af	-0.0011798645
254	0x3e348be2	0.17631486
255	0x3daf57f4	0.085616976

generator.0.bias f4 [128]
0	0x3e9910c8	0.29895616
1	0x3e691acd	0.2276413
2	0x3ec8dd1f	0.39231202
3	0x3e761a54	0.24033481
4	0x3e6f5d5f	0.23375462
5	0x3e0d412a	0.1379439
6	0x3eba3930	0.36371756
7	0x3e4f7ae1	0.20261718
8	0x3eb50067	0.3535187
9	0x3e7f7876	0.24948296
10	0x3eb13baf	0.34615847
11	0x3edea95a	0.4348858
12	0x3e853bf5	0.26022306
13	0x3e846c00	0.25863647
14	0x3ea24572	0.31693608
15	0x3e9e5e6e	0.3093142
16	0x3e7e9e74	0.24865133
17	0x3e9dc6e7	0.30815813
18	0x3e36f72e	0.17867729
19	0x3e8d417f	0.27589032
20	0x3ed20774	0.4102131
21	0x3ece032c	0.40236795
22	0x3ea18aee	0.31551307
23	0x3e8fe9cd	0.28108063
24	0x3e6991f4	0.22809583
25	0x3df9ab09	0.121908255
26	0x3eb3e91c	0.35138786
27	0x3ebff1e3	0.37489232
28	0x3eaa286e	0.3323397
29	0x3e962db6	0.2933175
30	0x3e2aa6b3	0.16665153
31	0x3e1cecde	0.15324733
32	0x3e1ce233	0.15320663
33	0x3eab4eb2	0.33458477
34	0x3e649ee3	0.22326235
35	0x3e3d5202	0.18488315
36	0x3e928181	0.2861443
37	0x3e30d4dc	0.172687
38	0x3e8213fa	0.25405866
39	0x3eba3ec4	0.3637601
40	0x3e8d7b60	0.2763319
41	0x3e963bc2	0.29342467
42	0x3e9ef4fe	0.3104629
43	0x3ec7b4e9	0.3900521
44	0x3edb7421	0.42862037
45	0x3e93d76d	0.28875294
46	0x3ec786d6	0.3897006
47	0x3ec1c48b	0.37845263
48	0x3e4d5797	0.20052944
49	0x3e4be19e	0.19910285
50	0x3e7e248c	0.24818629
51	0x3ea7c31a	0.32766038
52	0x3dcc774d	0.09983692
53	0x3e6f86fa	0.23391333
54	0x3e987c5f	0.29782388
55	0x3e361640	0.17781925
56	0x3ea71107	0.32630178
57	0x3e5736f3	0.21017055
58	0x3e124d55	0.14287312
59	0x3e395a55	0.18100865
60	0x3ec0e539	0.37674883
61	0x3ed960e6	0.4245674
62	0x3e80cb1f	0.2515497
63	0x3ed1d999	0.40986326
64	0x3e76614f	0.24060558
65	0x3e81a9c2	0.25324827
66	0x3f0aa281	0.5415421
67	0x3e94ad08	0.29038262
68	0x3e7419ed	0.23838015
69	0x3e73d917	0.23813282
70	0x3e14681c	0.1449284
71	0x3cd14d6b	0.025549611
72	0x3ea57ddc	0.32322586
73	0x3ea66663	0.3249999
74	0x3e481adf	0.195415
75	0x3e045277	0.12922083
76	0x3ebe99bc	0.37226665
77	0x3e8a8138	0.2705171
78	0x3eb8dab1	0.36104348
79	0x3e7bbd8b	0.24584024
80	0x3e8febda	0.28109628
81	0x3e9d628a	0.30739242
82	0x3e83b4eb	0.25723967
83	0x3ea26b4f	0.31722495
84	0x3e78c6be	0.24294564
85	0x3e55259c	0.20815128
86	0x3eb628f0	0.35578108
87	0x3e665008	0.22491467
88	0x3e8ff6a7	0.28117868
89	0x3e9efff1	0.31054643
90	0x3e5e7da8	0.21727622
91	0x3eb511dd	0.3536519
92	0x3ec1c837	0.37848064
93	0x3e3493fc	0.17634577
94	0x3e94c43d	0.29055968
95	0x3e43449b	0.1906914
96	0x3eacb065	0.33728328
97	0x3ea96e61	0.33092025
98	0x3e8f9b6a	0.2804826
99	0x3e370336	0.17872319
100	0x3e87660c	0.26445043
101	0x3dbfba54	0.09361711
102	0x3e31bb7b	0.17356674
103	0x3eb80d4d	0.35947648
104	0x3e9fc96e	0.31208366
105	0x3e74c6c3	0.23903947
106	0x3e943328	0.2894528
107	0x3e9472ec	0.28993928
108	0x3e7b0354	0.24512988
109	0x3e68b984	0.22727019
110	0x3eb20897	0.3477218
111	0x3e83ee9c	0.25767982
112	0x3e8ad794	0.27117598
113	0x3e8084b7	0.25101253
114	0x3e894a69	0.26814583
115	0x3ef079d4	0.46967947
116	0x3ec64358	0.38723254
117	0x3e4b003e	0.19824311
118	0x3e995dd3	0.29954395
119	0x3ee3cc2b	0.44491705
120	0x3e9da3a1	0.307889
121	0x3e999686	0.29997653
122	0x3e911c77	0.2834203
123	0x3ea39bb4	0.3195473
124	0x3e788d24	0.24272591
125	0x3e71527c	0.23566622
126	0x3e2c9eae	0.16857406
127	0x3e9353e8	0.28774953

generator.3.weight f4 [784, 128]
0	0x3d1ef325	0.0388061
1	0xbd80aff5	-0.06283561
2	0xbda2db09	-0.07951934
3	0xbc31a4b5	-0.010842492
4	0xbd17a677	-0.037023988
5	0x3c98ccbe	0.018652316
6	0xbceb5cd9	-0.028730797
7	0x380080f5	3.063768e-05
8	0x3d990477	0.07471555
9	0xbd811761	-0.06303287
10	0xbdaa6855	-0.08320681
11	0xbd7ccf62	-0.061721213
12	0xbc827a34	-0.015927412
13	0x3d3ef4c6	0.046620153
14	0x3d7931b2	0.06083841
15	0xbd94c36f	-0.072638385
16	0xbdbadd53	-0.091242455
17	0xbd2a1116	-0.0415202
18	0xbd97c814	-0.07411209
19	0xbd784cad	-0.06062
20	0x3dd3400b	0.103149496
21	0xbda0332e	-0.07822262
22	0xbdb43d84	-0.08800796
23	0x3d8611d2	0.06546368
24	0xbd12b5c7	-0.035817888
25	0xbd51afd5	-0.051193077
26	0xbd16d924	-0.036828175
27	0xbdba89d3	-0.09108319
28	0xbde2b9cf	-0.110705964
29	0x3c6a4449	0.014298507
30	0xbda971a8	-0.08273631
31	0xbdb4479a	-0.088027194
32	0x3bb9a2f9	0.00566518
33	0x3ce54409	0.027986543
34	0xbd57a475	-0.052647073
35	0xbd376d60	-0.044782043
36	0xbc5db732	-0.013532447
37	0xbdd20fa6	-0.10256891
38	0x3c07ba2f	0.008284136
39	0xbe2294ad	-0.15877028
40	0x3d2b10bd	0.04176401
41	0xbd343f52	-0.0440057
42	0xbe08ee74	-0.13372213
43	0xbe111733	-0.14169006
44	0xbd3b3f28	-0.045714527
45	0xbd916f5b	-0.071013175
46	0xbd4b7932	-0.049676128
47	0xbcdcf83e	-0.02697384
48	0xbd45f6cd	-0.04833107
49	0x3d8c7c6f	0.06859671
50	0xba061e27	-0.00051161874
51	0xbd48cd37	-0.049023833
52	0xbd05542a	-0.03255097
53	0xbdf898aa	-0.12138493
54	0xbc8760ec	-0.016525708
55	0xbbc8a6b0	-0.0061233863
56	0x3d84778e	0.06468116
57	0x3d3096c0	0.043112516
58	0xbd590dd2	-0.052991696
59	0xbd9ba243	-0.07599308
60	0xbdaee76b	-0.08540233
61	0xbbeb696e	-0.007184199
62	0xbd9f0997	-0.07765501
63	0x3cabd39f	0.020974932
64	0x3c8cf1fb	0.017205229
65	0x3c4f09b7	0.012636594
66	0xbd6f25a3	-0.058385503
67	0xbd45f89c	-0.048332796
68	0xbc605716	-0.013692638
69	0xbb21023d	-0.0024567985
70	0x3d49f2f2	0.049303956
71	0xbdba3d5b	-0.09093734
72	0xbd6dd75a	-0.058066703
73	0xbd09b262	-0.033617385
74	0xbc847620	-0.016169608
75	0xbcf748b2	-0.030186031
76	0x3ccddf7d	0.025130982
77	0xbd300b37	-0.042979445
78	0xbd423969	-0.04741803
79	0xbdc8433d	-0.0977845
80	0xbd15e846	-0.036598466
81	0xbc9c8085	-0.019104252
82	0xbcdc4bb3	-0.026891565
83	0xbd467a5f	-0.048456546
84	0xbda4c254	-0.08044878
85	0xbc424ae1	-0.011858673
86	0xbdaec90d	-0.08534441
87	0x3c35cc55	0.01109608
88	0x3ca1ba77	0.019742234
89	0xbddb7922	-0.107164636
90	0xbd8f64d4	-0.07001653
91	0xbc88ba87	-0.016690506
92	0xbb47bdfe	-0.0030478234
93	0xbc3c18db	-0.011480535
94	0xbd819c4c	-0.063286394
95	0xbd689910	-0.056786597
96	0xbcde1435	-0.027109245
97	0xbd577819	-0.05260477
98	0xbd9e054a	-0.077158526
99	0xbd8b4a4c	-0.068012804
100	0x3d2604cc	0.04053192
101	0xbd3512f3	-0.044207525
102	0xbb153b19	-0.002277082
103	0x3c8a8166	0.016907405
104	0x3d2451c6	0.040117048
105	0xbc9d19b8	-0.019177303
106	0xbc36d017	-0.011158011
107	0x3d1b6de8	0.03794661
108	0xbcf32130	-0.029678911
109	0xbd9c423a	-0.07629819
110	0xbdd748e9	-0.105119534
111	0xbb0232a6	-0.0019866615
112	0xbd3d2054	-0.04617341
113	0xbd36ce5e	-0.0446304
114	0xbd687c3f	-0.056759115
115	0xbd81b0a7	-0.06332522
116	0x3d7adaff	0.061244007
117	0xbdb73095	-0.08944813
118	0xbcd2cafc	-0.025731556
119	0xbae0c817	-0.0017149475
120	0xbcbf7647	-0.023371829
121	0xbd3f84df	-0.046757575
122	0xbd183cc9	-0.037167344
123	0xbdf4c806	-0.11952214
124	0xbc5c141b	-0.013432528
125	0xbd48282f	-0.048866447
126	0x3cc2eb4f	0.023793845
127	0xbdc1d7c2	-0.09464981
128	0xbcbc08f3	-0.022953486
129	0xbc2f0562	-0.010682436
130	0xbd802461	-0.06256939
131	0xbd48c32f	-0.049014267
132	0xbd089471	-0.03334469
133	0xbd5773ec	-0.052600786
134	0xbddfcb55	-0.109274544
135	0xbc655690	-0.013997689
136	0xbc847a21	-0.016171517
137	0xbd17312f	-0.03691214
138	0x3d6bfa89	0.057611976
139	0xba1c8a14	-0.0005971503
140	0xbd02a0e2	-0.03189171
141	0x3a7b1414	0.0009577882
142	0x3b81e35f	0.0039638723
143	0x3df7eec3	0.12106087
144	0xbcf1df8f	-0.029525546
145	0xbd94abdc	-0.07259342
146	0xbdd60d24	-0.10451725
147	0xbc69e873	-0.014276612
148	0x3beea724	0.0072831083
149	0xbccd8ba5	-0.025091002
150	0x3d240bc4	0.040050283
151	0xbc9c991b	-0.019115975
152	0x3affc782	0.0019514414
153	0xbc8e1e60	-0.017348468
154	0xbd945364	-0.07242468
155	0x3ca7619b	0.020432284
156	0x3c7c8695	0.015412946
157	0x3d6720e4	0.05642785
158	0xbd84044a	-0.064461306
159	0xbd8fc239	-0.07019467
160	0xbdce4a8e	-0.10072814
161	0xbd4e8976	-0.05042406
162	0xbda2de9b	-0.07952615
163	0xbd9984fb	-0.07496067
164	0xbe1ad6b5	-0.15120967
165	0x3dc60ace	0.096700296
166	0xbdce1306	-0.10062222
167	0xbcd25ce7	-0.025679065
168	0xbccedfe0	-0.025253236
169	0x3cba86da	0.02276938
170	0xbdde44aa	-0.108529404
171	0xbcc3cbdb	-0.023900917
172	0xbca277cd	-0.019832516
173	0xbc8d4e08	-0.017249122
174	0x3c9d2bc7	0.019185914
175	0xbdbf4330	-0.09338987
176	0xbbdefddc	-0.0068051647
177	0xbb1ba92d	-0.002375196
178	0xbd9c1d19	-0.076227374
179	0xbd03292e	-0.032021694
180	0xbcbc6b02	-0.023000244
181	0x3d8d2b75	0.068930544
182	0xbc24c377	-0.010056368
183	0x3d42bb79	0.04754207
184	0xbd216550	-0.03940326
185	0xbcaf9113	-0.021431481
186	0xbcb4278f	-0.02199152
187	0xbabb5952	-0.0014293587
188	0x3b7f2956	0.003893455
189	0xbd33baa2	-0.04387916
190	0x3c93f51f	0.018061219
191	0xbda0b7f0	-0.07847583
192	0xbcc5356d	-0.024073327
193	0x3d15e36d	0.036593843
194	0x3acd7476	0.0015674967
195	0xbe216854	-0.15762454
196	0xbd8442bd	-0.06458042
197	0xbd99bdd4	-0.0750691
198	0xbd8f6c67	-0.07003098
199	0xbd915b63	-0.07097509
200	0xbc0386a0	-0.008027703
201	0xbd444080	-0.047913074
202	0xbd0d078e	-0.034431033
203	0xbc82b09a	-0.01595335
204	0x3d180d31	0.037121955
205	0xbcdae040	-0.026718259
206	0xbe172a06	-0.14762124
207	0xbd0097ef	-0.031394895
208	0xbdb6d7d4	-0.08927885
209	0x3cd88bab	0.026433786
210	0xbd45afcd	-0.04826336
211	0x3baa2e38	0.005193498
212	0x3b7c49dd	0.0038496174
213	0xbd347001	-0.044052128
214	0xbd0098fc	-0.031395897
215	0xbdb29c5a	-0.08721228
216	0xbc8c37da	-0.017116476
217	0xbd45332f	-0.048144516
218	0xbd3e98d4	-0.046532467
219	0xbda6a9c2	-0.081378475
220	0xbda1423e	-0.07873963
221	0xbd281aaa	-0.041041054
222	0xbc60fee8	-0.013732649
223	0xbd6727e2	-0.05643452
224	0xbda5cc80	-0.08095646
225	0xbd910bbc	-0.07082316
226	0xbdc4d9a4	-0.09611824
227	0xbe1ccc6d	-0.15312357
228	0x3cf88ecc	0.030341528
229	0xbd247b7f	-0.040156838
230	0xbd3364c3	-0.043797266
231	0xbb2cc32b	-0.0026361446
232	0xbe17a3b2	-0.14808539
233	0x3b35666f	0.0027679463
234	0xbd672457	-0.05643114
235	0xbc862011	-0.016372712
236	0xbd1b2b18	-0.037882894
237	0xbd18e97f	-0.037332054
238	0x3bb0d9bf	0.005397051
239	0xbcf97264	-0.030450054
240	0x3d317dcb	0.043332856
241	0xbdb7c528	-0.089731514
242	0xbc0df661	-0.008664698
243	0xbd656552	-0.05600483
244	0xbd0997c3	-0.033591997
245	0xbde980fc	-0.11401555
246	0xbd305b92	-0.04305608
247	0x3ce65211	0.028115304
248	0xbd273360	-0.04082048
249	0xbce005d8	-0.027346537
250	0x3c85a281	0.01631284
251	0xbde2eb3f	-0.11080026
252	0xbd898158	-0.067141235
253	0xbd07ae47	-0.03312519
254	0x3d16c306	0.036807083
255	0xbdd9682b	-0.106155716

generator.3.bias f4 [784]
0	0x3c03e1b4	0.008049417
1	0xbcd4f0c1	-0.025993707
2	0xbcfac89c	-0.030613236
3	0xbd0f9ddb	-0.035062652
4	0xbda063ca	-0.07831533
5	0xbd4d14ce	-0.05006867
6	0xbd5c41d6	-0.053773724
7	0xbc8669ef	-0.016407935
8	0xbd13d440	-0.03609109
9	0x3ce20514	0.027590312
10	0xbd659f18	-0.056059927
11	0xbda65e12	-0.08123411
12	0xbd4347ad	-0.047675777
13	0x3c674ff8	0.014118187
14	0x3d072094	0.032990053
15	0xbdd4da19	-0.10393161
16	0xbd593ccb	-0.053036492
17	0xbce735ee	-0.028223958
18	0x3d004a99	0.031321142
19	0xbda5c6cf	-0.0809456
20	0xbda33361	-0.07968784
21	0xbd8091bc	-0.062777966
22	0xbde1acbc	-0.110192746
23	0x3d033513	0.032033037
24	0xbc0d5d5b	-0.008628215
25	0x3c31966c	0.010839086
26	0xbd170478	-0.036869496
27	0xbd67bcbb	-0.05657647
28	0xbd803ff0	-0.06262195
29	0xbd6d58ab	-0.05794589
30	0xbdbd7ee8	-0.09252721
31	0x3c661c05	0.014044766
32	0x3b498349	0.0030748418
33	0x3d0c54e0	0.03426063
34	0x3cec6db0	0.028860897
35	0xbc5456dc	-0.012960162
36	0xbbc75a33	-0.0060837506
37	0xbd44bb91	-0.04803044
38	0xbd9c4d89	-0.07631976
39	0xbd5398ba	-0.051659323
40	0xb9553c0b	-0.0002033563
41	0xbdd51c07	-0.104057364
42	0x3c70f434	0.01470666
43	0xbdb19ba5	-0.08672265
44	0x3c8d57c3	0.017253762
45	0x3d5ffe87	0.054686096
46	0xbda906eb	-0.082532726
47	0x3c2d79ff	0.010588168
48	0x3d258a75	0.040415246
49	0xbdd97593	-0.10618129
50	0x3c10be5b	0.008834447
51	0xbc250185	-0.010071163
52	0xbc5a315f	-0.013317435
53	0xba797b77	-0.0009516994
54	0xbda7e4f6	-0.08197968
55	0xbb8483aa	-0.004044016
56	0xbd1ca0f4	-0.038239434
57	0x3c565abf	0.013083159
58	0xbda15618	-0.07877749
59	0xbc96793e	-0.01836836
60	0xbc600891	-0.013673917
61	0x3cfe7413	0.031061208
62	0xbd8d02c1	-0.06885291
63	0xbdee5408	-0.116371214
64	0xbd1924c8	-0.037388593
65	0x3ca34c14	0.019933738
66	0xbd45ff16	-0.048338972
67	0xbde5b10a	-0.11215408
68	0xbdfeb771	-0.124373324
69	0xbd22aa14	-0.03971298
70	0xbd299fe0	-0.041412234
71	0x3c896887	0.016773475
72	0xbd722f51	-0.059127156
73	0xbdc8707f	-0.09787082
74	0xbd1f6d24	-0.038922444
75	0xbd9ea292	-0.077458516
76	0x3bedd702	0.007258297
77	0x3cba044b	0.022707125
78	0xbd54672b	-0.0518562
79	0xbd99d70a	-0.075117186
80	0xbc5f1896	-0.013616702
81	0x3b6b6779	0.0035919829
82	0xbdc0ce37	-0.09414332
83	0xbbd06ad4	-0.006360391
84	0x3cd3ef51	0.02587095
85	0xbd153924	-0.036431447
86	0x3c6afb9f	0.014342218
87	0xbdb54407	-0.08850866
88	0xbdae5396	-0.085120365
89	0x3d145034	0.0362093
90	0x3ca09ece	0.019606974
91	0xbd9bd8b9	-0.07609696
92	0x3d40c587	0.047063377
93	0xbd74e3d4	-0.059787586
94	0xbdd020d8	-0.101625144
95	0xbcc3404c	-0.02383437
96	0x3c479977	0.012182585
97	0x3d46c38f	0.048526343
98	0xbdd1d4a9	-0.1024564
99	0xbdc1cb2f	-0.09462582
100	0xbdd2de23	-0.102962755
101	0x3cf01e74	0.029311396
102	0xbd78abe9	-0.06071082
103	0xbcb602a2	-0.022218052
104	0xbd9dbf88	-0.07702547
105	0x3d117627	0.03551307
106	0xbdd7c5c2	-0.10535766
107	0xbc4de4ec	-0.012566786
108	0xbd28fe44	-0.04125811
109	0xbd464e39	-0.048414443
110	0x3cd75b3c	0.026288621
111	0xbd877e32	-0.06615867
112	0x3bf18e62	0.0073717097
113	0xbc344424	-0.011002574
114	0xbd41fb0f	-0.04735857
115	0xbc9cc358	-0.019136116
116	0x3d1e026f	0.03857654
117	0xbccd5c44	-0.02506841
118	0x399779b4	0.0002889164
119	0xbdb99905	-0.09062389
120	0x3c1bece5	0.009516929
121	0x3cffee1b	0.031241467
122	0xbcdc0bdf	-0.02686113
123	0x3c75df4b	0.0150068505
124	0xbdef5004	-0.11685184
125	0xbdac34e2	-0.08408524
126	0xbdc254a4	-0.094888
127	0xbcd13fa2	-0.025543038
128	0x3d2fe2dc	0.04294096
129	0xbd853d38	-0.06505817
130	0xbc1a118f	-0.0094036
131	0xbd604d8b	-0.05476145
132	0xbbc4d9df	-0.0060074176
133	0xbc9fdc39	-0.01951419
134	0xbdd59cfc	-0.10430333
135	0xbdbd69c1	-0.092486866
136	0xbd022600	-0.03177452
137	0x3c9294cf	0.017893223
138	0x3d017b7e	0.031611912
139	0xbd0041c9	-0.031312738
140	0xbc36121f	-0.011112719
141	0xbd1cfcdb	-0.03832708
142	0x3c8b2b49	0.016988413
143	0x3c801d1c	0.01563888
144	0xbdcb77fe	-0.09934996
145	0xbd011525	-0.031514306
146	0xbdceed3c	-0.101038426
147	0x3d4a5760	0.049399734
148	0xbd7029c8	-0.058633596
149	0x3bc67c23	0.0060572787
150	0xbcc8a30b	-0.024491807
151	0x3cd9a082	0.026565794
152	0x3b921a8b	0.0044587306
153	0x391aa64b	0.00014748533
154	0xbd0a69b0	-0.033792198
155	0x3d12a06a	0.035797514
156	0x3d1f3c86	0.03887608
157	0xbbaec0fc	-0.005333064
158	0x3cfadefc	0.030623905
159	0xbd12e3a5	-0.03586163
160	0x3c1d93a2	0.009617718
161	0x3cda0dc1	0.026617886
162	0xbd376be2	-0.04478062
163	0x3a3cb941	0.0007199236
164	0xbd5226ea	-0.051306643
165	0xbde30981	-0.11085797
166	0xbdc07c5c	-0.0939872
167	0xbd0663dd	-0.03281008
168	0x3bd91ed3	0.006625989
169	0xbde1ec37	-0.110313825
170	0x3cc36469	0.02385159
171	0xbcd10b04	-0.025517948
172	0xbc7ef9ea	-0.015562514
173	0x3ad3808c	0.0016136332
174	0x3ca86e76	0.020560484
175	0xbda4a02e	-0.08038364
176	0x3c7e9cb6	0.0155402925
177	0x3cdf4c3d	0.027258033
178	0x3ce85c2e	0.028364267
179	0x3ceff6f3	0.02929256
180	0xbc519877	-0.012792698
181	0x3d8ca588	0.0686751
182	0x3cb2ca43	0.021824962
183	0x3bbdb795	0.005789707
184	0x3ccc93cb	0.024972817
185	0xbd772094	-0.060333803
186	0xbd8aac42	-0.06771137
187	0xbcee353b	-0.029078117
188	0xbd147a02	-0.03624917
189	0xbd2b0448	-0.04175213
190	0x3cb0b162	0.021568958
191	0xbd0beefd	-0.034163464
192	0xbae1b992	-0.0017221442
193	0xbdbce399	-0.09223098
194	0xbddd8031	-0.10815466
195	0xbda70c9c	-0.08156702
196	0xbc64a07f	-0.013954281
197	0xbd13b73a	-0.03606341
198	0x3c033a3d	0.008009491
199	0xbcc5b208	-0.024132743
200	0xbd4ec367	-0.05047932
201	0x3c8b6bd5	0.017019192
202	0x3d484868	0.048897177
203	0xbd70b2c0	-0.05876422
204	0xbc7d1a58	-0.015448175
205	0xbd00d780	-0.031455517
206	0x3b0e2799	0.0021691083
207	0xbd18e209	-0.03732494
208	0xbd61f0ac	-0.055161163
209	0x3d46aaa2	0.048502572
210	0xbcb1a1de	-0.02168363
211	0xbc8a463a	-0.01687919
212	0xbd280f9e	-0.04103052
213	0xbb87ffa7	-0.004150349
214	0xbdb39725	-0.08769063
215	0x3d3584a7	0.04431596
216	0xbd2f24db	-0.042759757
217	0xbdacc7ba	-0.08436532
218	0x3d2f5587	0.042806175
219	0x3d217381	0.039416794
220	0xbd516793	-0.051124167
221	0xbd7ec704	-0.062201515
222	0x3ca40ab3	0.020024633
223	0x3cbbac77	0.022909386
224	0x3cb16eed	0.021659339
225	0xbd27e61d	-0.040990938
226	0xbdde9fc7	-0.10870319
227	0xbd187947	-0.037225034
228	0xbd38cbf6	-0.045116387
229	0xbca84f0d	-0.020545507
230	0x3d290ddc	0.041272983
231	0xbd124fea	-0.035720743
232	0xbd04aa7b	-0.032389145
233	0xbd6189d6	-0.05506309
234	0x3d3224bc	0.043492064
235	0xbd704843	-0.058662664
236	0xbda1b9d0	-0.07896769
237	0x3d8ad83e	0.06779526
238	0x3d50791b	0.050896745
239	0xbdc31b58	-0.095267
240	0x3be954cb	0.007120704
241	0xbd4388ec	-0.047738
242	0x3d8723d1	0.06598628
243	0x3da79c32	0.08184089
244	0xbc0c02bd	-0.008545575
245	0xbdcad74f	-0.09904348
246	0xbd340fa1	-0.043960217
247	0xbdbc9a81	-0.09209157
248	0x3a1951df	0.00058486866
249	0xbbc4cad7	-0.0060056257
250	0xbd972e68	-0.07381898
251	0xbc8421f7	-0.016129477
252	0xbd14c016	-0.036316
253	0x3c0f291c	0.008737829
254	0xbdf3e728	-0.11909324
255	0x3d00edfe	0.031476967

discriminator.1.weight f4 [128, 784]
0	0x3caf94ac	0.021433197
1	0x3c8747f3	0.0165138
2	0xbc0bf6d8	-0.008542739
3	0xbbc79c2b	-0.0060916147
4	0x3d12595a	0.035729744
5	0xbd159744	-0.03652121
6	0x3cd2a925	0.02571542
7	0x3d34bd93	0.044126105
8	0xbc1cb943	-0.009565654
9	0xbc45be8f	-0.0120693585
10	0xbcba207d	-0.02272057
11	0x3c866f38	0.016410455
12	0x3cdb0aec	0.026738606
13	0xbc43028a	-0.011902461
14	0xb925c810	-0.00015810155
15	0x3cfe6fe0	0.031059206
16	0xbc888bc7	-0.016668214
17	0xbd7b34d0	-0.061329663
18	0x3d166a02	0.03672219
19	0x3c1bef2a	0.00951747
20	0x3cefd9bc	0.029278629
21	0x3b69b0ca	0.0035658353
22	0xbc3a70d2	-0.0113794375
23	0x3a46e80f	0.000758768
24	0x3c28e788	0.010309108
25	0xbcbc6a3f	-0.02299988
26	0x3d53a063	0.05166663
27	0x3cd6bd19	0.026213216
28	0xbd14cc6f	-0.036327776
29	0x3c16bf45	0.009200876
30	0xbc05e910	-0.008173242
31	0x3d2ca845	0.04215266
32	0xbd24ed83	-0.04026557
33	0x3aff828e	0.0019493864
34	0x3d2590ae	0.04042118
35	0xbcfeb3da	-0.03109162
36	0x3cc8a223	0.024491375
37	0x3d014883	0.031563293
38	0xb99ec8cc	-0.00030285714
39	0x3d37ec60	0.04490316
40	0xbbcabf59	-0.006187361
41	0xbc92673e	-0.017871495
42	0x3caa1878	0.02076362
43	0x3b3cf649	0.002883332
44	0xbc163e55	-0.009170135
45	0xbd4cd90a	-0.050011672
46	0x3c781f82	0.015144231
47	0xbc8152c7	-0.015786542
48	0xbc9e11b7	-0.019295556
49	0x3d8cfbb5	0.06883947
50	0xbc75fc1f	-0.015013724
51	0xbcc4a2d6	-0.024003427
52	0x3c8e5f32	0.017379377
53	0xbc176736	-0.009240916
54	0xbca1a684	-0.019732721
55	0x3c8ef3dc	0.017450266
56	0x3cbeb89b	0.023281386
57	0x3bb1b607	0.0054233107
58	0xbb97156e	-0.004610709
59	0xbbecc1e0	-0.00722526
60	0x3bd72e85	0.006566825
61	0x3cb44d0d	0.022009397
62	0xbcd7592c	-0.026287638
63	0xbcbd3415	-0.023096124
64	0xbcb3d030	-0.021949857
65	0x3af36f49	0.0018572594
66	0x3d143f0d	0.036192942
67	0x3c36b32c	0.011151116
68	0xbb0e5b9b	-0.0021722082
69	0xbd2eea20	-0.042703748
70	0xbce61222	-0.028084818
71	0x3d095a98	0.033533663
72	0x3cdaf470	0.026727885
73	0xbc15d3b9	-0.009144717
74	0xbd1fbeae	-0.039000206
75	0xbd000d3a	-0.031262614
76	0xbce2253c	-0.027605645
77	0x3c3599ce	0.011084033
78	0xbd1c62b5	-0.03818007
79	0x3cc4b81e	0.024013575
80	0x3c66e97b	0.014093752
81	0xbbb4eac2	-0.0055211494
82	0xbd21580a	-0.0393906
83	0x3ac426c1	0.0014965163
84	0x3c7949ae	0.0152153205
85	0x3cdaa789	0.026691215
86	0x3d3318de	0.043724887
87	0xbc2d332c	-0.010571282
88	0xbaf5c20b	-0.0018749846
89	0xbb8a2450	-0.0042157546
90	0xbc1f3c39	-0.009718948
91	0xbaa9d747	-0.0012957834
92	0xba2a0050	-0.0006485032
93	0x3cff9528	0.031199053
94	0x3d0956d6	0.03353008
95	0xbcd8979e	-0.026439484
96	0x3d769926	0.060204647
97	0xbca92d1a	-0.020651389
98	0x3c9552b6	0.018227916
99	0x3d93533a	0.071936086
100	0x3d43a32c	0.047763035
101	0x3c67624b	0.014122556
102	0xbb03f9ea	-0.0020137974
103	0xbcdfa962	-0.027302448
104	0xbc51a355	-0.012795289
105	0xbc4968ad	-0.012293023
106	0xbc71e20b	-0.0147633655
107	0xbc5f9a48	-0.013647623
108	0x3d21ba8f	0.039484557
109	0xbccb36f3	-0.024806475
110	0xbd2277a3	-0.039664876
111	0xbc780897	-0.015138767
112	0xbba906cb	-0.0051582805
113	0xbab7d8de	-0.0014026423
114	0xbcd7e98e	-0.026356485
115	0xbb362eea	-0.002779896
116	0xbcee0c98	-0.02905874
117	0xbcf2c064	-0.029632755
118	0xbbde4d47	-0.0067841145
119	0x3b0c2ef9	0.0021390303
120	0xbc68fe18	-0.014220737
121	0x3d15c11e	0.036561124
122	0xbd76397f	-0.060113426
123	0xbd9723b6	-0.07379858
124	0xbd14ff9c	-0.03637658
125	0x3daa7382	0.083228126
126	0x3de021b9	0.10943932
127	0x3d94e011	0.072693
128	0x3d4597c1	0.048240427
129	0x3d2b5557	0.041829433
130	0x3ca6a878	0.020344004
131	0x384d0bf8	4.8886955e-05
132	0x3d42ccc4	0.04755856
133	0x3c9deb34	0.019277193
134	0xbb6bd0ef	-0.0035982688
135	0x3b21ae33	0.0024670481
136	0x3ceded93	0.029043948
137	0x3d825558	0.06363934
138	0xbc7d36c5	-0.015454953
139	0x3cbcb555	0.023035685
140	0x3ce87a25	0.028378556
141	0x3d186aa2	0.037211068
142	0xbb337b63	-0.0027386777
143	0x3cec587a	0.028850783
144	0x3c99318e	0.018700387
145	0x3cb9f866	0.022701453
146	0x3d3b7964	0.045770064
147	0x3c93f575	0.018061379
148	0xbd353274	-0.04423757
149	0xbd90e00f	-0.07073986
150	0xbdbd44a2	-0.09241606
151	0xbd89aa1e	-0.067219004
152	0x3d0e9ed0	0.034819424
153	0x3e032f6d	0.1281106
154	0x3dd933cc	0.106055826
155	0x3ca5995f	0.020214735
156	0xbcbb4dd0	-0.022864252
157	0x3c0168c0	0.0078985095
158	0x3cadbbcf	0.021207718
159	0x3a76cc34	0.0009414584
160	0x3d711b95	0.058864195
161	0x3b8bba19	0.004264128
162	0xbc4b9905	-0.012426619
163	0xbd717fb9	-0.058959696
164	0xbc3acf1a	-0.011401916
165	0xbc3906a2	-0.011293085
166	0x3b163f5a	0.0022925944
167	0xbd3e3028	-0.046432644
168	0xbab586d4	-0.0013849386
169	0xbc8159c0	-0.015789866
170	0xbd31d6bc	-0.043417677
171	0xbc2349cc	-0.009966325
172	0xbc33d774	-0.010976661
173	0x3d467714	0.048453405
174	0x3cb1a33f	0.021684287
175	0xbc3f74e3	-0.011685583
176	0xbd72fc52	-0.059322663
177	0xbd82669a	-0.06367226
178	0xbd6eb314	-0.05827625
179	0xbc887407	-0.016656889
180	0x3da2d844	0.07951406
181	0x3db01648	0.08598
182	0x3d4c1d90	0.04983288
183	0xbdf9300c	-0.12167367
184	0xbde42f0a	-0.111417845
185	0xbd3e4d37	-0.046460357
186	0xbc2674e5	-0.010159706
187	0xbc8aa620	-0.016924918
188	0x3c75fecd	0.0150143625
189	0xbcc53179	-0.024071442
190	0x3caedb9e	0.021344956
191	0x3c02e20e	0.007988466
192	0x3d004646	0.031317018
193	0x3b81a8df	0.0039568986
194	0xbcae2230	-0.021256536
195	0x3c9498f8	0.018139347
196	0x3cbd0517	0.023073716
197	0x3d79c368	0.06097737
198	0x38e3ea47	0.00010867841
199	0x3d2332eb	0.03984348
200	0x3b246243	0.0025082983
201	0x3d499c47	0.049221303
202	0xbc42bb18	-0.011885427
203	0xbd09a358	-0.033603042
204	0xbce91cd6	-0.028456133
205	0x3d16dd1c	0.03683196
206	0x3b82cc1b	0.0039916164
207	0x3d9aa02f	0.07550084
208	0x3df474a3	0.11936309
209	0x3dc15909	0.0944081
210	0xbc5d1b03	-0.01349521
211	0xbdf3a68a	-0.11896999
212	0xbe21b7d9	-0.15792789
213	0xbd740910	-0.059578955
214	0x3cc4f091	0.024040492
215	0x3c2e67dd	0.01064488
216	0xbd5e2157	-0.054231014
217	0x3cb48bac	0.022039257
218	0xbcb09e3b	-0.021559825
219	0x3bd50768	0.006501127
220	0x3cc5b785	0.02413536
221	0xbd407f90	-0.046996653
222	0x3c35237c	0.011055823
223	0x3d0fccf0	0.035107553
224	0x3b8a64d4	0.0042234454
225	0x3be19e95	0.0068853595
226	0x3c271f31	0.010200308
227	0x3cc379f6	0.023861866
228	0x3caed14f	0.02134004
229	0x3cfb6d56	0.030691784
230	0x3d029cb8	0.03188774
231	0xbbfb4b56	-0.007668893
232	0xb893fb2f	-7.056293e-05
233	0x3d7da3a7	0.06192365
234	0x3dd8e6ff	0.10590934
235	0x3d97de85	0.07415489
236	0x3e010bae	0.12602112
237	0x3dcd41f7	0.100223474
238	0xbbfe099d	-0.007752611
239	0xbcb05003	-0.021522528
240	0xbcb8c51a	-0.022554923
241	0xbd98c0d3	-0.07458653
242	0x386aa31b	5.594185e-05
243	0xbc239fda	-0.009986842
244	0xbcd69cd0	-0.02619782
245	0xbdb0f0b2	-0.08639659
246	0x3cab4241	0.020905616
247	0xbd028a2b	-0.03187005
248	0xbb88361f	-0.0041568424
249	0xbada4423	-0.0016652386
250	0xbcaa75c5	-0.02080811
251	0xbc8d53bb	-0.01725184
252	0xbc246c67	-0.010035611
253	0xbcaa1ea2	-0.02076656
254	0x3cdf5cc6	0.027265918
255	0x3d421356	0.04738172

discriminator.1.bias f4 [128]
0	0xbe662b9c	-0.22477573
1	0xbea1daa7	-0.3161213
2	0x3f0a0c05	0.5392459
3	0xbe722eda	-0.23650685
4	0xbddab999	-0.10679931
5	0x3f041729	0.5159784
6	0x3e8d227c	0.27565372
7	0xbe867472	-0.26260716
8	0x3eeb114b	0.4591163
9	0xbe6752ad	-0.22590132
10	0x3e6e837a	0.23292342
11	0xbe9ae10c	-0.30249822
12	0x3ed712e7	0.4200661
13	0xbeafbecb	-0.3432525
14	0xbea12a34	-0.3147751
15	0xbe8c4d1b	-0.27402577
16	0xbeba1c0b	-0.3634952
17	0x3eb529c1	0.35383418
18	0xbead3641	-0.33830455
19	0x3f005eee	0.5014485
20	0xbe655f56	-0.22399649
21	0x3efcf06b	0.49402174
22	0x3e52dca1	0.20591976
23	0x3f0dd9b4	0.55410314
24	0xbe2d68cd	-0.1693451
25	0xbe8da991	-0.2766843
26	0x3eaa32f3	0.33241996
27	0xbe6e9619	-0.23299445
28	0xbe2b16b0	-0.16707873
29	0x3ee80267	0.45314333
30	0x3e84f6fc	0.25969684
31	0xbea9ff94	-0.33202803
32	0x3ec454e6	0.38346022
33	0x3efc24c6	0.49246806
34	0xbe8f1229	-0.27943543
35	0xbe9769ee	-0.29573005
36	0x3e95185f	0.29120156
37	0x3ebd209b	0.36938938
38	0x3eb56532	0.35428768
39	0x3ebc5868	0.367862
40	0x3ef8b3c4	0.4857465
41	0x3ede0805	0.43365493
42	0x3eb03405	0.34414688
43	0x3e764b1d	0.24052091
44	0xbe4426fb	-0.19155495
45	0x3ee5fde6	0.44920272
46	0x3ec58167	0.3857529
47	0xbe96f838	-0.2948625
48	0xbec20ee7	-0.37901995
49	0x3eda8b10	0.4268422
50	0xbe732d4b	-0.23747747
51	0x3ef8a4b0	0.48563147
52	0x3eef0a35	0.46687475
53	0xbeb7d03a	-0.35901052
54	0x3efc490d	0.49274483
55	0xbe980bbe	-0.2969646
56	0x3ee461b3	0.4460579
57	0x3dff2b8c	0.12459478
58	0x3ecbf46a	0.3983491
59	0xbe9e62f9	-0.30934885
60	0xbe8e1c5a	-0.27756006
61	0x3ea2e3b8	0.3181436
62	0xbe807c52	-0.2509485
63	0xbe725e95	-0.23668893
64	0x3ec17602	0.37785345
65	0xbe9522b6	-0.29128045
66	0x3eb58031	0.35449365
67	0xbe7cf8d8	-0.24704301
68	0xbe37e258	-0.17957437
69	0x3ec3b5de	0.3822469
70	0x3efee91a	0.49787217
71	0x3f0c6a05	0.5484927
72	0x3f034e3b	0.51291245
73	0xbe627d75	-0.2211817
74	0x3ebeb6a1	0.3724871
75	0xbe9698b3	-0.29413375
76	0x3ec695dd	0.38786212
77	0x3edabede	0.42723745
78	0xbde335f8	-0.11094278
79	0x3ef361be	0.4753551
80	0xbe89cbb3	-0.26913223
81	0x3e7cad15	0.246754
82	0xbe64c0e0	-0.22339201
83	0xbe6b397e	-0.2297115
84	0xbe8a2709	-0.26982906
85	0xbe20dd68	-0.1570946
86	0xbe86b2e6	-0.26308364
87	0x3ef6e2b2	0.4821983
88	0x3f0b909f	0.5451755
89	0xbe9f0e04	-0.3106538
90	0xbe7ced18	-0.24699819
91	0xbeaef42e	-0.3417067
92	0xbec360b5	-0.3815972
93	0xbe91b25a	-0.28456384
94	0xbe893027	-0.2679455
95	0x3ec7d070	0.39026213
96	0x3f033937	0.5125918
97	0xbeca1cc4	-0.3947507
98	0xbe98eb38	-0.29866958
99	0xbe7ff4af	-0.24995683
100	0xbe8e2a4a	-0.2776664
101	0x3f0b4d54	0.5441487
102	0x3ec1aadb	0.37825665
103	0xbe1c6fde	-0.15277049
104	0x3f013117	0.5046553
105	0xbe8a28d3	-0.2698427
106	0xbe6f9249	-0.23395647
107	0xbe8382a6	-0.25685614
108	0x3ec4792b	0.38373694
109	0xbeb8e5d7	-0.36112854
110	0xbea252f1	-0.31703904
111	0xbe7d2e44	-0.2472468
112	0xbed4a2ee	-0.41530555
113	0xbeadcbf6	-0.33944672
114	0x3ec65a59	0.38740805
115	0x3f0422c9	0.5161558
116	0xbe9e8076	-0.30957383
117	0xbeaa1685	-0.33220306
118	0x3ec887bf	0.39166066
119	0x3e644b33	0.22294311
120	0xbea58754	-0.3232981
121	0xbe8f4e28	-0.27989316
122	0x3eaa0f81	0.33214954
123	0x3ed52994	0.41633284
124	0xbe9f831e	-0.31154722
125	0xbe684576	-0.22682747
126	0xbe74339d	-0.23847814
127	0x3ee71fc5	0.45141426

discriminator.4.weight f4 [1, 128]
0	0x3e8804ab	0.2656606
1	0x3e90963a	0.28239614
2	0xbea29979	-0.31757715
3	0x3e897d15	0.26853243
4	0x3dc64fcb	0.09683188
5	0xbe99b4bf	-0.3002071
6	0xbe578a0f	-0.21048759
7	0x3e9ff29a	0.31239778
8	0xbea63db7	-0.3246896
9	0x3e8e30f9	0.27771738
10	0xbe6c991c	-0.23105282
11	0x3e94643c	0.28982723
12	0xbe612edb	-0.2199053
13	0x3ea1bc27	0.3158886
14	0x3e9f2342	0.31081587
15	0x3e88986f	0.26678798
16	0x3e4b2b7b	0.19840805
17	0xbe94822a	-0.29005557
18	0x3e9331cf	0.28748938
19	0xbec20cf0	-0.37900496
20	0x3e8d6c0a	0.2762149
21	0xbe6fb73d	-0.23409744
22	0xbdbdee14	-0.092739254
23	0xbea72ca1	-0.32651237
24	0x3e902bad	0.28158322
25	0x3ea595a6	0.32340735
26	0xbed8e07c	-0.42358768
27	0x3e14918c	0.14508647
28	0x3e916fd6	0.28405637
29	0xbe9b94d7	-0.30386993
30	0xbe420b7b	-0.18949692
31	0x3e8a4667	0.27006838
32	0xbe8d6eab	-0.27623495
33	0xbe9b7575	-0.3036305
34	0x3e9bfa15	0.30464235
35	0x3e3c6ce4	0.18400913
36	0xbec04429	-0.37552002
37	0xbe79c57b	-0.24391739
38	0xbe85ee05	-0.26158157
39	0xbe86aa35	-0.26301733
40	0xbe6feb50	-0.23429608
41	0xbe66804d	-0.2250988
42	0xbe9b72a8	-0.30360913
43	0xbe42422b	-0.18970554
44	0x3eafbc92	0.34323555
45	0xbe64db9a	-0.22349396
46	0xbe99c5d4	-0.30033743
47	0x3ea2b1c4	0.3177625
48	0x3e8b56c6	0.2721464
49	0xbe80188f	-0.25018737
50	0x3e982319	0.29714277
51	0xbe9594b1	-0.29215005
52	0xbe679d24	-0.22618538
53	0x3e738b54	0.23783618
54	0xbe6a14bd	-0.22859474
55	0x3e8ee638	0.27910018
56	0xbea0b870	-0.31390715
57	0xbe73ed4d	-0.23820992
58	0xbeaa770f	-0.3329396
59	0x3e89dcc2	0.26926237
60	0x3e82801a	0.2548836
61	0xbe87a293	-0.26491222
62	0x3e8b9352	0.27260834
63	0x3ead6b63	0.33870992
64	0xbe87430c	-0.2641834
65	0x3e99cde5	0.30039898
66	0xbeb70b4d	-0.3575081
67	0x3e7bd54f	0.2459309
68	0x3e26308a	0.16229454
69	0xbeac54af	-0.33658358
70	0xbe81d075	-0.25354353
71	0xbe79d296	-0.24396738
72	0xbe9600d6	-0.29297513
73	0x3eb9d35f	0.36294076
74	0xbe8785da	-0.26469308
75	0x3ea249c9	0.3169692
76	0xbe45bbb7	-0.19309889
77	0xbe9f14a5	-0.31070438
78	0x3e447767	0.19186173
79	0xbe6d9e52	-0.23204926
80	0x3e7cdd66	0.24693832
81	0xbee8eae1	-0.45491698
82	0x3e89ecb2	0.26938397
83	0x3ea493f3	0.32144126
84	0x3ea59ce1	0.32346252
85	0x3e8b41a4	0.27198517
86	0x3eaf2dc9	0.3421462
87	0xbe77b624	-0.24190575
88	0xbea2b88d	-0.31781426
89	0x3e70996a	0.23496023
90	0x3ea09be9	0.3136895
91	0x3e85effd	0.2615966
92	0x3e970f93	0.2950407
93	0x3e7bfa40	0.24607182
94	0x3ea61396	0.32436818
95	0xbe60515d	-0.21906038
96	0xbe7c2347	-0.24622832
97	0x3e794a13	0.24344663
98	0x3ea36a61	0.31917098
99	0x3e8df303	0.27724466
100	0x3eaade11	0.33372548
101	0xbea4165d	-0.32048312
102	0xbe96f751	-0.29485562
103	0x3ea39087	0.31946203
104	0xbe8556e3	-0.26042852
105	0x3e956b59	0.29183462
106	0x3ea5138c	0.32241476
107	0x3e879619	0.26481703
108	0xbeb79108	-0.35852838
109	0x3e9d8cd8	0.30771518
110	0x3e8f1ca1	0.2795153
111	0x3e8dc498	0.27689052
112	0x3e7c2ccb	0.24626462
113	0x3e9c6aab	0.3055013
114	0xbe69889b	-0.22806017
115	0xbeb8a5fe	-0.36064142
116	0x3ea232c3	0.31679353
117	0x3e698595	0.22804864
118	0xbe8519b2	-0.25996166
119	0xbe4a78ab	-0.19772594
120	0x3ea1786d	0.3153719
121	0x3e746a44	0.23868662
122	0xbe900800	-0.28131104
123	0xbe9bb30b	-0.30410036
124	0x3ea4377b	0.32073578
125	0x3e50e688	0.2040044
126	0x3e94f025	0.29089466
127	0xbe9a7b6e	-0.30172294
