models/gan_model.pth (torch, 834708 bytes, 8 tensors)

generator.0.weight f4 [128, 100]
0	0xbc5fbc06	-0.013655668
1	0x3dea1890	0.11430466
2	0x3da0e270	0.078556895
3	0x3de0047d	0.10938356
4	0x3e8c26c4	0.27373326
5	0xbda8e098	-0.08245963
6	0xbd4f1fa1	-0.050567273
7	0xbe5bd01f	-0.2146611
8	0x3c98d5f5	0.01865671
9	0xbe0412f6	-0.12897858
10	0x3e126437	0.14296041
11	0xbe092fba	-0.13397112
12	0x3e2c2e4e	0.16814539
13	0x3c965e26	0.01835544
14	0x3d076de4	0.033063784
15	0xbda4ae93	-0.0804111
16	0xbe0afffb	-0.13574211
17	0x3e1ada84	0.1512242
18	0x3dab5bdb	0.083671294
19	0x3c154bca	0.009112308
20	0xbe8b86af	-0.27251193
21	0xbd81dc67	-0.063408665
22	0xbe303002	-0.17205814
23	0x3e8b3635	0.27189794
24	0xbe05e83c	-0.13076872
25	0xbe4c859f	-0.19972847
26	0xbbed2898	-0.007237505
27	0x3e194509	0.14967741
28	0xbc86759b	-0.0164135
29	0xbe2a3126	-0.16620311
30	0x3e26e1a1	0.16297008
31	0x3e273d50	0.16331983
32	0x3d8ab5b2	0.06772937
33	0xbeae30cc	-0.34021604
34	0x3df1fcb3	0.11815777
35	0x3e2661a2	0.16248181
36	0x3de3a897	0.1111614
37	0x3d486d18	0.048932165
38	0x3c844ab7	0.016148908
39	0x3e568361	0.20948555
40	0x3dad2378	0.08454031
41	0x3d67521c	0.05647479
42	0x3d8f3305	0.06992153
43	0xbcab5d1c	-0.020918421
44	0xbe88c94d	-0.2671608
45	0x3e0932db	0.13398306
46	0x3cafbd1f	0.021452485
47	0xbdf9425b	-0.121708594
48	0xbdf4f659	-0.119610496
49	0x3ba45664	0.0050151814
50	0xbdc081a0	-0.09399724
51	0xbdcca224	-0.09991863
52	0x3d7751fa	0.060380913
53	0x3d7a0ce9	0.06104747
54	0x3e3f3112	0.18671063
55	0xbc83646a	-0.016039092
56	0xbc9b2dc5	-0.018942723
57	0xbdb312a5	-0.087437905
58	0xbe5c020f	-0.2148516
59	0x3e3220bd	0.17395301
60	0x3d98b4a8	0.074563324
61	0xbd827419	-0.063698
62	0x3d229a7b	0.039698105
63	0x3e854c95	0.2603499
64	0x3e6090d9	0.21930255
65	0x3e0363d5	0.12831052
66	0x3e2b1fa8	0.16711295
67	0xbdd49780	-0.10380459
68	0x3d2b0046	0.041748308
69	0x3de2ee56	0.11080615
70	0x3d76304e	0.06010466
71	0xbe319d54	-0.17345172
72	0xbd7259aa	-0.05916754
73	0xbdbe1e54	-0.092831284
74	0x3e01a4b3	0.12660484
75	0x3d5d6ec0	0.054060698
76	0xbe06196f	-0.1309564
77	0x3dd2781e	0.10276817
78	0xbdc7c6bd	-0.09754703
79	0x3dd59fe2	0.10430886
80	0xbdefa0a4	-0.11700562
81	0x3bd8e1fd	0.006618737
82	0xbe1d05c9	-0.15334238
83	0x3d5bade4	0.053632632
84	0xbe8f6374	-0.28005564
85	0x3d1a7202	0.037706383
86	0xbe095b2c	-0.13413686
87	0x3b5e6a32	0.003393781
88	0xbdb9611d	-0.09051726
89	0xbe26329e	-0.16230246
90	0xbe4dd190	-0.20099473
91	0xbd9af0e1	-0.07565475
92	0xbdea7961	-0.114489324
93	0xbdfdffc3	-0.12402298
94	0x3dca8300	0.098882675
95	0x3db441e9	0.08801634
96	0xbd76ac03	-0.060222637
97	0x3da6ef0b	0.081510626
98	0x3d8ed6aa	0.06974538
99	0xbbb206bc	-0.0054329317
100	0xbdfacf78	-0.12246603
101	0xbcec3f3c	-0.028838746
102	0x3dda69db	0.106647216
103	0xbc609c97	-0.013709209
104	0xbc13eee7	-0.009029127
105	0xbdc3dd2a	-0.09563668
106	0xbde6403e	-0.11242722
107	0xbd00dc66	-0.03146019
108	0x3e06db8b	0.13169686
109	0xbde3e053	-0.11126771
110	0xbe118a4b	-0.14212911
111	0xbd7e20a0	-0.062042832
112	0xbd317c4b	-0.043331426
113	0x3c32c7d1	0.010911898
114	0x3e13708f	0.14398406
115	0x3d5f42c3	0.05450703
116	0xbd8e8719	-0.069593616
117	0xbcf2b6dd	-0.029628212
118	0xbdbfc1d6	-0.09363143
119	0xbc76b43d	-0.015057621
120	0x3da7bedf	0.08190703
121	0xbd3539e4	-0.044244662
122	0xbe380f02	-0.17974475
123	0xbe0b08f3	-0.13577633
124	0x3e0f6b35	0.1400574
125	0xbd28a8be	-0.04117655
126	0x3bd9f43d	0.00665143
127	0x3ceba53e	0.028765317
128	0xbe109136	-0.14117894
129	0x3b33bafc	0.0027424684
130	0x3ddfd466	0.10929184
131	0xbd067ae6	-0.03283205
132	0x3ddc3fb4	0.10754338
133	0xbe428d23	-0.18999152
134	0xbe035f95	-0.1282943
135	0x3d5e9183	0.05433799
136	0x3e29de65	0.16588743
137	0xbd27c1a7	-0.040956166
138	0x3e3a6c0e	0.18205282
139	0xbcba739d	-0.022760207
140	0xbd53283c	-0.051552042
141	0xbd9deb48	-0.07710892
142	0xbdebecbf	-0.11519765
143	0x3e5604ff	0.20900343
144	0x3e2c5518	0.16829336
145	0xbe338dd1	-0.17534567
146	0x3e46abdf	0.19401501
147	0xbd89bbef	-0.067252986
148	0xbe2e4669	-0.17019047
149	0x3e219fb1	0.15783574
150	0xbe312d92	-0.1730254
151	0x3e1e8693	0.15481023
152	0x3dc39c71	0.09551323
153	0xbd9573a4	-0.07297447
154	0x3e283971	0.16428162
155	0xbe0fb688	-0.14034474
156	0xbd6c946b	-0.05775873
157	0x3cdaef99	0.026725577
158	0x3dc01238	0.09378475
159	0xbe26a217	-0.1627277
160	0x3d231bd5	0.039821465
161	0x3d867f54	0.06567255
162	0xbddb66b9	-0.10712952
163	0x3d23d0ad	0.03999393
164	0xbdf8c4aa	-0.12146886
165	0x3d610904	0.05494024
166	0x3d8e304f	0.06942808
167	0x3d562e27	0.052290108
168	0x3d934fdb	0.071929656
169	0x3db41db4	0.08794728
170	0xbd42b901	-0.047539715
171	0x3d50b66b	0.050955217
172	0xbdb1643c	-0.08661696
173	0xbe5dc436	-0.2165688
174	0x3de87d90	0.11352074
175	0x3dad020e	0.084476575
176	0x3d2e7581	0.04259253
177	0x3cefe613	0.029284513
178	0x3c9fb78f	0.019496707
179	0x3e0e2a21	0.13883258
180	0x3e39a142	0.18127921
181	0xbe117d72	-0.1420801
182	0xbe21b8ff	-0.15793227
183	0x3d0ed16b	0.034867685
184	0x3d9c54df	0.076333754
185	0xbd22dfdc	-0.03976427
186	0xbe113d85	-0.14183624
187	0x3db992aa	0.09061177
188	0xbe3a9dd4	-0.18224269
189	0xbda2df85	-0.07952789
190	0xbdbe5d7e	-0.09295176
191	0xbdaa5960	-0.08317828
192	0xbd9a1fb2	-0.07525577
193	0xbd687a69	-0.056757364
194	0xbdb527ed	-0.08845506
195	0xbdf18f41	-0.11794902
196	0x3d8b1d40	0.06792688
197	0x3ca9ad9c	0.020712666
198	0x3e10a511	0.14125468
199	0xbdaa614b	-0.083193384
200	0x3b9e9d08	0.004840497
201	0x3dbef62e	0.09324299
202	0xbe0d9b22	-0.1382871
203	0xbe972144	-0.29517567
204	0xbe175bef	-0.14781164
205	0x3d9c737d	0.07639215
206	0x3e4da1e5	0.20081289
207	0xbe41b8cd	-0.18918152
208	0x3d8cbc65	0.06871871
209	0x3e869006	0.26281756
210	0x3e2a1e82	0.166132
211	0xbdaf2ce3	-0.08553483
212	0x3e0eef2d	0.13958426
213	0xbd8f8721	-0.07008196
214	0xbd6aa901	-0.05729008
215	0xbd95e8f8	-0.07319826
216	0xbd2883cd	-0.04114132
217	0xbcaf97cb	-0.021434685
218	0x3e78094f	0.24222301
219	0x3c7dd11e	0.015491752
220	0xbd968580	-0.07349682
221	0xbdde5586	-0.10856156
222	0x3de61b61	0.11235691
223	0x3e16b3e0	0.14717054
224	0x3cd5eb8e	0.026113298
225	0x3d181352	0.0371278
226	0x3dc26cd3	0.09493413
227	0xbdae25ee	-0.08503328
228	0x3d595b5c	0.053065643
229	0xbca2a997	-0.019856257
230	0xbd94234f	-0.07233297
231	0x3dc27148	0.09494263
232	0xbd374ad4	-0.044749096
233	0x3e52e985	0.20596893
234	0x3e295a71	0.16538407
235	0x3df07408	0.11740881
236	0x3df2a448	0.118477404
237	0xbd6f9de7	-0.058500197
238	0xbe04f410	-0.12983727
239	0xbd8fce79	-0.070218034
240	0xbe707e40	-0.2348566
241	0x3e03b519	0.12862052
242	0xbdd1fe6d	-0.10253606
243	0x3df4eff1	0.11959828
244	0x3ddcaf0e	0.107755765
245	0x3e5b084d	0.21389885
246	0xbe3a64d5	-0.18202527
247	0xbd16266d	-0.03665774
248	0x3d7014e5	0.058613677
249	0x3e022a05	0.12711342
250	0x3e561a18	0.20908391
251	0xbc3b9e50	-0.011451319
252	0xbe261421	-0.16218616
253	0x3d8125d7	0.063060455
254	0xbcd3c0a7	-0.0258487
255	0xbe008887	-0.12552081

generator.0.bias f4 [128]
0	0x3eb8fcdb	0.36130413
1	0x3e18fdfe	0.1494064
2	0x3ebb9fc5	0.36645332
3	0x3e8410cc	0.25794065
4	0x3ea6c0f9	0.325691
5	0x3e9aaf8d	0.3021206
6	0x3e77dacc	0.24204558
7	0x3e6839b8	0.22678268
8	0x3e9e70fc	0.30945575
9	0x3e23a5ce	0.15981218
10	0x3e9c5982	0.3053704
11	0x3e3af7ba	0.18258563
12	0x3e941700	0.28923798
13	0x3e75bfde	0.23998973
14	0x3e89b22d	0.2689375
15	0x3dfc7731	0.123274215
16	0x3e455a8d	0.19272824
17	0x3e841d0c	0.2580341
18	0x3e7755ff	0.24153899
19	0x3e8f9a17	0.2804725
20	0x3e5f782c	0.21823186
21	0x3ea9ce6b	0.33165297
22	0x3e6e500c	0.23272723
23	0x3e3c0d3f	0.18364428
24	0x3ea82bd3	0.32845935
25	0x3e8e636a	0.27810222
26	0x3e4bda4a	0.1990749
27	0x3e94e02a	0.29077274
28	0x3ec16c5e	0.3777799
29	0x3e139fe8	0.14416468
30	0x3e8c32fa	0.27382642
31	0x3e6e0ac7	0.23246299
32	0x3e3f1a80	0.18662453
33	0x3ea7ce77	0.32774708
34	0x3e774636	0.24147877
35	0x3e740108	0.23828518
36	0x3e6923b2	0.22767523
37	0x3e2c5948	0.16830933
38	0x3e759786	0.23983583
39	0x3e624cc1	0.22099592
40	0x3eabe8e6	0.33576125
41	0x3ec8baf9	0.3920515
42	0x3e9359a0	0.28779316
43	0x3ec40ce5	0.38291088
44	0x3e1cff73	0.15331821
45	0x3e2c0c6f	0.16801618
46	0x3ead31c0	0.3382702
47	0x3e8e50d1	0.27796033
48	0x3e08b5db	0.13350622
49	0x3e97e896	0.29669636
50	0x3e64049e	0.22267386
51	0x3e8bbc33	0.27292022
52	0x3edd78fe	0.43256372
53	0x3e9a7934	0.30170596
54	0x3ecdc420	0.40188694
55	0x3ea269d0	0.31721354
56	0x3eba472a	0.3638242
57	0x3e84542d	0.2584547
58	0x3ea99b52	0.33126312
59	0x3e3a9491	0.18220736
60	0x3ecb214d	0.39673844
61	0x3e8cfe7b	0.27537903
62	0x3e7f3762	0.2492347
63	0x3e91d81d	0.28485194
64	0x3e70c241	0.23511602
65	0x3e9aea77	0.30257007
66	0x3e76f9c6	0.24118719
67	0x3e43aa58	0.1910795
68	0x3e9487a5	0.2900974
69	0x3e9dd666	0.30827636
70	0x3ea8d6b4	0.32976305
71	0x3e555ab0	0.20835376
72	0x3e663b98	0.2248367
73	0x3ec75e3c	0.38939083
74	0x3e8abad0	0.27095652
75	0x3ed4b55e	0.41544622
76	0x3ebb2452	0.36551148
77	0x3e931cae	0.28732818
78	0x3e853b0f	0.2602162
79	0x3e190cae	0.14946243
80	0x3e909284	0.28236783
81	0x3e90f117	0.28308937
82	0x3e83baa8	0.25728345
83	0x3e4f8ffe	0.20269772
84	0x3e597e1d	0.21239515
85	0x3ebbcf50	0.36681604
86	0x3e9f8ee7	0.31163713
87	0x3ea2e192	0.31812721
88	0x3eb46d63	0.35239705
89	0x3eabb218	0.33534312
90	0x3ec2fd11	0.380837
91	0x3ededec2	0.43529326
92	0x3ed16786	0.40899295
93	0x3e80fda5	0.25193515
94	0x3e8f9521	0.28043464
95	0x3e8184f7	0.25296757
96	0x3eab0996	0.3340575
97	0x3e4c1447	0.1992961
98	0x3e8224a6	0.25418586
99	0x3ecadc62	0.39621264
100	0x3ebe1585	0.37125793
101	0x3e9498dd	0.29022875
102	0x3e81faba	0.25386602
103	0x3ea0e99a	0.31428224
104	0x3eaca5af	0.33720157
105	0x3eafbe02	0.34324652
106	0x3ea9e08b	0.33179125
107	0x3ea6a071	0.32544282
108	0x3eb26e97	0.34849998
109	0x3ecae0cf	0.3962464
110	0x3e552249	0.2081386
111	0x3e077418	0.1322788
112	0x3ea4218d	0.32056847
113	0x3e834fed	0.25646916
114	0x3eb69176	0.35657853
115	0x3e9f5dc0	0.31126213
116	0x3ebb9095	0.36633745
117	0x3e953e5a	0.29149133
118	0x3e9462fb	0.28981766
119	0x3e9841b7	0.29737636
120	0x3eaaa3ba	0.33328038
121	0x3e5877eb	0.21139495
122	0x3e9cde1c	0.30638206
123	0x3ea4f77c	0.32220066
124	0x3e8d0b6c	0.27547777
125	0x3e8e3641	0.27775767
126	0x3ebb8254	0.3662287
127	0x3ed31376	0.41225785

generator.3.weight f4 [784, 128]
0	0xbd517672	-0.05113835
1	0xbd08d6e8	-0.033408076
2	0xbd93a281	-0.072087295
3	0xbe117bef	-0.14207433
4	0xbc9d5d7f	-0.019209621
5	0xbd7448ed	-0.05963986
6	0xbe120afc	-0.14262003
7	0xbd812aa2	-0.0630696
8	0xbce32f28	-0.027732447
9	0xbdca036f	-0.09863936
10	0xbd7edbab	-0.06222121
11	0xbdec1cde	-0.115289435
12	0xbc8d12f2	-0.017220948
13	0xbd7a36b0	-0.06108731
14	0xbd369851	-0.044578854
15	0xbd41e69e	-0.047339074
16	0xbda26ef6	-0.0793132
17	0xbd0482a9	-0.03235117
18	0xbd73c342	-0.059512384
19	0xbc57ff1f	-0.013183384
20	0xbd43b396	-0.04777869
21	0xbd8f6528	-0.07001716
22	0x3c84a8d0	0.016193777
23	0xbc2c26ae	-0.010507269
24	0xbd49f514	-0.04930599
25	0xbc3c2f7c	-0.0114859305
26	0x3ceb8a37	0.02875243
27	0xbdcee8f8	-0.10103029
28	0xbda49020	-0.08035302
29	0xbdef2e97	-0.11678808
30	0xbdceda48	-0.101002276
31	0xbe172b8c	-0.14762706
32	0xbd535a16	-0.051599585
33	0xbd777ef5	-0.06042381
34	0x3ce4277f	0.027850864
35	0xbdf6233f	-0.120184414
36	0xbd2ac11d	-0.041688073
37	0xbdd33348	-0.103125155
38	0xbb5722cb	-0.0032827135
39	0xbd5075c1	-0.05089355
40	0xbd7ab534	-0.061207965
41	0xba77f18a	-0.00094582944
42	0x3c14585e	0.0090542715
43	0x3d97b7d4	0.07408109
44	0xbcf27642	-0.029597405
45	0x3cb119dd	0.021618778
46	0xbdc3f000	-0.09567261
47	0xbdd395b4	-0.10331288
48	0xbd842a1f	-0.064533465
49	0x3ceb7a85	0.028744945
50	0xbdd0ef6e	-0.102019176
51	0x3bccc485	0.006249013
52	0xbe118135	-0.14209445
53	0xbdeec885	-0.1165934
54	0xbd870e7e	-0.06594561
55	0xbbbe05c0	-0.0057990253
56	0x3c271a09	0.010199078
57	0xbdecebdd	-0.11568425
58	0xbd0bedaf	-0.03416222
59	0xbdfa3d5c	-0.122187346
60	0xbe10d3cb	-0.14143293
61	0xbd2dd182	-0.04243613
62	0xbe0d6d71	-0.1381128
63	0x3c0ab8da	0.008466924
64	0xbd0fb05c	-0.0350803
65	0xbd04cfe4	-0.032424822
66	0xbbb604cb	-0.0055547706
67	0x3d198ddc	0.037488803
68	0xbd154ab4	-0.036448196
69	0xbb8e7b3d	-0.0043481872
70	0xbd8e6ba2	-0.06954123
71	0xbdb50600	-0.08839035
72	0xbda02324	-0.078192025
73	0xbd3c5070	-0.04597515
74	0xbdec8e7b	-0.115506135
75	0xbd1dfec4	-0.03857304
76	0x3d4297cc	0.047508046
77	0x3d5988f6	0.05310913
78	0xbc6fa580	-0.014626861
79	0xbdaef2af	-0.08542382
80	0xbbe696fe	-0.0070370426
81	0x3c2b565d	0.010457602
82	0xbd9795db	-0.074016295
83	0xbb883fbf	-0.0041579898
84	0x3c94da4f	0.018170504
85	0xbe06574f	-0.13119243
86	0x3c4b3785	0.012403374
87	0xbd706e61	-0.058699016
88	0xbdcd4a2d	-0.100239135
89	0xbe081a6f	-0.13291334
90	0x3c268d45	0.010165517
91	0xbc607922	-0.013700755
92	0xbd8a55b8	-0.06754631
93	0x3c5ae358	0.013359867
94	0xbd9d5a2c	-0.076832145
95	0x3d45423a	0.04815886
96	0xbd864a3a	-0.06557126
97	0xbd88254e	-0.0664774
98	0xbd84442b	-0.064583145
99	0xbb595539	-0.003316237
100	0xbc055837	-0.008138708
101	0xbd0846cc	-0.033270642
102	0x3cb20170	0.021729201
103	0xbd298e84	-0.04139568
104	0x3c68ff8d	0.014221084
105	0xbd95e325	-0.07318715
106	0xbd32920d	-0.043596316
107	0xbdcda5b4	-0.10041371
108	0xbdc11c2b	-0.09429201
109	0xbd6b18b0	-0.05739659
110	0xbd87c7a5	-0.06629876
111	0xbd5752ae	-0.052569084
112	0xbcf94155	-0.03042666
113	0xbd08e129	-0.033417854
114	0x3d0aa927	0.033852722
115	0xbdd623de	-0.1045606
116	0xbd05b4e8	-0.03264323
117	0xbd40ada6	-0.047040604
118	0xbdc3cb1e	-0.09560226
119	0xbd22ca7f	-0.039743897
120	0xbd39d778	-0.045371503
121	0xbde4b6e8	-0.11167699
122	0x3ce6db1c	0.028180651
123	0xbd31461f	-0.043279763
124	0xbdaa4707	-0.08314329
125	0xbd058430	-0.032596767
126	0xbddf0783	-0.108901046
127	0xbc90e911	-0.01768926
128	0xbd128e2f	-0.035780128
129	0xbd0640c4	-0.03277661
130	0xbcf64439	-0.030061828
131	0xbd20366c	-0.0391144
132	0xbd8d8292	-0.0690967
133	0x3d04601f	0.03231823
134	0xbe166631	-0.1468742
135	0xbd91816c	-0.071047634
136	0x3d16c330	0.03680724
137	0xbbc4f245	-0.006010326
138	0xbdd08d4b	-0.101831995
139	0x3c80dfe1	0.015731754
140	0xbd94a7f7	-0.07258599
141	0x3c27c92d	0.010240835
142	0xbcc69bea	-0.024244267
143	0x3c0fa5a0	0.008767515
144	0xbd85dcef	-0.0653628
145	0xbd675e2b	-0.05648629
146	0xbd2eda2e	-0.04268854
147	0xbca687c2	-0.020328406
148	0xbda92cc0	-0.082604885
149	0xbd1d2f15	-0.03837498
150	0xbc070f31	-0.008243368
151	0x3b2267d7	0.0024781132
152	0x3c3ed149	0.011646577
153	0xbd9b1792	-0.07572855
154	0x3d4dd0ff	0.050248142
155	0xbd33ce2b	-0.04389779
156	0xbdb0ff2f	-0.086424224
157	0xbcd93031	-0.026512237
158	0xbdcbfe4f	-0.09960615
159	0xbd6e4f72	-0.058181234
160	0xbd8ff432	-0.070289984
161	0xbd6fb946	-0.0585263
162	0xbd9f0a37	-0.0776562
163	0xbbdb2160	-0.006687328
164	0x3c30b8c7	0.010786242
165	0xbc88f2c0	-0.016717315
166	0x3d23bbf0	0.039974153
167	0xbd8b9eac	-0.06817374
168	0xbd47aa1b	-0.04874621
169	0xbe17fcf5	-0.14842589
170	0xbe031fb9	-0.1280507
171	0xbbf882ca	-0.0075839506
172	0xba3a957f	-0.00071176136
173	0xb819db75	-3.6682428e-05
174	0xbe069a0a	-0.13144699
175	0xbdc3c661	-0.09559322
176	0xbdc3cb1b	-0.09560224
177	0x3cfe67fb	0.031055441
178	0xbd1c3104	-0.038132682
179	0x3c0b5de2	0.00850627
180	0xbd15df05	-0.03658964
181	0xbdf31687	-0.11869531
182	0xbd350145	-0.044190664
183	0xbd61571f	-0.055014726
184	0xbdee5d67	-0.11638909
185	0xbd2033b1	-0.039111797
186	0xbd60e09f	-0.054901715
187	0x3c88fee4	0.016723104
188	0x3b70edd2	0.0036762846
189	0xbd461364	-0.048358336
190	0xbdb909ae	-0.090350494
191	0xbda50a35	-0.080585875
192	0xbbfa8b1b	-0.007645977
193	0xbdf0da6f	-0.11760413
194	0xbc057472	-0.0081454385
195	0xbd1da14a	-0.038483895
196	0xbdfc49ad	-0.1231874
197	0xbddef08d	-0.10885725
198	0xbd7e006d	-0.062012125
199	0xbe048f00	-0.12945175
200	0xbc92db10	-0.017926723
201	0xbde842ca	-0.11340864
202	0xbc8fe475	-0.017564991
203	0x3ca68b38	0.020330057
204	0xbdc0266c	-0.093823284
205	0xbd10fe5d	-0.03539883
206	0x3b8d526b	0.0043128035
207	0xbd70862f	-0.058721717
208	0x3ccab877	0.024746163
209	0xb92aed18	-0.00016300788
210	0xbd1e5d7b	-0.03866337
211	0xbd57cde8	-0.052686602
212	0xbc59deba	-0.013297731
213	0xbd0271e6	-0.031846903
214	0xbdb6d02d	-0.08926425
215	0xbde275f5	-0.11057655
216	0xbd56cf5f	-0.05244386
217	0xbd735294	-0.059404925
218	0xbd3af03c	-0.04563926
219	0x3d0d955b	0.034566265
220	0x3c98036c	0.01855632
221	0x3cc73abe	0.024320003
222	0xbdd0d14b	-0.101961695
223	0xbd337476	-0.043812238
224	0xbd4dc551	-0.050237004
225	0xbb12dbd1	-0.0022408853
226	0xba9ffe42	-0.0012206512
227	0x3d09c173	0.033631753
228	0xbca8283e	-0.020527001
229	0x3b18279c	0.0023216968
230	0x3d14b6c9	0.03630713
231	0xbca42f5d	-0.020042116
232	0x3c93bc8b	0.01803424
233	0xbdadb9ce	-0.08482705
234	0xbd2cf7fb	-0.04222868
235	0x3ccbb3ac	0.024865948
236	0xbdf23327	-0.11826163
237	0xbd962d71	-0.07332886
238	0x3ccabc37	0.024747951
239	0x3aca3a7c	0.0015428807
240	0xbd271c41	-0.04079843
241	0xbd4ce0e1	-0.05001915
242	0x3d534522	0.051579602
243	0xbd7651a5	-0.060136456
244	0xbb37a95a	-0.0028024525
245	0xbda4bd95	-0.080439724
246	0xbcd075f5	-0.025446871
247	0xbbe7a4c2	-0.007069201
248	0xbd1abeed	-0.037779737
249	0xbe0c7148	-0.13715088
250	0xbd511890	-0.051048815
251	0xbd765ed4	-0.06014903
252	0xbc5b9129	-0.013401308
253	0xbd9b7b61	-0.07591892
254	0xbdbc1d7e	-0.09185313
255	0x3c90c28f	0.017670898

generator.3.bias f4 [784]
0	0x3c98d7e3	0.01865763
1	0xbd789024	-0.06068434
2	0x3cd8c612	0.026461635
3	0xbc4eff19	-0.012634062
4	0xbcafdc9f	-0.021467505
5	0xbdccdffa	-0.10003658
6	0xbdeb9b00	-0.11504173
7	0xbde44a6c	-0.11147007
8	0x3cbdae16	0.0231543
9	0xbde7713f	-0.11300897
10	0xbe017dcc	-0.12645644
11	0xbda0401a	-0.078247264
12	0xbcfd6ce1	-0.030935707
13	0xbd8170af	-0.06320321
14	0x3cbaf07a	0.022819746
15	0xbe027ee5	-0.12743719
16	0xbd9d935e	-0.07694124
17	0xbd0c5dd5	-0.034269173
18	0x3cfc4fc6	0.030799758
19	0xbcb0e12c	-0.021591745
20	0xbdeb8a98	-0.11501044
21	0x3b85e38b	0.004085963
22	0xbcd69d3e	-0.026198026
23	0xbd0c96dc	-0.03432356
24	0x3d1dd806	0.038536094
25	0xbd3159d3	-0.043298554
26	0xbe0b174d	-0.13583107
27	0xbd403108	-0.04692176
28	0xbe005151	-0.1253102
29	0xbd84dac9	-0.064870425
30	0xbde93d56	-0.11388652
31	0xbdf77805	-0.12083439
32	0xbdb44a80	-0.08803272
33	0xbc05f32a	-0.008175651
34	0xbe0184ec	-0.12648362
35	0xbc8085ba	-0.015688766
36	0x3cf1e9d4	0.029530443
37	0xbdada749	-0.08479173
38	0x3aacc8a7	0.0013182358
39	0xbd81bfb6	-0.06335394
40	0x3cd42652	0.025897179
41	0xbd832449	-0.06403405
42	0xbc2781e8	-0.010223843
43	0x3d1140cb	0.035462182
44	0x3ca58582	0.020205263
45	0xbca9daf5	-0.02073429
46	0xbd0d9421	-0.034565095
47	0xbe04d75c	-0.12972778
48	0xbd80915a	-0.062777236
49	0xbc8932f7	-0.016747935
50	0xbbba3e7d	-0.0056837187
51	0xbdcc1401	-0.09964753
52	0x3d3d1c2d	0.04616945
53	0xbd509c21	-0.050930146
54	0xbd2aa039	-0.041656706
55	0xbdf86cfc	-0.12130162
56	0xbdcc416b	-0.09973415
57	0xbcf3fc9f	-0.029783545
58	0xbd49b355	-0.04924329
59	0xbddcb40f	-0.10776531
60	0x3c4e5edd	0.012595859
61	0xbc76261c	-0.015023734
62	0xbc978a78	-0.018498644
63	0xbc32995a	-0.01090082
64	0xbcf0e082	-0.029403929
65	0xbdb3e2e9	-0.08783514
66	0x3ce715e9	0.02820869
67	0xbd0c1a9d	-0.034205068
68	0xbe0bea15	-0.13663514
69	0xbd11a5ef	-0.035558637
70	0xbddf29b1	-0.10896624
71	0xbd03311b	-0.032029252
72	0xbdece1ab	-0.1156648
73	0x3c88963c	0.0166732
74	0xbd9a5acd	-0.0753685
75	0xbdf60af7	-0.1201381
76	0xbd84e826	-0.06489591
77	0x3d39da54	0.04537423
78	0x3c216f84	0.009853248
79	0xbdd45582	-0.10367872
80	0xbdeddcb0	-0.116143584
81	0x3c60101d	0.013675717
82	0x3c1e76be	0.009671865
83	0xbdd41535	-0.103556074
84	0xbd3e05c3	-0.046392214
85	0x3c1ca5a0	0.009560972
86	0xbdaef2b3	-0.08542385
87	0xbdf826ad	-0.12116752
88	0xbbfc6f49	-0.007703696
89	0xbc554533	-0.013016987
90	0x3cc6ca46	0.024266373
91	0xbdb0828d	-0.086186506
92	0xbd0c2532	-0.03421516
93	0xbcbab11c	-0.02278953
94	0xbd41dfec	-0.04733269
95	0xbdd7d73e	-0.10539101
96	0xbcec4b28	-0.028844431
97	0x3c100b35	0.008791734
98	0xbae76781	-0.0017654748
99	0xbcda9a6c	-0.026684962
100	0xbe0a332d	-0.13496085
101	0xbe0bb2a2	-0.13642362
102	0xbd70adfa	-0.058759667
103	0xbc652173	-0.013985026
104	0xbd084119	-0.033265207
105	0xbaf87bdb	-0.001895781
106	0xbd69db1a	-0.057093717
107	0xbb996fd0	-0.0046825185
108	0xbd26720c	-0.040636107
109	0xbd8fb63f	-0.070171826
110	0xbd557629	-0.05211464
111	0x3bb17472	0.0054154927
112	0xbdfa7c3b	-0.12230726
113	0xbdf1e03c	-0.118103474
114	0x3d1ecb9a	0.03876839
115	0xbd187043	-0.037216436
116	0x3a3f3b49	0.0007294906
117	0xbdd76b67	-0.10518532
118	0xbcf37595	-0.029719153
119	0x3bbd138b	0.005770152
120	0xbc37bb35	-0.011214067
121	0x3cccc8ee	0.024998154
122	0xbbaca282	-0.005268396
123	0xbbddff7c	-0.006774841
124	0xbd159ab0	-0.036524475
125	0xbda121ff	-0.07867812
126	0xbca89e83	-0.020583397
127	0xbcba1ed8	-0.022719786
128	0xbdd61799	-0.1045372
129	0xbde4cf34	-0.11172333
130	0xbca40c18	-0.020025298
131	0x3bf7bbb8	0.0075602196
132	0xbd8dbfe0	-0.06921363
133	0x3c9e53aa	0.019327004
134	0xbd80ee1c	-0.06295416
135	0xbdccc7b9	-0.099990316
136	0xbc43c16f	-0.011947974
137	0xbdfead68	-0.12435418
138	0xbd2d9357	-0.042376842
139	0xbdb1d4dc	-0.08683178
140	0xbddf52db	-0.10904475
141	0xbdee0809	-0.11622626
142	0xbda8c7dc	-0.08241245
143	0xbdfe4bb5	-0.12416784
144	0xbd0153cd	-0.03157406
145	0xbcd90300	-0.026490688
146	0xbd96f063	-0.07370069
147	0x3d178fe6	0.037002467
148	0xbd8c81aa	-0.06860669
149	0x3b8ae35c	0.004238529
150	0xbd82a4c9	-0.063790865
151	0x3d4a957a	0.04945896
152	0xbd962512	-0.07331289
153	0xbd8e92b6	-0.06961577
154	0x3d2153d7	0.039386597
155	0xbcc305d3	-0.023806488
156	0x3d221aca	0.03957633
157	0xbd747981	-0.059686188
158	0xbd8db172	-0.06918611
159	0xbdd838dc	-0.1055772
160	0xbd949749	-0.07255418
161	0x3d254198	0.04034576
162	0xbdb07338	-0.08615726
163	0x3beea0b7	0.0072823423
164	0xbd9de33f	-0.077093594
165	0x3ca74bd4	0.0204219
166	0xbbb1e954	-0.005429426
167	0xbda0225e	-0.07819055
168	0xbddf2076	-0.10894863
169	0x3b277e44	0.0025557438
170	0xbd95275a	-0.07282896
171	0xbdaea959	-0.08528394
172	0xbc61324f	-0.013744905
173	0xbd2e890b	-0.042611163
174	0xbdb1eda5	-0.08687905
175	0x3cf904d5	0.030397812
176	0x3bcbbb50	0.0062173977
177	0xbd861dcf	-0.06548654
178	0x3d8e69d3	0.06953778
179	0x3addf44c	0.0016933768
180	0x3d8c7acc	0.06859359
181	0xbd8ee45e	-0.06977151
182	0x3d41d434	0.047321513
183	0x3cf2cf5c	0.029639892
184	0x3cc27e4e	0.023741867
185	0x3cf00579	0.029299485
186	0xbdb3f855	-0.087876
187	0xbc9f2626	-0.01942737
188	0xbc98ed41	-0.018667819
189	0xbd0bdd22	-0.034146436
190	0x3d071789	0.03298143
191	0xbdf28fc5	-0.11843828
192	0x3bf4826b	0.007461836
193	0xbdfe6ef9	-0.1242351
194	0xbdb01d0d	-0.08599291
195	0xbdcd491f	-0.10023712
196	0x3bb7bf7b	0.005607543
197	0xbd904de8	-0.070461094
198	0xbdca881e	-0.098892435
199	0x3cb73640	0.022364736
200	0xbdd2967f	-0.10282611
201	0xbc8e0683	-0.01733709
202	0xbde146eb	-0.10999855
203	0xbbf3b58a	-0.0074374126
204	0xbd93cb11	-0.07216466
205	0x3d1d9ac5	0.038477678
206	0xbc8fbf45	-0.01754726
207	0xbcf9d8c2	-0.030498866
208	0xbd826aa0	-0.06367993
209	0x3db2405d	0.087036826
210	0xbbe0430e	-0.006843931
211	0x3c950220	0.01818949
212	0xbd780191	-0.06054837
213	0xbcbccb22	-0.02304608
214	0x3d138182	0.03601218
215	0xbade307c	-0.0016951705
216	0xbd0b726a	-0.03404466
217	0x3d21be13	0.03948791
218	0x3d61fb8a	0.055171527
219	0xbcbe8302	-0.023255829
220	0xbdf8ccc7	-0.12148433
221	0xbd877e84	-0.06615928
222	0x3c729ad2	0.01480742
223	0xbde662f5	-0.11249343
224	0xbd5c8e1c	-0.053846464
225	0xbe03a753	-0.12856798
226	0xbc4a9e34	-0.01236682
227	0xbcf8ab03	-0.030354982
228	0xbd945e40	-0.07244539
229	0xbdf06196	-0.11737363
230	0xbd975604	-0.07389453
231	0xbdae0721	-0.084974535
232	0x3d805f0e	0.0626813
233	0xbc904e97	-0.0176156
234	0x3d2b023e	0.041750185
235	0xbc9fe90d	-0.019520307
236	0x3d711642	0.058859117
237	0xbd6d856c	-0.05798857
238	0x3bbcd7c5	0.0057630264
239	0x3ca61f49	0.02027859
240	0x3d3e398d	0.046441603
241	0x3da5de1b	0.08099004
242	0x3d89ba46	0.06724982
243	0xbab6b484	-0.0013939296
244	0x3d71ab1c	0.059001073
245	0xbdca3939	-0.098741956
246	0xbd2c4528	-0.04205814
247	0xbda70892	-0.081559315
248	0xbccd3ea6	-0.025054287
249	0xbba11a37	-0.004916455
250	0xbc2d7357	-0.010586581
251	0x3c9bad4f	0.019003538
252	0xbc47c1d9	-0.012192213
253	0xbdbfc920	-0.093645334
254	0x3cdd7af0	0.02703616
255	0xbc2ea925	-0.010660444

discriminator.0.weight f4 [1, 1, 2, 2]
0	0x3ed3b624	0.413499
1	0x3eab6904	0.33478558
2	0x3eaa95fe	0.3331756
3	0x3e9ca2a8	0.30592847

discriminator.2.weight f4 [128, 729]
0	0xbc8facfe	-0.017538544
1	0x3a56d7a4	0.0008195585
2	0x3b71a57a	0.0036872313
3	0x3d0edde2	0.034879573
4	0x3c5a3f25	0.013320719
5	0x3c5ace1b	0.013354803
6	0xbbd13620	-0.006384626
7	0xbc69967e	-0.014257072
8	0x3cb45546	0.022013318
9	0xbcbd0aaa	-0.023076374
10	0x3cebe9e2	0.028798047
11	0xbc260fd5	-0.010135611
12	0x3c2d48b1	0.010576413
13	0xbced62b0	-0.028977722
14	0xbbc15870	-0.005900435
15	0xbcb33a18	-0.021878287
16	0xbbfbdbae	-0.0076861
17	0x3b630b05	0.003464402
18	0x3d295c51	0.041347805
19	0x3d1b3e7f	0.037901398
20	0x3cf998d7	0.030468388
21	0x3c9740aa	0.018463451
22	0x3ca03d1d	0.019560391
23	0x3c364e8e	0.011127127
24	0xbba4232a	-0.0050090747
25	0x3c80e3d5	0.015733639
26	0xbc43d5af	-0.011952802
27	0x3c8ba66f	0.017047135
28	0xbd1a714b	-0.0377057
29	0xbd105719	-0.035239313
30	0x3ce6c892	0.028171811
31	0xbc835215	-0.01603035
32	0xbc626a2b	-0.013819258
33	0x3c75bdcb	0.014998863
34	0xba85d0bd	-0.0010209304
35	0x3bb607cf	0.00555513
36	0x3d06ea90	0.03293854
37	0x3c7f912a	0.015598575
38	0x3d001c40	0.03127694
39	0x3d3370a5	0.043808598
40	0xbacd2393	-0.0015650861
41	0xbbdc87a2	-0.006730036
42	0x3c338b98	0.010958575
43	0x3d077bbb	0.033076983
44	0x3bc9f225	0.006162899
45	0xbc4d8b1e	-0.012545375
46	0xbab4d658	-0.001379679
47	0xbc98f2dc	-0.018670492
48	0x3d2ad696	0.04170855
49	0x39f12291	0.00045992856
50	0x3c27d319	0.010243201
51	0x3b9ddc61	0.004817531
52	0x3d20b5da	0.039235927
53	0x3ccc1a6d	0.024914945
54	0x3c8edcb6	0.017439228
55	0x3b84aad7	0.004048686
56	0xbc57d236	-0.013172677
57	0xbcf3011e	-0.029663619
58	0x3d08a362	0.03335894
59	0x3ce59094	0.028023042
60	0xbc491aec	-0.012274485
61	0x3bca6a8c	0.006177252
62	0x3c43cad6	0.011950215
63	0xbcbd0b2d	-0.023076618
64	0xbc2cd2d4	-0.010548312
65	0xbd9ac666	-0.07557373
66	0x3c5a7336	0.0133331325
67	0x3b2cb05c	0.0026350236
68	0x3c15ace6	0.0091354605
69	0x3aadd9df	0.0013263783
70	0x3c2a152f	0.010381027
71	0x3d3df5f1	0.046377126
72	0x3d034358	0.032046646
73	0x3c8cde2a	0.01719578
74	0xbd56253e	-0.05228161
75	0x3acb39f8	0.0015504947
76	0xbcb310f1	-0.021858664
77	0x3d45d37d	0.048297394
78	0xbc9e8fe2	-0.019355718
79	0xbc43df6c	-0.011955123
80	0xbcc91601	-0.024546625
81	0x3cca0f10	0.024665385
82	0x3d0c5ac9	0.034266267
83	0x3cf30d47	0.029669417
84	0x3d042133	0.032258224
85	0xbce339de	-0.027737554
86	0xbce93009	-0.028465288
87	0x3a79f788	0.0009535481
88	0x3ce98d45	0.028509745
89	0x3b3c0fb2	0.0028695879
90	0x3beec3a0	0.007286504
91	0xbd4930d5	-0.049118835
92	0xbc914d99	-0.017737197
93	0xbd91f61d	-0.071270205
94	0x3bce10f5	0.0062886425
95	0x3d02c38f	0.03192478
96	0x3d566f98	0.052352518
97	0x3d72a03e	0.05923485
98	0x3d72fb31	0.059321586
99	0x3c8cd2d6	0.017190378
100	0xbbfd6eb7	-0.0077341455
101	0xbd2ebc1a	-0.042659856
102	0x3b45c382	0.0030176346
103	0xbd0cf178	-0.03440997
104	0x3d14eba8	0.03635755
105	0xbbc7ffe6	-0.0061035035
106	0x3cac6a2c	0.02104672
107	0x3c2c42d2	0.010513978
108	0xbc37bc9a	-0.0112144
109	0x3ca5705f	0.020195184
110	0xbd0a9f5b	-0.03384338
111	0x3c8ac8c5	0.016941437
112	0xbcc9c1c4	-0.024628527
113	0x3c8dc999	0.017308043
114	0x3c6b2102	0.014351131
115	0xbb1d8d62	-0.002404057
116	0xbcfaab46	-0.030599248
117	0xbcb8e3e8	-0.022569612
118	0xbd8f891f	-0.07008576
119	0xbcc9741b	-0.024591496
120	0xbaa6ce7d	-0.0012726333
121	0xbbbb0e48	-0.0057084896
122	0x3cf99841	0.030468108
123	0x3d26b709	0.0407019
124	0x3d3c1efc	0.045927987
125	0xbc517190	-0.012783423
126	0xbc394f6a	-0.011310438
127	0xbd038f1e	-0.03211891
128	0xbd746b7b	-0.059672814
129	0xbc86ca3d	-0.016453857
130	0xbbb25a60	-0.0054429024
131	0xbd9c3980	-0.07628155
132	0xbcce4c62	-0.025182907
133	0xbcf44254	-0.029816784
134	0x3c2af9af	0.010435506
135	0x3d655fd9	0.05599961
136	0xbd065624	-0.032796994
137	0x3d4497d2	0.04799635
138	0x3c8ab6b4	0.016932823
139	0x3ac996b8	0.0015380001
140	0x3c4c2f4d	0.012462449
141	0x3d0a2911	0.03373057
142	0xbc96a82e	-0.018390741
143	0xbc377f8c	-0.011199843
144	0xbc11dc59	-0.008902633
145	0xbcc31a59	-0.023816274
146	0xbd40bc2f	-0.047054466
147	0xbd058a6b	-0.03260271
148	0x3c7341c2	0.014847221
149	0x3dac3dcd	0.08410225
150	0x3cb820b1	0.022476526
151	0x3cb35974	0.02189324
152	0xbd4b5acf	-0.04964715
153	0xbcc0a454	-0.023515858
154	0xbbd271e5	-0.0064222687
155	0xbc7432ed	-0.01490472
156	0xbd361bcf	-0.044460114
157	0xbda0cc4d	-0.07851467
158	0xbd74e54b	-0.059788983
159	0x3c6ff067	0.014644719
160	0x3d05ed3a	0.03269694
161	0x3d18339e	0.0371586
162	0x3c915245	0.017739424
163	0xbc34d1a8	-0.011036314
164	0xbc445161	-0.011982293
165	0x3a7d9ddf	0.00096747087
166	0x3c8f79ee	0.017514195
167	0x3cb0e022	0.02159125
168	0x3d2e18cc	0.042504117
169	0xbd3a816c	-0.045533583
170	0xbd773b8b	-0.06035952
171	0xbcabab1b	-0.020955613
172	0xbc27053b	-0.010194118
173	0xbcb512b4	-0.022103645
174	0x3c9986fa	0.01874112
175	0x3bf9652f	0.007610939
176	0x3d107a6c	0.035273
177	0x3d66fd58	0.05639395
178	0xbd0e1f9e	-0.03469812
179	0xbc1ccf85	-0.009570961
180	0x3c2c131e	0.010502605
181	0x3d45b331	0.048266593
182	0x3d06b78a	0.03288988
183	0xbccf0b99	-0.025274085
184	0xbccdd497	-0.025125785
185	0xbd13cfe3	-0.036086928
186	0x3d36b6f7	0.044608083
187	0x3be492bb	0.0069754994
188	0x3a373d23	0.0006990006
189	0x3ab8e3a1	0.0014105925
190	0xbc624eec	-0.013812762
191	0xbd0ace32	-0.03388805
192	0xbd259056	-0.040420853
193	0xbbc18386	-0.0059055714
194	0xbbf46ceb	-0.007459273
195	0xbd200314	-0.039065436
196	0xbc957b29	-0.018247204
197	0xbbbe0c92	-0.0057998383
198	0x3bd149c2	0.0063869664
199	0xbbd76e24	-0.006574409
200	0xbcd164fa	-0.025560845
201	0x3b888e30	0.0041673407
202	0x3d2a4562	0.041570075
203	0x3d486af1	0.048930112
204	0x3d4f91e5	0.050676245
205	0x3d3ff0ad	0.046860386
206	0xbb3e208b	-0.0029011096
207	0x3da8b499	0.08237571
208	0x3dd7ffcb	0.105468355
209	0x3d69024b	0.056886952
210	0xbc0ecb72	-0.008715497
211	0xbd221db8	-0.039579123
212	0xbbc70d1a	-0.00607456
213	0x3c116e27	0.00887636
214	0x3d47671b	0.048682313
215	0x3c75a25c	0.014992323
216	0x3bf198bf	0.007372945
217	0x3c4acd0b	0.012377988
218	0x3b9b6138	0.004741814
219	0x3cf0b595	0.02938346
220	0x3c11f8b5	0.008909394
221	0xbcd22c13	-0.025655782
222	0xbbcc0212	-0.0062258327
223	0x3cc3cd9e	0.023901757
224	0xbd558ce1	-0.052136306
225	0xbd160c96	-0.036633097
226	0xbc8ce3d8	-0.017198488
227	0x3b9912d0	0.004671432
228	0x3d03778a	0.032096423
229	0x3d1dc413	0.03851707
230	0x3db3cf11	0.08779729
231	0x3da44b9f	0.08022236
232	0xbc220267	-0.009888268
233	0x3c1c690b	0.009546529
234	0x3d53b064	0.05168189
235	0x3d8a1c75	0.06743709
236	0x3d711465	0.05885734
237	0xbc4a58b2	-0.012350248
238	0x3ca7b1e2	0.020470563
239	0xbccb41ce	-0.024811652
240	0x3c3433c0	0.010998666
241	0x3d3341ef	0.04376405
242	0xbcb81426	-0.022470545
243	0x3d14768e	0.036245875
244	0x3d01f92c	0.03173177
245	0xbcc8fcc1	-0.024534585
246	0x3c196ec3	0.009364787
247	0xbc064f8c	-0.008197676
248	0xbcf949f5	-0.030430773
249	0x3c9839d5	0.018582264
250	0x3b362563	0.002779328
251	0xbc69f7cd	-0.014280272
252	0xbd8584ad	-0.065194465
253	0x3c130c5e	0.008975117
254	0xbd0ae780	-0.03391218
255	0xbcaa7b3b	-0.020810714

discriminator.2.bias f4 [128]
0	0xbe9e5d32	-0.30930477
1	0x3ed48d21	0.41513923
2	0x3ea69e48	0.32542634
3	0x3e89cf9a	0.269162
4	0xbedf781a	-0.43646318
5	0x3e4a0f74	0.19732457
6	0xbeac79be	-0.33686632
7	0x3eebcda1	0.4605532
8	0xbe4db314	-0.20087844
9	0xbe949b2a	-0.2902463
10	0xbeb54a7f	-0.35408399
11	0xbea25b3c	-0.3171023
12	0x3ed530b8	0.41638732
13	0xbe85ca17	-0.26130745
14	0xbecb1943	-0.3966771
15	0xbed313b7	-0.4122598
16	0xbe83b5de	-0.2572469
17	0xbed5d966	-0.41767424
18	0x3ebfcc31	0.37460473
19	0xbeba1637	-0.36345074
20	0x3ee902a1	0.45509818
21	0x3e8bc679	0.2729986
22	0xbecf5e7c	-0.40501773
23	0xbe71d753	-0.23617296
24	0x3e805530	0.25064993
25	0xbe765bb6	-0.24058422
26	0xbeaf9cae	-0.34299225
27	0x3ea9f622	0.33195597
28	0x3ed648ec	0.4185251
29	0xbee8b385	-0.45449463
30	0x3e775b12	0.24155834
31	0xbec0473d	-0.3755435
32	0x3ee1260d	0.43974343
33	0xbeb6dbf3	-0.35714683
34	0x3f04ecb4	0.5192368
35	0xbe92ebf5	-0.28695646
36	0x3efe1698	0.49626613
37	0x3e8a00f8	0.26953864
38	0xbe9fec6f	-0.31235072
39	0x3eea3b77	0.45748493
40	0xbebfa03a	-0.3742693
41	0x3e98a1c6	0.29810923
42	0xbeb87b9c	-0.36031806
43	0x3ee54e97	0.44786522
44	0x3f09b8bf	0.53797525
45	0xbeb2336e	-0.34804863
46	0xbeae0940	-0.33991432
47	0xbecf2c0f	-0.40463302
48	0x3ee365e9	0.4441369
49	0xbea56d86	-0.32310122
50	0x3ecb69ed	0.39729252
51	0xbea50248	-0.32228303
52	0xbe932b70	-0.28744078
53	0xbeb6e439	-0.35720995
54	0xbea460d7	-0.32105133
55	0x3f0811fe	0.53152454
56	0xbec05fde	-0.3757314
57	0xbeac84b8	-0.33695006
58	0x3e9f29fb	0.31086716
59	0xbe7edf61	-0.248899
60	0xbebd4c21	-0.36972144
61	0x3f05af14	0.52220273
62	0x3eebb1fc	0.4603423
63	0x3f05f9f0	0.523345
64	0x3efbd334	0.49184573
65	0x3e81f076	0.2537877
66	0x3f0540f2	0.52052224
67	0x3ed7518a	0.42054397
68	0x3f0de075	0.5542062
69	0xbe73924d	-0.23786278
70	0xbe908e28	-0.28233457
71	0xbed333a9	-0.4125035
72	0xbeaafe73	-0.33397254
73	0xbe6b2bc9	-0.22965921
74	0xbe7a49c7	-0.24442206
75	0x3ec91d92	0.39280373
76	0x3ef81107	0.4845049
77	0xbea64f51	-0.3248239
78	0xbe7882aa	-0.24268594
79	0x3ee9b1d9	0.456435
80	0x3f0bf9b6	0.54677904
81	0x3ef4f460	0.47842693
82	0xbe906141	-0.281992
83	0x3ee0b198	0.43885493
84	0x3e91d3f5	0.28482023
85	0xbe9d297b	-0.3069571
86	0xbe98f24e	-0.29872364
87	0xbecb4515	-0.39701143
88	0x3ec2c24b	0.3803886
89	0x3eedf7b1	0.46478036
90	0x3ed0ce1c	0.4078225
91	0xbe60e627	-0.21962796
92	0xbe95d84f	-0.29266593
93	0x3ebca8da	0.36847574
94	0xbec5ccb7	-0.38632748
95	0xbe9343cc	-0.28762662
96	0x3ef361b9	0.47535494
97	0x3ef80944	0.4844457
98	0xbe653d2b	-0.22386615
99	0x3edb0683	0.42778406
100	0xbeb131e1	-0.34608367
101	0xbe56ebb6	-0.20988354
102	0xbeb1c722	-0.3472224
103	0x3ef9a5d9	0.48759344
104	0x3ed736e3	0.42034063
105	0x3e9fff4b	0.3124946
106	0x3f02e374	0.51128316
107	0x3f0d81d1	0.5527621
108	0xbe9e4277	-0.30910084
109	0xbe96953c	-0.29410732
110	0xbe0d4af2	-0.1379812
111	0xbe9e94f1	-0.30973008
112	0x3edf2339	0.4358156
113	0x3eeaaa78	0.45833182
114	0xbea8a5a0	-0.32938862
115	0xbea330fe	-0.31873316
116	0x3ef1475a	0.4712475
117	0xbec2c926	-0.3804409
118	0x3ef4a38c	0.47781026
119	0xbe3df773	-0.18551426
120	0xbec6cfa6	-0.38830298
121	0xbebf910d	-0.37415352
122	0xbeb97b1b	-0.36226735
123	0xbeb78be7	-0.35848925
124	0x3f0473af	0.5173902
125	0x3eeb55f5	0.45964018
126	0x3f03016e	0.51174057
127	0x3ef11d5a	0.47092706

discriminator.5.weight f4 [1, 128]
0	0x3e8206e4	0.25395882
1	0xbe88099d	-0.26569834
2	0xbede90d0	-0.43469858
3	0xbe979e61	-0.2961302
4	0x3e94a777	0.29034016
5	0xbeca3948	-0.39496827
6	0x3eae9643	0.34099016
7	0xbe1aa7f3	-0.1510313
8	0x3ea23e04	0.3168794
9	0x3eaade8a	0.3337291
10	0x3e872272	0.26393467
11	0x3e9fcf2c	0.31212747
12	0xbe91c1a5	-0.28468052
13	0x3eabeb54	0.3357798
14	0x3e99e846	0.30060023
15	0x3ea33109	0.31873348
16	0x3ea06220	0.31324863
17	0x3e826834	0.25470126
18	0xbe55b037	-0.20868002
19	0x3e95832b	0.29201636
20	0xbe36f768	-0.17867815
21	0xbe99767c	-0.2997321
22	0x3ea3d023	0.31994733
23	0x3ea04fa1	0.31310752
24	0xbea3b39e	-0.31972975
25	0x3eca42ad	0.39503995
26	0x3ea05a16	0.3131873
27	0xbe9c8c5b	-0.30575833
28	0xbea618b4	-0.32440722
29	0x3e98ac97	0.29819176
30	0xbec837a2	-0.39104944
31	0x3eb73691	0.35783818
32	0xbe28b791	-0.16476275
33	0x3e8e76ed	0.27825108
34	0xbe52477e	-0.20535085
35	0x3eab8047	0.33496305
36	0xbe52dec0	-0.20592785
37	0xbeba9fe6	-0.36450118
38	0x3ea68560	0.32523632
39	0xbe75137b	-0.23933212
40	0x3e962e77	0.29332325
41	0xbe7bcdb8	-0.24590194
42	0x3eae18bc	0.34003246
43	0xbe6c9fee	-0.23107883
44	0xbe4ab072	-0.19793871
45	0x3ea7f5aa	0.32804614
46	0x3ea47d8f	0.32127044
47	0x3e92940a	0.2862857
48	0xbe859c6b	-0.260959
49	0x3e9525a5	0.29130283
50	0xbe96bf73	-0.2944294
51	0x3e93e751	0.28887418
52	0x3e8e413a	0.2778414
53	0x3eb04f32	0.3443542
54	0x3e82a7fa	0.2551878
55	0xbe097fcd	-0.13427658
56	0x3e7bfe44	0.24608713
57	0x3e8558b7	0.26044247
58	0xbebd605a	-0.36987573
59	0x3e9fa182	0.31177908
60	0x3ead485f	0.33844277
61	0xbe4da6ec	-0.20083207
62	0xbe989179	-0.29798487
63	0xbdecf674	-0.11570445
64	0xbe8fdbbd	-0.28097335
65	0xbe3a4805	-0.18191536
66	0xbe7b6184	-0.24548918
67	0xbe6d4825	-0.23172052
68	0xbe8f954c	-0.28043592
69	0x3ea9818c	0.3310665
70	0x3e8f3e12	0.27977043
71	0x3e9971f2	0.29969746
72	0x3e818f31	0.2530456
73	0x3ea54b27	0.322839
74	0x3ec42278	0.38307548
75	0xbe6713d2	-0.22566155
76	0xbead001f	-0.33789155
77	0x3e8754ac	0.26431787
78	0x3e9b9b5b	0.30391964
79	0xbea07673	-0.3134037
80	0xbe62bd61	-0.22142555
81	0xbe830170	-0.25587034
82	0x3eafe237	0.34352276
83	0xbe6e3de8	-0.23265803
84	0xbebe5757	-0.3717601
85	0x3ea6024f	0.32423636
86	0x3e9bd19a	0.3043335
87	0x3e908be0	0.28231716
88	0xbea341ab	-0.31886038
89	0xbe7045a7	-0.2346407
90	0xbe0b1f28	-0.13586104
91	0x3e959205	0.29212967
92	0x3ebeb46b	0.37247023
93	0xbe8abfa2	-0.2709933
94	0x3e8bd29b	0.27309117
95	0x3ea6d35d	0.32583132
96	0xbe39397c	-0.18088335
97	0xbe83bf71	-0.25731996
98	0x3e9a56a5	0.3014423
99	0xbe967e79	-0.29393366
100	0x3ebb6009	0.36596707
101	0x3e8830c0	0.26599693
102	0x3e62016a	0.22070852
103	0xbe7f923e	-0.2495813
104	0xbe82d390	-0.25552034
105	0xbe8aaf4a	-0.2708686
106	0xbe4bebe5	-0.19914205
107	0xbe926ff9	-0.28601053
108	0x3e8fd4d0	0.2809205
109	0x3ebc2b4d	0.36751786
110	0x3e850e1c	0.25987327
111	0x3e945383	0.28969964
112	0xbe9083b4	-0.28225482
113	0xbe480311	-0.1953242
114	0x3eb7e917	0.3592002
115	0x3e894b9a	0.26815492
116	0xbe81c2a2	-0.25343806
117	0x3e954415	0.29153505
118	0xbe876365	-0.2644302
119	0x3e9fd311	0.31215718
120	0x3e8016ad	0.250173
121	0x3eabb47d	0.3353614
122	0x3ea3259c	0.3186463
123	0x3ea504df	0.3223028
124	0xbe972bf2	-0.29525715
125	0xbe800f56	-0.250117
126	0xbe5620b0	-0.20910907
127	0xbe8d1d4b	-0.2756141
