models/gan_model.pth (torch, 820422 bytes, 10 tensors)

generator.0.weight f4 [1, 1, 2, 2]
0	0x3d9eb1b0	0.07748735
1	0x3c3699c6	0.011145061
2	0x3e966f2b	0.2938169
3	0x3e9aa7fa	0.3020628

generator.3.weight f4 [1, 1, 2, 2]
0	0x3e9d2776	0.3069417
1	0xbd9110f4	-0.07083312
2	0x3e0529c2	0.1300421
3	0x3ec8ee04	0.39244092

generator.7.weight f4 [128, 64]
0	0xbd38ab30	-0.045085132
1	0xbcacd42b	-0.021097263
2	0x3e78cfa0	0.24297953
3	0x3da16f49	0.07882554
4	0xbd9fb706	-0.07798581
5	0x3c85966f	0.016307084
6	0x3dad18a7	0.08451968
7	0x3e1d00c2	0.1533232
8	0xbc4abf72	-0.012374746
9	0x3d8334d9	0.06406564
10	0xbcbb40b1	-0.022857996
11	0x3d37163b	0.044698935
12	0x3dae3abc	0.085072964
13	0xbd93d41c	-0.07218191
14	0xbd4d261e	-0.05008518
15	0x3d175435	0.03694554
16	0xbdeb74a8	-0.1149686
17	0xbd1ecc66	-0.03876915
18	0x3d95a9cc	0.07307777
19	0x3cba5ef9	0.022750365
20	0x3d8a14c6	0.067422435
21	0x3d044a69	0.032297526
22	0xbe0ec527	-0.13942395
23	0xbdbeac14	-0.09310165
24	0x3d8211e8	0.063510716
25	0x3ca9f3e7	0.020746185
26	0xbc8aeb13	-0.016957795
27	0x3df8e45a	0.121529296
28	0xbd9288e2	-0.071550146
29	0xbdb12a8e	-0.08650695
30	0x3cee04dd	0.029055053
31	0x3b03f6fd	0.002013623
32	0x3da2cf78	0.07949728
33	0x3ddaeece	0.1069008
34	0xbccb846f	-0.024843423
35	0x3d7fcfd8	0.062454075
36	0x3c57a53d	0.0131619545
37	0x3d6e263d	0.058141936
38	0x3d4c15c7	0.049825456
39	0x3cfb20c5	0.030655274
40	0x3c9d9d56	0.019240063
41	0x3e08bcb4	0.13353235
42	0x3be34622	0.0069358507
43	0xbc9d3bbb	-0.01919352
44	0x3dffb09c	0.124848574
45	0x3cd7e7a5	0.026355574
46	0x3da84a9d	0.08217356
47	0xbda18271	-0.07886208
48	0xbdfce7e2	-0.12348916
49	0x3d333db6	0.043760024
50	0xbafd0d2c	-0.0019306294
51	0x3d3484c7	0.04407194
52	0x3d9dda49	0.0770765
53	0x3dc4b95b	0.09605666
54	0x3e56b926	0.20969066
55	0x3d656155	0.056001026
56	0x3ddd6120	0.10809541
57	0xbbf8c39b	-0.0075916774
58	0x3d43ebb1	0.047832195
59	0x3d461cab	0.048367184
60	0x3d089794	0.03334768
61	0x3daa4145	0.083132304
62	0x3e141ecd	0.14464875
63	0xbc579f64	-0.01316056
64	0x3db629f1	0.088947184
65	0xbd95ae56	-0.073086426
66	0x3c92b14d	0.01790681
67	0x3dd3acf6	0.10335724
68	0x3df3227a	0.1187181
69	0xba0fc972	-0.0005485035
70	0xbbc32e92	-0.0059564793
71	0x3df1f208	0.11813742
72	0x3dc975b1	0.09836901
73	0x3afb84aa	0.0019189317
74	0xbd98b632	-0.07456626
75	0xbdb232b9	-0.08701081
76	0xbcdc91bd	-0.026924962
77	0xbda23c99	-0.07921714
78	0x3e0071d7	0.12543426
79	0xbda77245	-0.08176092
80	0x3d3e1130	0.04640311
81	0x3c88e5a2	0.01671106
82	0xbce75bb5	-0.028241972
83	0xbde4b9f2	-0.11168279
84	0x3cf564b3	0.029955244
85	0xbdd14b6a	-0.10219462
86	0xbcc3c951	-0.023899706
87	0x3d137399	0.035998914
88	0x3d6febe4	0.058574572
89	0x3d835117	0.06411951
90	0xbd86668c	-0.06562528
91	0xbe16d5b2	-0.14729956
92	0xbc02dc46	-0.007987088
93	0x3dddc50a	0.10828598
94	0xbc7c40d9	-0.01539632
95	0x3b0e260b	0.0021690156
96	0xbdbc6b55	-0.092001595
97	0x3dfeec0c	0.12447366
98	0x3cb3dfae	0.021957245
99	0x3c8670b1	0.016411157
100	0x3d9e674b	0.07734545
101	0x3d03168a	0.032003917
102	0xba291505	-0.00064499705
103	0x3dbb4d92	0.09145655
104	0x3dc09de2	0.09405114
105	0xbd0222a4	-0.031771317
106	0xbd95bf78	-0.073119104
107	0x3dfab61c	0.12241766
108	0x3d0a3f1e	0.0337516
109	0x3d3bf337	0.045886245
110	0xbd9ecfce	-0.07754479
111	0xbd6fbde5	-0.058530707
112	0x3e283686	0.16427049
113	0xbbac2648	-0.005253587
114	0xbdb5ae50	-0.08871138
115	0x3d10b691	0.03533036
116	0xbd952322	-0.07282092
117	0xbd91b5ba	-0.0711474
118	0x3d1409c6	0.036142133
119	0xbdaea90f	-0.08528339
120	0x3de17389	0.11008365
121	0x3cfe4fe4	0.031043954
122	0x3d04f9ad	0.032464672
123	0x3ca32518	0.019915149
124	0xbd3b7720	-0.045767903
125	0x3ca08ae0	0.01959747
126	0xbc77d0df	-0.015125482
127	0x3c6e9d78	0.014563911
128	0x3e213a2e	0.1574485
129	0x3c8cdd5f	0.017195402
130	0xbd85691f	-0.06514191
131	0xbdbe0d2d	-0.09279857
132	0xbd9c98a2	-0.076463
133	0xbd3e608f	-0.046478804
134	0xbdade303	-0.08490565
135	0x3d9c97e4	0.07646158
136	0xbd07018b	-0.032960456
137	0x3d68fbf5	0.05688091
138	0xbd99599a	-0.07487793
139	0x3ddc924f	0.10770094
140	0x3cf593a3	0.029977625
141	0x3dc30e9b	0.0952427
142	0x3ddee471	0.108834155
143	0xbd82ba8f	-0.063832395
144	0xbdcec7f3	-0.10096731
145	0xbd1907f7	-0.03736111
146	0xbdad2a55	-0.0845534
147	0x3dbaa686	0.09113793
148	0x3d367ebd	0.04455446
149	0x3dab9714	0.08378425
150	0x3d6f23c9	0.058383737
151	0xbdacccdf	-0.084375136
152	0xbded72aa	-0.11594136
153	0xbdcd6bbc	-0.10030314
154	0xbe087e82	-0.13329509
155	0x3dba4fdd	0.09097264
156	0xbcf1c10f	-0.029511003
157	0x3d32aa4d	0.043619443
158	0x3e0567c6	0.13027868
159	0x3c38c998	0.011278532
160	0xbd1e7a16	-0.03869065
161	0xbda0fec3	-0.07861092
162	0xbd6c50cd	-0.057694245
163	0xbdb6cabd	-0.08925388
164	0x3dca6825	0.09883145
165	0x3e70f8fe	0.23532483
166	0x3e50c2ff	0.20386885
167	0xbad45d1d	-0.0016202066
168	0x3e0fe2b7	0.14051329
169	0xbcce2603	-0.02516461
170	0xbdae2571	-0.08503235
171	0xbe09ba81	-0.13450052
172	0xbe3227d5	-0.17398007
173	0xbc611ccb	-0.013739775
174	0x3d87e3e7	0.06635266
175	0x3e062cb1	0.13102986
176	0x3e32df23	0.17467932
177	0x3d6c2dbf	0.057660814
178	0x3d8eb18c	0.06967458
179	0x3de72490	0.112862706
180	0x3d5212c6	0.051287435
181	0xbb82e823	-0.003994958
182	0x3ddab279	0.10678572
183	0x3d256e84	0.0403886
184	0x3e296409	0.16542067
185	0x3d5c91d8	0.053850025
186	0x3d50ce18	0.050977796
187	0x3e54f660	0.2079711
188	0x3cb117ee	0.021617856
189	0x3daf5b5e	0.08562349
190	0xbc73a61a	-0.014871145
191	0x3c3ce150	0.011528328
192	0x3d7b2fdf	0.06132495
193	0x3b85a32c	0.0040782895
194	0x3d18f953	0.03734715
195	0xbd97b9a8	-0.07408458
196	0xbd928df0	-0.07155979
197	0xbd80ad39	-0.062830396
198	0x3c9961a1	0.01872331
199	0x3d036b35	0.032084662
200	0x3daacf66	0.08340339
201	0xbda9d3d9	-0.0829236
202	0x3db5c599	0.088755794
203	0xbc06db71	-0.00823103
204	0x3db5242f	0.08844792
205	0xbdb0aecf	-0.08627092
206	0xbdad1a43	-0.08452275
207	0xbd7f37ae	-0.06230896
208	0xbc83c665	-0.016085813
209	0xbd847a2a	-0.064686134
210	0x3d965fd5	0.07342497
211	0x3e2cd978	0.16879833
212	0x3de6d668	0.112713635
213	0x3c1b6217	0.009483836
214	0x3c81e049	0.015854018
215	0xbd554169	-0.052064333
216	0xbc9d0d80	-0.019171476
217	0xbd53295b	-0.05155311
218	0x3db76763	0.08955266
219	0x3d302d90	0.0430122
220	0x3dd17d85	0.10229019
221	0x3d86ee42	0.06588413
222	0xbce4bc91	-0.027921947
223	0xbb6196ae	-0.0034422087
224	0x3d46309d	0.048386205
225	0x3d05e79f	0.032691594
226	0xbdfd1906	-0.123582885
227	0xbbeeb32c	-0.0072845425
228	0x3da35cb4	0.07976666
229	0xbb609e81	-0.0034274163
230	0x3c7bd1b3	0.01536982
231	0xbc033843	-0.008009019
232	0x3da99470	0.08280265
233	0xb9d2f954	-0.00040240085
234	0xbd918085	-0.07104591
235	0xbd8c3d21	-0.06847597
236	0xbd8f591b	-0.069994174
237	0xbd1ceede	-0.03831374
238	0x3d3c26cd	0.04593544
239	0x3d40156c	0.04689543
240	0xbdd23cd8	-0.10265511
241	0xbd862a16	-0.06550996
242	0x3e14e719	0.14541282
243	0x3d90380a	0.070419386
244	0x3cb6f972	0.022335742
245	0x3dcbee0c	0.09957513
246	0x3cada684	0.021197565
247	0x3e0d37fc	0.13790888
248	0x3d42fdf5	0.047605474
249	0xbdc0e678	-0.094189584
250	0x3d52cd86	0.051465534
251	0xbcc967e4	-0.024585672
252	0x3c00c8db	0.007860388
253	0xbc86abee	-0.016439404
254	0xbd009900	-0.031395912
255	0x3d18ba7f	0.03728723

generator.7.bias f4 [128]
0	0x3de053c4	0.10953477
1	0x3d9f9f5b	0.077940665
2	0x3da5a144	0.080873996
3	0x3e0655db	0.13118689
4	0xbd7cca0c	-0.061716124
5	0x3e0e9213	0.1392291
6	0xbd847cf6	-0.06469147
7	0xbc4dbca7	-0.012557185
8	0x3cfeb393	0.031091487
9	0x3e253ec2	0.16137221
10	0x3c869daa	0.016432602
11	0xbc9dc535	-0.019259075
12	0x3d1f1035	0.038833816
13	0xbd8131a7	-0.063082986
14	0x3dc139dd	0.09434865
15	0x3d32a2cc	0.043612286
16	0x3dbb31f2	0.09140386
17	0x3e18cb6d	0.14921351
18	0x3e4b6f70	0.19866729
19	0x3c2c6240	0.0105214715
20	0x3e272ffb	0.16326897
21	0xbbb7011b	-0.0055848486
22	0x3dcf7c59	0.10131139
23	0xb92d1470	-0.00016506179
24	0x3d23d880	0.040001392
25	0x3e4ae107	0.19812404
26	0x3dc04d50	0.09389746
27	0x3dec2d0c	0.115320295
28	0x3e5e893a	0.21732035
29	0x3d48074a	0.048835076
30	0x3e885cf0	0.26633406
31	0x3d39387e	0.04521989
32	0x3de53150	0.11191046
33	0xbcab0db9	-0.020880567
34	0x3db5b0f2	0.0887164
35	0xbc4ba2a5	-0.012428914
36	0x3d8fc69b	0.07020303
37	0x3d3f9708	0.046774894
38	0xbd8e261a	-0.06940861
39	0x3df9b3c0	0.12192488
40	0x3d920a62	0.071308866
41	0x3dd1c862	0.10243298
42	0xbda709e9	-0.08156187
43	0x3c389a7d	0.011267302
44	0x3d7a8006	0.06115725
45	0x3def863d	0.11695526
46	0x3dbe4d72	0.09292115
47	0x3e3c3e5d	0.18383165
48	0xbdf15a69	-0.117848225
49	0x3ddef0c0	0.10885763
50	0x3d0160f5	0.031586606
51	0xbc2b3ceb	-0.010451536
52	0x3d8d686f	0.06904685
53	0xbd951e6d	-0.07281194
54	0xbda4eca6	-0.080529496
55	0x3d2e7d88	0.042600185
56	0x3d89d4ba	0.067300275
57	0xbde2c138	-0.1107201
58	0x3d7c9fb1	0.06167573
59	0xbd945efa	-0.07244678
60	0xbcaedcfa	-0.021345604
61	0xbc868b24	-0.01642377
62	0xbd63ee27	-0.05564704
63	0x3d973749	0.07383592
64	0xbd05becd	-0.032652665
65	0x3d06371b	0.032767396
66	0x3e0e9cda	0.13927022
67	0xbc87cfd1	-0.016578587
68	0xb98a1fba	-0.0002634505
69	0x3e06ef29	0.1317717
70	0xbd644a49	-0.055734906
71	0x3e028d14	0.1274913
72	0x3e8f8918	0.28034282
73	0x3e168839	0.14700402
74	0x3e34e434	0.17665178
75	0x3d24e531	0.040257636
76	0x3e250219	0.16114081
77	0x3d32233d	0.043490637
78	0x3d9bd1c7	0.07608371
79	0x3dce3984	0.10069564
80	0x3e09b72a	0.13448778
81	0xbd83f218	-0.0644266
82	0x3d33a556	0.04385885
83	0xbce67741	-0.028133037
84	0x3d2ef19a	0.042710878
85	0x3c646ffc	0.013942715
86	0x3d223f6c	0.039611265
87	0x3bb0594c	0.0053817388
88	0x3b9a4667	0.0047080996
89	0x3df1e33c	0.1181092
90	0x3ba93615	0.005163918
91	0xbd48524e	-0.048906617
92	0x3df8f581	0.12156201
93	0x3ddd7075	0.10812465
94	0x3c5dfe37	0.013549379
95	0xbcf4f351	-0.029901179
96	0x3e0df68e	0.13863584
97	0x3de83ca3	0.113396905
98	0x3c815969	0.015789704
99	0x3c93f65c	0.01806181
100	0x3df526f6	0.11970322
101	0x3e50fa86	0.20408067
102	0x3dad48be	0.0846114
103	0x3c9c7ecf	0.019103436
104	0x3e15ed9d	0.14641424
105	0xbc9b91d3	-0.018990433
106	0x3dc83d86	0.0977736
107	0x3cea170e	0.028575446
108	0x3e605dc7	0.21910773
109	0x3d82f381	0.06394101
110	0xbd16bdc6	-0.036802076
111	0xbdd01ac5	-0.10161356
112	0x3d865e3b	0.06560942
113	0x3e8ff4e9	0.2811654
114	0xbcea06a2	-0.028567616
115	0x3d707575	0.058705766
116	0xbc72f9d5	-0.014830072
117	0x3de9dd34	0.11419144
118	0xbd7bacb0	-0.061443985
119	0x3c7bbbbc	0.015364584
120	0xbab2e619	-0.0013648897
121	0x3d9ec7f5	0.077529825
122	0xbda23ea2	-0.079221025
123	0x3da3366c	0.079693645
124	0x3e119903	0.14218526
125	0xbca3bc7a	-0.019987334
126	0x3e81aa78	0.2532537
127	0x3dba263f	0.09089326

generator.10.weight f4 [784, 128]
0	0xbd9ee87f	-0.07759189
1	0xbd41040b	-0.047122996
2	0x3ccd0f65	0.025031755
3	0x3b9df9bf	0.004821032
4	0x3abd17c9	0.0014426644
5	0xbd8cf9e8	-0.06883603
6	0xbdcebacc	-0.100942224
7	0x3d8e3f4a	0.06945665
8	0xbb859bcc	-0.0040774103
9	0xbdb0ffe1	-0.08642555
10	0x3d7b96b9	0.061423037
11	0x3d533fde	0.05157458
12	0xbdaadb75	-0.08342639
13	0xbc8a6049	-0.016891615
14	0xbda57374	-0.080786616
15	0xbd418884	-0.047249332
16	0xb9a7970d	-0.00031965264
17	0xbac86769	-0.0015289608
18	0x3ca88261	0.020569982
19	0xbb860e17	-0.004091035
20	0x3cfa76b2	0.030574176
21	0x3d0b9429	0.034076843
22	0x3d00ce32	0.031446643
23	0xbd963e91	-0.07336152
24	0xbd9541e3	-0.072879575
25	0xbd9b440f	-0.075813405
26	0xbd9fe89f	-0.07808041
27	0xbdc2c572	-0.09510316
28	0xbdf6727e	-0.120335564
29	0xbd3b8a1f	-0.04578602
30	0xbbad3d96	-0.0052868826
31	0xbe050b11	-0.12992503
32	0xbd89ede5	-0.06734828
33	0x3c529a59	0.012854182
34	0xbdb7beff	-0.089719765
35	0xbdbd1340	-0.09232187
36	0xbd824389	-0.063605376
37	0xbdb14a64	-0.08656767
38	0xba9505f9	-0.0011369578
39	0xbd3f9935	-0.04677697
40	0x3c0fb44d	0.008771014
41	0xbd96c163	-0.07361104
42	0xbdb6a408	-0.08918005
43	0xbccb31e2	-0.02480406
44	0xbc8648df	-0.01639217
45	0x3c7f64ed	0.015588027
46	0x3b7ce921	0.0038591104
47	0x3d47f2a6	0.048815392
48	0xbb33cc9f	-0.0027435196
49	0x3d09b6b6	0.033621512
50	0xbdd5ef6d	-0.104460575
51	0xbd17c670	-0.03705448
52	0x3c1ae10e	0.009453071
53	0xbcce7673	-0.025202965
54	0xbdb638fd	-0.088975884
55	0x3d1763a3	0.036960255
56	0xbd990688	-0.07471949
57	0xbda85118	-0.082185924
58	0xbddc4330	-0.107550025
59	0x3c90c5e5	0.017672488
60	0xbc1b8e55	-0.009494384
61	0xbdc2a1d6	-0.09503524
62	0xbdddfcfb	-0.10839268
63	0xbd2dc7b9	-0.0424268
64	0xbcdeae70	-0.027182788
65	0x3a8fc469	0.0010968569
66	0xbbe0ef32	-0.006864452
67	0x3d3a71b0	0.045518577
68	0xbd96191f	-0.0732901
69	0xbda84915	-0.08217064
70	0xbd7d427d	-0.061830986
71	0x3d1d5319	0.038409326
72	0xbd34adbb	-0.044110995
73	0xbd2d582f	-0.042320427
74	0xbc687874	-0.0141888745
75	0x3c2c8f7c	0.010532256
76	0xbcdc6429	-0.026903229
77	0xbc6cdc1e	-0.014456777
78	0x3d010a5c	0.03150402
79	0x3cb5ad87	0.02217747
80	0x3d24b419	0.040210817
81	0xbd48770b	-0.048941653
82	0x3c08d628	0.00835184
83	0x3d1e16b8	0.038595885
84	0x3d1aceb2	0.037794776
85	0xbdbe2f07	-0.092863135
86	0xbd818cc2	-0.063256755
87	0x3cf42a82	0.029805426
88	0xbd18cf19	-0.03730688
89	0xbb86f2b9	-0.0041182903
90	0xbd299c2d	-0.041408706
91	0x3b6c365c	0.0036043143
92	0xbdc08cb9	-0.09401841
93	0x3d07f7ba	0.033195235
94	0xbc215474	-0.009846795
95	0x3ce78bf8	0.028264984
96	0xbc9e5ab7	-0.019330366
97	0xbd83ce82	-0.064358726
98	0xbd72e840	-0.059303522
99	0x3d285053	0.04109223
100	0xbd6003fc	-0.0546913
101	0xbd40656c	-0.046971723
102	0xbd11a877	-0.03556105
103	0x3d1dc745	0.038520116
104	0xbd9358e6	-0.071946904
105	0xbdf1c1b5	-0.11804525
106	0x3d543ec7	0.05181768
107	0xbccff0fd	-0.025383467
108	0xbda74819	-0.081680484
109	0xbd865589	-0.06559283
110	0x3d9b17a4	0.075728685
111	0x3ca42ca2	0.020040814
112	0xbd24ac0a	-0.04020313
113	0x37ffb1ec	3.048122e-05
114	0x3ca2e48b	0.019884368
115	0xbd75d3a5	-0.060016293
116	0xbcbac746	-0.0228001
117	0x3ccdc325	0.025117466
118	0xbb92ec13	-0.0044837086
119	0xbc5fce0d	-0.013659966
120	0xbd253e2c	-0.040342495
121	0xbdc625d0	-0.09675181
122	0x3c2991af	0.010349675
123	0xbdceba37	-0.100941114
124	0x3d3b2768	0.045691878
125	0xbc953768	-0.018214896
126	0xbc69e076	-0.014274707
127	0x3ca7d2f9	0.020486342
128	0xbdd55e8e	-0.104184255
129	0x3b5a7575	0.003333417
130	0xbdad8c84	-0.08474067
131	0xbb9a1423	-0.0047021075
132	0xbdd88f9a	-0.10574265
133	0x3cf08650	0.02936092
134	0xbc9a61f7	-0.018845541
135	0xbdb2faf3	-0.08739271
136	0x3c600899	0.013673925
137	0x3d0356f0	0.032065332
138	0xbd9b5631	-0.07584799
139	0xbd3f0916	-0.046639524
140	0xbcf39f35	-0.029739002
141	0xbd149183	-0.036271583
142	0xbdd59359	-0.10428495
143	0xbd8245d7	-0.06360977
144	0xbdd6be04	-0.10485461
145	0xbdad7d35	-0.08471147
146	0xbdec43b9	-0.115363546
147	0xbd274dba	-0.04084561
148	0xbd8f5059	-0.06997747
149	0xbd3eb56b	-0.046559732
150	0x3bb7b1b1	0.0056058993
151	0xbac1fe24	-0.0014800471
152	0xbd8cfc80	-0.06884098
153	0xbd823eaf	-0.06359612
154	0xbdc54f3f	-0.096342556
155	0x3b42f2b5	0.0029746715
156	0x3b861c97	0.0040927636
157	0xbd90f9a2	-0.07078864
158	0xbcc8454a	-0.024447102
159	0xbcd4ac9e	-0.025961217
160	0xbc5f9e12	-0.013648527
161	0xbcf457bb	-0.02982699
162	0x3ca91819	0.020641373
163	0xbd923bf4	-0.071403414
164	0xbd8db31a	-0.069189265
165	0xbd826947	-0.06367736
166	0x3cf96d5b	0.030447653
167	0x3c2946d2	0.010331826
168	0xbc02df64	-0.007987831
169	0x3ad89fcf	0.0016527119
170	0xbcce632d	-0.025193775
171	0x3bf98ce2	0.0076156715
172	0xbc8e5ca6	-0.017378163
173	0x3d2ab536	0.041676722
174	0x3d2b8128	0.04187122
175	0xbd2d3ad0	-0.042292416
176	0xbd737b6c	-0.059443876
177	0x3cd1bb2f	0.025601951
178	0xbdb20bcb	-0.086936556
179	0x3c03dd92	0.008048432
180	0xbdcfd33b	-0.10147711
181	0xbdf4910a	-0.119417265
182	0xbd06d6ba	-0.032919623
183	0xbca283f2	-0.019838307
184	0xbd145028	-0.036209255
185	0x3cb4aa79	0.022053944
186	0xbddff22e	-0.10934864
187	0x3cb0f6e4	0.021602102
188	0xbcfa4c14	-0.030553855
189	0xbd09d6a3	-0.03365196
190	0xbc9019de	-0.01759046
191	0xbdd3e10a	-0.10345657
192	0xbdbcd0c7	-0.092195086
193	0x3d0722c6	0.032992147
194	0xbdb02e50	-0.086025834
195	0xbde286a5	-0.11060838
196	0xbd546420	-0.0518533
197	0xbdd328a3	-0.10310485
198	0xbca3faac	-0.02001699
199	0xbc56b44f	-0.013104512
200	0xbd0c6295	-0.034273703
201	0xbdf08af5	-0.11745254
202	0xbdcca1d3	-0.09991803
203	0x3c91093b	0.017704597
204	0x3ba2bd50	0.0049664155
205	0xbc0f62d2	-0.008751588
206	0xbaefee94	-0.0018305355
207	0xbd7aa943	-0.061196577
208	0xbad67fcd	-0.0016364992
209	0x3c66b26a	0.014080623
210	0xbd54d1a1	-0.05195773
211	0xbda2cdf3	-0.07949438
212	0xbde2b41c	-0.110695094
213	0xbd9873cf	-0.07443964
214	0x3bd404c9	0.006470297
215	0xbddf7b63	-0.10912206
216	0x3d29ee12	0.041486807
217	0xbd24eece	-0.040266804
218	0xbd219054	-0.039444283
219	0xbb45c066	-0.0030174493
220	0xbd96ce83	-0.07363608
221	0xbd9238c0	-0.071397305
222	0xbd96b012	-0.073578015
223	0xbcba4137	-0.022736175
224	0x3c952f99	0.018211173
225	0x3d15750c	0.036488578
226	0xbd874c97	-0.06606405
227	0xbd9703d4	-0.07373777
228	0xbdb446eb	-0.08802589
229	0xbd64691e	-0.05576431
230	0xbcee8086	-0.02911402
231	0xbde0e464	-0.10981062
232	0xbc785bc4	-0.015158597
233	0xbc1b59e7	-0.009481884
234	0x3c884ba3	0.016637629
235	0xbbd23449	-0.0064149243
236	0x3d237225	0.03990378
237	0xbd904f6e	-0.070464
238	0xbde5255e	-0.11188768
239	0xbcf83ca8	-0.03030236
240	0xbdae0cf9	-0.08498568
241	0xbdcada9b	-0.09904977
242	0x3c1c16de	0.009526936
243	0xbd4e96aa	-0.050436653
244	0xbb9c4970	-0.0047694966
245	0xbc2d8c92	-0.010592597
246	0x3c79852b	0.015229504
247	0x3bf7b0af	0.007558904
248	0xbe044625	-0.12917383
249	0xbd1af4e6	-0.03783121
250	0xbdce4c17	-0.10073107
251	0x3c9216c0	0.017833114
252	0xbd8e229b	-0.06940194
253	0x3c563239	0.013073497
254	0xbdf467ec	-0.11933884
255	0xbde7f005	-0.11325077

generator.10.bias f4 [784]
0	0x3c5e2fca	0.0135611985
1	0xbda60ef9	-0.081083246
2	0xbbe6b89e	-0.007041051
3	0xbdd16c3c	-0.10225722
4	0xbc4dafd4	-0.012554128
5	0xbdb18789	-0.086684294
6	0x3d7ee603	0.062231075
7	0x3be972b4	0.0071242694
8	0xb9b6f78b	-0.0003489818
9	0xbc20a944	-0.009805981
10	0xbd74afd8	-0.05973801
11	0xbc0ce486	-0.008599406
12	0xbd9efd13	-0.07763114
13	0x3c735149	0.014850923
14	0xbc757b8c	-0.014983069
15	0x3d367bc5	0.04455163
16	0xbdfe9571	-0.124308474
17	0xbdefc098	-0.11706656
18	0xbc4d5458	-0.012532316
19	0xbb894932	-0.0041896338
20	0xbce83e24	-0.028349943
21	0xbd071dc4	-0.03298737
22	0x3d576285	0.05258419
23	0xbde3c999	-0.11122436
24	0xbdb9ea59	-0.090779014
25	0xbdb4b8a2	-0.088242784
26	0xbe02b4f6	-0.12764344
27	0xbdc717a0	-0.09721303
28	0xbdef536f	-0.116858356
29	0xbc932191	-0.017960342
30	0xbce0c5a1	-0.027437987
31	0xbdd2ef60	-0.102995634
32	0x3c8f5984	0.017498739
33	0xbde1b75b	-0.110213004
34	0xbd798565	-0.06091823
35	0xbe06394f	-0.13107799
36	0x3c78a4d6	0.015176019
37	0xbcabb16b	-0.020958623
38	0x3d21b74b	0.039481442
39	0xbd6e4dc6	-0.05817964
40	0xbdfb062c	-0.122570366
41	0x3c5c2b71	0.013438092
42	0xbdb4118f	-0.087924115
43	0x3cd50314	0.026002444
44	0xbda91fae	-0.082579955
45	0xbce47902	-0.027889732
46	0x3c7ef89b	0.015562202
47	0xbc180ac6	-0.009279912
48	0x3d5ae769	0.053443346
49	0xbdd373ed	-0.103248455
50	0xbd09ac7b	-0.033611756
51	0xbdbaf554	-0.09128824
52	0xbdc93fbf	-0.09826612
53	0xbc511645	-0.012761657
54	0xbd3a29bd	-0.04544996
55	0xbdc0dc5c	-0.0941703
56	0xbdaca5a0	-0.08430028
57	0x3d6ef919	0.058343027
58	0xbc1ffdfd	-0.009765145
59	0xbc211c49	-0.009833404
60	0xbc299538	-0.010350518
61	0xbc59ad29	-0.0132859135
62	0x3bae302b	0.0053158007
63	0xba8b0f8b	-0.001060949
64	0xbdefb418	-0.11704272
65	0xbdc03887	-0.09385782
66	0xbda5934a	-0.08084734
67	0xbc4ba859	-0.012430274
68	0xbdf06bab	-0.11739286
69	0xbda28b66	-0.079367444
70	0xbd8be3db	-0.06830569
71	0xbc16398d	-0.009168995
72	0xbe220116	-0.15820727
73	0xbcfd270e	-0.030902412
74	0xbdfb1955	-0.12260691
75	0xbda36a37	-0.07979243
76	0xbd3e6830	-0.04648608
77	0xbd7d629b	-0.061861616
78	0xbcb73b33	-0.022367096
79	0xbdda28a6	-0.10652284
80	0xbca87095	-0.020561496
81	0xbd41c14e	-0.04730349
82	0xbc8d1fad	-0.017227018
83	0xbc0a5082	-0.008442046
84	0x3d2a42cd	0.041567612
85	0x3d2b3ac2	0.041804083
86	0xbc784a84	-0.015154485
87	0xbd714164	-0.058900252
88	0xbdc18c98	-0.09450644
89	0x3c9169ee	0.017750707
90	0xbd9b573c	-0.07584998
91	0xbdd7e8f8	-0.10542482
92	0xbbcadd5f	-0.0061909403
93	0xbdb6724d	-0.0890852
94	0x3b4b686e	0.0031037587
95	0xbd51c695	-0.051214773
96	0xbd9236a1	-0.07139326
97	0xbdb93f4e	-0.090452775
98	0x3c1d3487	0.009595043
99	0x3cd0646f	0.025438515
100	0xbdb58b3b	-0.08864447
101	0xbddf7da8	-0.10912639
102	0xbe09ee49	-0.13469805
103	0xbc21212b	-0.009834568
104	0xbca3764a	-0.019953866
105	0xbbde5f70	-0.0067862794
106	0x3c98ff76	0.0186765
107	0xbe0b641a	-0.13612404
108	0x3cec1d96	0.028822701
109	0xbd5e0b13	-0.05420978
110	0xbc9671d2	-0.01836482
111	0xbd7a6443	-0.061130773
112	0xbd04bc5d	-0.0324062
113	0xbd1469a4	-0.03623356
114	0x3d337b82	0.043818958
115	0xbd2eca3b	-0.04267333
116	0x3d0e7df2	0.03478808
117	0xbbf855ab	-0.007578572
118	0xbdd588c3	-0.10426476
119	0x3cac077c	0.020999663
120	0xbda5f456	-0.08103244
121	0xbb30e4f5	-0.0026991938
122	0xbdd34c15	-0.10317246
123	0x3ccbc278	0.024873003
124	0x3c3d57e4	0.011556599
125	0xbd894f96	-0.06704633
126	0x3c812ceb	0.015768489
127	0x3d0f700f	0.035018977
128	0x3d3a166f	0.04543155
129	0x3d6091e4	0.054826632
130	0xbc926e94	-0.017874993
131	0x3d05c81a	0.032661535
132	0x3ce9167a	0.0284531
133	0xbd0e5d44	-0.034756914
134	0xbde860f7	-0.113466196
135	0xbdf887ff	-0.12135314
136	0x3c8e44a9	0.017366724
137	0xbd7bbdde	-0.06146037
138	0xbdb97c16	-0.09056871
139	0x3c283ad7	0.010267935
140	0xbd6931d2	-0.056932278
141	0xbdfeabde	-0.12435125
142	0xbddd8a4c	-0.10817394
143	0xbdbf3632	-0.09336509
144	0xbdd969f8	-0.10615915
145	0xbc90e380	-0.017686605
146	0xbd8a2fdb	-0.06747409
147	0xbd3ac6da	-0.045599796
148	0xbdbbb34a	-0.09165056
149	0x3c404b2e	0.011736674
150	0xbdb07d90	-0.08617699
151	0x3dd46623	0.103710435
152	0x3c5f8feb	0.013645153
153	0x3d628817	0.055305567
154	0x39fbc182	0.00048018625
155	0x3d2008c4	0.03907086
156	0x3bf2e1bb	0.007412163
157	0x3dc1c88b	0.09462079
158	0xbcef0af2	-0.029180024
159	0xbb51db98	-0.0032021757
160	0xbb4a3763	-0.0030855767
161	0x3d2e701d	0.04258739
162	0x3d05fff8	0.032714814
163	0x3d5966e7	0.05307665
164	0xbdc0b3a6	-0.09409265
165	0xbdca7e47	-0.09887367
166	0xbd8a091e	-0.0674002
167	0xbda33a51	-0.07970107
168	0x3cc8542f	0.024454204
169	0xbda84ef3	-0.08218183
170	0xbdbe8db4	-0.093043715
171	0x3c187999	0.009306335
172	0xbd802813	-0.062576436
173	0xbb8e48f5	-0.0043421932
174	0xbdec2310	-0.11530125
175	0xbd98d4a0	-0.0746243
176	0x3d7a33b2	0.061084457
177	0xbdd938e2	-0.10606553
178	0x3d5e7c6e	0.054317884
179	0x3ad3f9d2	0.0016172475
180	0x3d291af5	0.041285474
181	0xbda1d9f5	-0.079029
182	0x3c29d7c5	0.010366385
183	0xbdaa10d9	-0.08303995
184	0x3c74ad39	0.014933878
185	0x3b594ff3	0.0033159226
186	0xbc46bccd	-0.012129975
187	0xbcee0206	-0.0290537
188	0xbac3a55b	-0.0014926599
189	0x3d921d4f	0.071344964
190	0xbe182dd6	-0.14861235
191	0xbdae3e85	-0.085080184
192	0x3c33c4b2	0.010972189
193	0xbe09e3ed	-0.13465853
194	0x3cbccc1e	0.02304655
195	0xbdf290e3	-0.11844041
196	0xbc791758	-0.0152033195
197	0xbd5df88b	-0.054192107
198	0xbda58bd7	-0.08083313
199	0x3d1f8e9d	0.038954366
200	0x3b44fcc7	0.0030057894
201	0xbca66f0a	-0.02031662
202	0xbd8c7483	-0.0685816
203	0xbd5c4c3d	-0.053783644
204	0xbdd7e554	-0.10541788
205	0xbd81be61	-0.0633514
206	0x3d8b0731	0.06788481
207	0x3da1ae7d	0.07894609
208	0x3cfb5404	0.03067971
209	0xbd415c5c	-0.04720722
210	0xbc33fabf	-0.0109850755
211	0xbd295e9a	-0.041349985
212	0x3d5d7a1b	0.054071527
213	0xbcf685dc	-0.030093126
214	0x3b8615ac	0.004091939
215	0xbcf9fbb4	-0.03051553
216	0xbd009db2	-0.03140039
217	0xbc32263c	-0.010873374
218	0xbd42adcf	-0.047529038
219	0xbc46a328	-0.01212386
220	0xbda10928	-0.078630745
221	0x3a9520f8	0.0011377623
222	0xbd960062	-0.07324292
223	0xbd9aed17	-0.075647525
224	0x3d129aae	0.035792045
225	0xbd5fee1f	-0.05467045
226	0x3d77edaa	0.06052939
227	0xbde3383b	-0.110947095
228	0xbc94b6be	-0.018153545
229	0x3bbcf603	0.0057666316
230	0x3ce683e9	0.028139072
231	0x3d49e68d	0.049292136
232	0xbcd44ba1	-0.025914969
233	0xbcb6af4e	-0.022300389
234	0x3ac6e027	0.0015173004
235	0xbd896951	-0.06709541
236	0x3ce2369b	0.027613929
237	0xbd1f3bb1	-0.038875286
238	0xbbc94a14	-0.006142864
239	0xbda62bc9	-0.0811382
240	0x3cc34254	0.023835339
241	0x3c0670a4	0.008205567
242	0xbaf49d65	-0.001866263
243	0x3d4d6aa6	0.050150536
244	0x3d8adb18	0.0678007
245	0xbd9d9d5a	-0.07696028
246	0xbdfb3406	-0.12265782
247	0xbe09d2a7	-0.13459264
248	0x38b6c797	8.715613e-05
249	0xbdb93e85	-0.09045128
250	0xbcccd74e	-0.025005009
251	0xbbafed2e	-0.00536885
252	0x3d235700	0.03987789
253	0xbce6a701	-0.028155806
254	0xbde62458	-0.11237401
255	0xbc7e3888	-0.015516408

discriminator.0.weight f4 [1, 1, 2, 2]
0	0xbf045dcd	-0.5170563
1	0xbef69c66	-0.48166198
2	0x3eea4471	0.45755342
3	0x3cfca65e	0.030841049

discriminator.2.weight f4 [128, 729]
0	0xbb5da8cf	-0.0033822542
1	0x3cef9029	0.029243546
2	0x3b2475e7	0.002509469
3	0x3ce50e2c	0.02796086
4	0x3d43ba93	0.047785353
5	0xbc8dba12	-0.01730064
6	0xbbc1e3e0	-0.0059170574
7	0xbc642c43	-0.013926568
8	0x3c0c1fbb	0.008552487
9	0x3cbd82e7	0.023133708
10	0x3d1f57bb	0.038902026
11	0x3cfd0bdf	0.03088945
12	0x3c22653e	0.009911833
13	0xbc23fad6	-0.010008534
14	0xbb5a8629	-0.0033344126
15	0x3cb8641f	0.022508679
16	0x3d484811	0.048896853
17	0x3cfbfa18	0.030758902
18	0xbcff72bb	-0.031182637
19	0x3d3452ae	0.044024162
20	0x3c8400ff	0.016113756
21	0xbb7b4927	-0.0038343163
22	0xbc628929	-0.013826647
23	0x3c7d3756	0.015455088
24	0x3c81e804	0.015857704
25	0x3d00db93	0.031459402
26	0x3d325c60	0.043545127
27	0xbc5c4290	-0.013443604
28	0xbc6595d1	-0.01401277
29	0x3cd806c9	0.026370423
30	0x3d1dbeaf	0.03851193
31	0xbc871389	-0.016488807
32	0x3d2611a5	0.04054417
33	0x3d218f24	0.03944315
34	0x3d1a5cf3	0.0376863
35	0xbb707e80	-0.0036696494
36	0x3d03e7ca	0.032203473
37	0x3d0764a2	0.033054955
38	0xbc88175e	-0.016612705
39	0x3c356c28	0.01107315
40	0x3c6c83a9	0.014435687
41	0xbbd823c5	-0.006596061
42	0x3c6f830d	0.014618647
43	0x3cb387f1	0.021915408
44	0xbd41d4ed	-0.047322202
45	0x3d0cfdfa	0.0344219
46	0x3d435dae	0.04769676
47	0x3d731a30	0.059351146
48	0x3c7a5113	0.015278119
49	0x3cf1329d	0.02944308
50	0x3b9dfdb8	0.0048215054
51	0xbc89f9ab	-0.016842684
52	0x3d5b7187	0.053575065
53	0xbc1ac0db	-0.009445394
54	0x3b9e10f6	0.0048237992
55	0x3c006d36	0.007838538
56	0xb9c6dda2	-0.00037930632
57	0x3bf6de39	0.007533815
58	0x3c4e76fd	0.012601611
59	0x3c7375b1	0.014859603
60	0x3ceaf125	0.02867944
61	0x3d7f22d4	0.062289074
62	0x3c9b084a	0.018924851
63	0x3d1a19ae	0.037622146
64	0xbcba27c8	-0.022724047
65	0x39bd5d11	0.0003611823
66	0xbd83d24e	-0.06436597
67	0xbd34615a	-0.044038154
68	0xbda671f2	-0.08127202
69	0xbd7b0728	-0.06128612
70	0x3ccb17e8	0.024791673
71	0xbd4006d0	-0.046881497
72	0xbd2b2394	-0.041781977
73	0xbd8e0efe	-0.06936453
74	0xbd85280a	-0.065017775
75	0x3d128ac4	0.03577687
76	0xbd169325	-0.03676142
77	0x3d69b0bb	0.05705331
78	0x3c8cb4b3	0.017176008
79	0x3bfb8ca8	0.0076766796
80	0x3cca8e39	0.02472602
81	0x3c885e21	0.016646447
82	0x3c834649	0.016024726
83	0x3d45d1dd	0.048295844
84	0x3a2554da	0.00063068944
85	0x3cb5f4c0	0.022211432
86	0xbbf3f07f	-0.007444441
87	0x3d983dfd	0.07433698
88	0xbc386326	-0.011254108
89	0x3d134d72	0.03596253
90	0xbcedb0ab	-0.029014906
91	0xbd9c3048	-0.076263964
92	0x3d354008	0.044250518
93	0x3d2581fb	0.040407162
94	0x3ca5b432	0.020227525
95	0x3b89f05d	0.0042095617
96	0x3c578a8b	0.01315559
97	0x3d2f6471	0.042820398
98	0x3d01250f	0.031529482
99	0x3d4d6ba1	0.05015147
100	0x3db7a1be	0.08966397
101	0x3d3a6856	0.04550966
102	0x3d652cb6	0.055950843
103	0xbcee36df	-0.029078899
104	0x3cd22377	0.025651677
105	0xbbb30cb1	-0.0054641594
106	0x3c9280de	0.017883714
107	0x3cc93929	0.024563389
108	0x3d39669c	0.04526387
109	0x3d3d413c	0.04620479
110	0x3d3daac3	0.04630543
111	0x3cb71e49	0.022353308
112	0x3afade2c	0.0019139699
113	0x3cd133a8	0.025537327
114	0x3d957250	0.07297194
115	0x3c07db9f	0.008292108
116	0xbd446522	-0.04794801
117	0x3d1f42ad	0.038881946
118	0xbc897657	-0.016780062
119	0x3c42616d	0.011864048
120	0xbda4e5d7	-0.08051651
121	0xbc78d7ed	-0.0151881995
122	0xbbeca96e	-0.007222346
123	0xbc6f8e3a	-0.014621312
124	0xbd34fe44	-0.0441878
125	0xbaed8f2f	-0.0018124337
126	0xbd42f477	-0.04759642
127	0xbcd4fa18	-0.02599816
128	0xbd670616	-0.05640229
129	0x3d325f2b	0.04354779
130	0x3abb7e75	0.0014304655
131	0xbc591deb	-0.013251762
132	0x3d4b230d	0.049593974
133	0x3d035f45	0.032073278
134	0xbcab4db1	-0.02091107
135	0xbc98df69	-0.018661218
136	0x3d36b069	0.04460183
137	0x3ca5a744	0.02022136
138	0xb9d6724d	-0.00040902421
139	0x3c5bb968	0.0134109035
140	0x3d3cd250	0.046099007
141	0xbb4a77d9	-0.0030894189
142	0xbc9beffa	-0.019035328
143	0x3c91c3be	0.017793532
144	0x3d2c32fd	0.042040814
145	0xbc9d8087	-0.019226326
146	0x3bdc5c44	0.006724866
147	0xbcdec2e3	-0.027192539
148	0xbcb520df	-0.0221104
149	0xbd668588	-0.05627969
150	0x3ce23a11	0.027615579
151	0xbc87a50e	-0.016558196
152	0xbc8830fe	-0.016624924
153	0x39cd77c9	0.00039189894
154	0xbbf1ea89	-0.007382695
155	0xbc8082ec	-0.015687428
156	0xbd138897	-0.036018934
157	0x3c9c95b9	0.019114362
158	0x3c229ebf	0.009925543
159	0x3cd3f850	0.02587524
160	0x3d22e7da	0.039771892
161	0x3ca48bd8	0.020086214
162	0x3d7dbd33	0.061948013
163	0x3d321499	0.043476675
164	0x3cf3718e	0.029717233
165	0x3b3c6550	0.002874691
166	0xbcbf1b03	-0.02332831
167	0xbcee4857	-0.029087229
168	0x3d1d1a69	0.038355265
169	0xbd233ab0	-0.03985089
170	0xbcc0da6b	-0.02354165
171	0x3bca01e1	0.0061647748
172	0xbd1ff8ba	-0.039055564
173	0x3d0cd958	0.034386963
174	0x3d10f719	0.0353919
175	0x3cbc2f03	0.022971636
176	0x3c5637b4	0.013074804
177	0xbc60384d	-0.013685298
178	0x3d9dbcd2	0.0770203
179	0x3c12df4a	0.008964369
180	0xbb4e34a8	-0.003146449
181	0x3dde9ce3	0.108697675
182	0xbc03033b	-0.007996376
183	0xbb362562	-0.0027793278
184	0xbdbeefa0	-0.093230486
185	0xbc85f0e1	-0.016350212
186	0xbc5dd123	-0.013538632
187	0xbc0ed89e	-0.008718638
188	0x3ca1cbb8	0.019750461
189	0xbd050739	-0.03247759
190	0xbd49dabd	-0.04928087
191	0x3d714e8c	0.0589128
192	0xbc9d99ce	-0.019238379
193	0x3d89ec99	0.067345805
194	0xbb69a63b	-0.003565206
195	0xbcbee262	-0.023301307
196	0xbc5b74e2	-0.013394566
197	0x3d4a4fd6	0.049392544
198	0x3cb79509	0.022409933
199	0xbcb07a42	-0.021542672
200	0xbc1d1f50	-0.009589985
201	0x3c5bcf7f	0.01341617
202	0xbd0e5287	-0.034746673
203	0x3cc20f5d	0.023688966
204	0x3d4bf809	0.04979709
205	0xbda50305	-0.080572166
206	0x3d842692	0.06452669
207	0x3d80c53b	0.06287619
208	0xbccc6509	-0.024950521
209	0xbcaeb2ea	-0.021325547
210	0x3d022815	0.031776506
211	0x3dcb58f4	0.09929076
212	0xbd4286ba	-0.047491767
213	0xbd99c8ab	-0.075089775
214	0x3d0ce94a	0.03440217
215	0xbcc93c99	-0.024565028
216	0x3c925e64	0.017867275
217	0x3cd49519	0.025950002
218	0x3d3f2d03	0.046673786
219	0xbbd7a024	-0.0065803695
220	0xbcef5de8	-0.029219583
221	0x3cf71f2d	0.030166233
222	0x3d24d74b	0.040244382
223	0xbb00735b	-0.0019600007
224	0xbcef9e1a	-0.029250193
225	0x3d39e03c	0.045379862
226	0xbd258750	-0.040412247
227	0xbc6f4536	-0.0146039035
228	0x3d97faa8	0.07420856
229	0x3d0a5863	0.0337757
230	0xbb90331c	-0.004400624
231	0x3d4bcdb2	0.049756713
232	0x3d40dae8	0.047083765
233	0xbd78b734	-0.06072159
234	0xbcc3f008	-0.023918167
235	0xbc230761	-0.00995049
236	0x3e09af99	0.13445891
237	0xbd98d6c2	-0.07462837
238	0xbd1dd977	-0.03853747
239	0xbd407c2e	-0.046993427
240	0xbadaf858	-0.0016706092
241	0xbc62adec	-0.0138354115
242	0x3d9b602c	0.07586703
243	0xbd6d8573	-0.057988595
244	0x3d2ffe18	0.042966932
245	0x3d15446f	0.036442216
246	0xbcf85f8a	-0.030318994
247	0xbccf7e42	-0.02532876
248	0x3cd3c005	0.025848398
249	0xbd2e90f4	-0.042618707
250	0xbc386aea	-0.011255959
251	0xbc7e8084	-0.01553357
252	0x3ca92248	0.02064623
253	0x3c8a697c	0.016896002
254	0x3901544a	0.00012333799
255	0x3d2a2fca	0.04154948

discriminator.2.bias f4 [128]
0	0xbd96aeb6	-0.07357542
1	0xbce26f10	-0.02764085
2	0xbcfaf506	-0.030634414
3	0xbd1eb5c7	-0.038747575
4	0x3ba96136	0.005169059
5	0x3b75e9b3	0.0037523329
6	0x3ce82d61	0.02834195
7	0xbcc18dce	-0.023627188
8	0xbd7f88a6	-0.062386177
9	0x3b74848b	0.0037310447
10	0xbdbd8d5b	-0.09255477
11	0xbcb68160	-0.022278488
12	0xbd695ff0	-0.05697626
13	0xbdce30ec	-0.10067925
14	0xbdf1e9bd	-0.1181216
15	0xbd396b5b	-0.045268398
16	0xbb7258e1	-0.0036979245
17	0xbca011a7	-0.019539667
18	0xbd4918b9	-0.049095843
19	0x3cbcdab4	0.023053505
20	0x3d845ee1	0.06463409
21	0xbbbd493a	-0.0057765516
22	0xbbd1b8ad	-0.006400189
23	0x3cc523e2	0.024064962
24	0xbd835f92	-0.06414713
25	0x3d9065df	0.0705068
26	0x3cba17d6	0.022716444
27	0xbc46dce0	-0.012137622
28	0x3c586889	0.013208517
29	0x3d91e0ff	0.07122993
30	0xbd6858a6	-0.056725167
31	0xbd659675	-0.05605169
32	0x3d63367a	0.055471875
33	0xbc1258b8	-0.008932285
34	0x3c9cad7d	0.019125694
35	0xbd6525b2	-0.055944152
36	0xbdcf30a5	-0.101167
37	0x3c8ec01c	0.01742559
38	0x3c85fb5d	0.01635521
39	0xbd2559a3	-0.040368687
40	0xbba25043	-0.0049534156
41	0x3d5c53e8	0.053790957
42	0x3c6160cb	0.013755987
43	0x3c49065b	0.012269582
44	0xbd96a29d	-0.07355235
45	0x3cc5c92f	0.024143783
46	0xbdce9a1a	-0.10087986
47	0xbd484b71	-0.04890007
48	0x3d540776	0.051764928
49	0xbd2f7b71	-0.042842332
50	0xbdad034b	-0.08447894
51	0xbceb6e7c	-0.028739206
52	0x3b0d960e	0.0021604332
53	0x3ccbbd9b	0.024870684
54	0xbd4324d5	-0.047642548
55	0x3c5dea15	0.013544579
56	0x3d78693b	0.06064723
57	0xbdd78797	-0.105239086
58	0x3d4ca59b	0.04996262
59	0x3d63573e	0.055503123
60	0xbbf43ee4	-0.007453786
61	0xbd4dace8	-0.050213724
62	0x3d61e6f4	0.055151895
63	0x3cf59730	0.029979318
64	0xbd60364b	-0.054739278
65	0xbddcaa58	-0.10774678
66	0xbc9fb3ec	-0.019494973
67	0xbc7812a0	-0.015141159
68	0xbdbc6ecc	-0.0920082
69	0xbca06e53	-0.019583857
70	0x3d2678bf	0.040642496
71	0xbd7d1fbf	-0.061797854
72	0xbc223b90	-0.009901896
73	0xbdb409a9	-0.08790905
74	0xbc998c0b	-0.018743536
75	0xbaabbc39	-0.0013102359
76	0x3be49271	0.006975465
77	0xbd394776	-0.045234166
78	0xbbe12b68	-0.0068716295
79	0xbcdd06b7	-0.026980741
80	0x3d5f5d72	0.054532476
81	0xbd8aadc4	-0.067714244
82	0x3ddb7012	0.10714735
83	0xbccaa45b	-0.024736574
84	0xbde156b6	-0.11002867
85	0xbda973e8	-0.082740605
86	0xbcecdd5c	-0.028914146
87	0x3d1f422b	0.038881462
88	0xbbd5117c	-0.0065023284
89	0xbcf3a0e4	-0.029739805
90	0xbd67f0a3	-0.056625973
91	0xbd453ebc	-0.04815553
92	0xbc25c4cc	-0.010117721
93	0xbdc99e41	-0.09844638
94	0xbd023cbc	-0.031796202
95	0xbd809d22	-0.06279971
96	0xbc4ff25f	-0.012692063
97	0xbccdebc2	-0.025136832
98	0x3ce9360d	0.028468156
99	0x3d119e5f	0.035551425
100	0x39e34d66	0.0004335448
101	0x3c29cd6a	0.010363916
102	0xbb4531b1	-0.0030089433
103	0xbd8f811a	-0.07007046
104	0xbd7f9eec	-0.06240742
105	0xbda3e63f	-0.080029
106	0xbdc501fc	-0.09619519
107	0xbdd392d0	-0.10330737
108	0xbcbb7e8f	-0.022887496
109	0x3d1e04d4	0.038578823
110	0x3bec9113	0.0072194426
111	0xbd0cd516	-0.034382902
112	0x3c20fb69	0.009825566
113	0x3b6f51b6	0.003651721
114	0xbb9ae7ed	-0.0047273547
115	0xbbc718e4	-0.0060759652
116	0xbd7cbbfd	-0.061702717
117	0xbde471b0	-0.11154497
118	0xbbc97f0a	-0.0061491774
119	0xbdc6f241	-0.09714175
120	0xbbd4ae16	-0.006490479
121	0xbb74788c	-0.0037303297
122	0xbd278df6	-0.04090687
123	0xbd3b9b17	-0.045802202
124	0xbd0c9181	-0.03431845
125	0xbcdfd633	-0.027323818
126	0xbc70fb2f	-0.014708324
127	0xbdf55170	-0.119784236

discriminator.5.weight f4 [1, 128]
0	0xbe875dd3	-0.2643877
1	0x3e305275	0.17218955
2	0xbc0f0fd9	-0.008731806
3	0x3d918f8c	0.071074575
4	0x3eba9a18	0.3644569
5	0x3e9d0600	0.3066864
6	0xbe903196	-0.2816283
7	0x3d89b0a6	0.06723146
8	0x3eaf3800	0.34222412
9	0x3eb6827c	0.35646427
10	0x3ebd8e3a	0.37022573
11	0xbe858a96	-0.26082295
12	0xbe5d5bc3	-0.21617036
13	0x3e977be3	0.29586706
14	0x3e9d9c42	0.30783278
15	0xbe9bb0b3	-0.30408248
16	0x3ea2d1a2	0.31800562
17	0xbe8442e1	-0.25832275
18	0x3e6ebce1	0.23314239
19	0xbc35b843	-0.011091295
20	0x3ebda6f1	0.3704143
21	0xbe6af582	-0.22945216
22	0x3ec0d56a	0.37662822
23	0xbd0f760e	-0.035024695
24	0xbe4e6daa	-0.20159021
25	0xbc3d63e1	-0.0115594575
26	0xbc67857e	-0.014130948
27	0xbb557977	-0.003257362
28	0x3eb1948e	0.3468365
29	0xbb731f5a	-0.0037097544
30	0x3da5e152	0.08099617
31	0xbeac5cdf	-0.33664605
32	0x3edaaf18	0.4271171
33	0xbc5d4305	-0.013504748
34	0x3ebfc669	0.37456062
35	0xbe76df28	-0.24108565
36	0x3e96b19e	0.29432386
37	0xbc138087	-0.009002811
38	0xbcda66b0	-0.026660293
39	0xbe714c42	-0.23564246
40	0xbe8f1509	-0.27945736
41	0x3ed03fad	0.4067358
42	0xbb5de736	-0.0033859736
43	0xbe8cae18	-0.27476573
44	0x3ebd795d	0.37006655
45	0xbeb19bca	-0.3468917
46	0x3eb26b6e	0.34847587
47	0xbe83ee7b	-0.25767884
48	0xbe6f30ab	-0.23358409
49	0x3eb93277	0.36171314
50	0x3ecc690e	0.399239
51	0x3ea08a0a	0.31355315
52	0xbe84e14d	-0.2595314
53	0xbb853ec1	-0.0040663187
54	0x3ebb925c	0.366351
55	0xbc8df1bc	-0.017327182
56	0x3ec12dce	0.3773026
57	0x3eb2965d	0.34880343
58	0xbe9f4c14	-0.3111273
59	0xbbe7a5ca	-0.007069324
60	0xbc84d755	-0.01621596
61	0x3ed67394	0.41885054
62	0x3a63b517	0.0008686347
63	0xbe8d28cb	-0.27570185
64	0xbcf2f10b	-0.029655954
65	0x3e834c77	0.25644276
66	0xbbd5c6a1	-0.0065239226
67	0x3ec645a2	0.38725
68	0x3ec1a686	0.3782236
69	0xbe707311	-0.23481394
70	0xbe6f34b2	-0.23359945
71	0x3ed69ca4	0.41916382
72	0xbead8ecb	-0.33898005
73	0xbe483bf2	-0.19554117
74	0xbb9bae6b	-0.004751017
75	0xbea24847	-0.31695768
76	0x3ec14b23	0.37752637
77	0xbe9d94fc	-0.3077773
78	0xbe682056	-0.22668585
79	0xbe828f5f	-0.25500008
80	0x3ebb5fd7	0.36596557
81	0x3ed6c405	0.41946426
82	0x3ea915b9	0.33024386
83	0xbe92c240	-0.28663826
84	0x3eedc9f5	0.46443143
85	0x3defb713	0.117048405
86	0xbe91c4f1	-0.28470567
87	0xbe806967	-0.25080416
88	0xbe8398c0	-0.25702477
89	0x3ed4c9b8	0.4156015
90	0x3dac2f26	0.0840743
91	0x3ebcc655	0.36870065
92	0x3eb9acff	0.36264798
93	0x3e458c62	0.19291833
94	0x3e1c6121	0.15271427
95	0x3e19f1ad	0.15033598
96	0x3ebe88a9	0.37213638
97	0x3e958a09	0.29206875
98	0xbc1f67c6	-0.009729331
99	0xbb926774	-0.004467899
100	0x3ea53af9	0.32271555
101	0xbc397c1e	-0.011321096
102	0x3ef3f1d7	0.47645447
103	0xbe62948b	-0.22126977
104	0x3ea80876	0.32818955
105	0x3ea51af6	0.32247132
106	0x3ebb9133	0.36634216
107	0x3e87daef	0.2653422
108	0x3eda00f9	0.42578867
109	0xbe817dd5	-0.25291315
110	0x3eae8779	0.34087732
111	0xbcb028ff	-0.021503923
112	0x3ebe1ea3	0.3713275
113	0xbe562606	-0.20912942
114	0xbe8dfd7b	-0.27732453
115	0xbe531bef	-0.20616125
116	0x3ed810c0	0.4220028
117	0x3ebad619	0.3649147
118	0xbc0a6d81	-0.008448959
119	0x3e81786c	0.25287187
120	0xbe7e4ab3	-0.24833183
121	0xbe899bca	-0.2687667
122	0x3eb76eb9	0.35826662
123	0x3ebaaec7	0.3646147
124	0xbe8603b0	-0.26174688
125	0x3eb30383	0.34963617
126	0x3ea8328a	0.32851058
127	0x3ec78805	0.38970962
